Zenodo/Npys/theta_N18N20_to_N30.npy (npy, 240128 bytes, 1 tensors)

array f8 [1000, 30, 1]
00000000: 8d76 3c5a dd13 ee3f bfef 4eb5 a66b eb3f
00000010: 1297 a190 3c3c b53f e65b 309d 4aba d73f
00000020: 3e03 9b7b 0ce0 c13f c8af e88b 9cc6 de3f
00000030: 2471 e233 e2be e03f 7872 ada5 cb68 de3f
00000040: e822 a6e2 88d7 d63f 4a94 281f f64b c73f
00000050: d5a3 0b87 40ca e73f e917 4e22 a494 b3bf
00000060: 2eb3 9332 d2fa adbf ec97 8410 7f4f d43f
00000070: c472 65a8 6449 b23f a285 4583 020b e43f
00000080: 92c2 0fab 03f6 d93f 5f8a 1a49 53a4 e03f
00000090: b2e5 69cb 5681 d93f b0a5 be27 761b c2bf
000000a0: 578d 2c19 289e c0bf 1ea3 67c7 7a6f dc3f
000000b0: 58c5 35aa e2cf d83f 9914 d8ae a268 eb3f
000000c0: 2c7f 7e5b 0bdf d43f 4ded df33 3d4a e83f
000000d0: a258 7a5c a1f4 e23f aa74 7fc9 620b bfbf
000000e0: 6c40 f389 2f20 e13f e009 b001 6323 9e3f
000000f0: 506b 69f5 6538 cf3f d809 cb37 3efa e83f
00000100: 5223 b859 a4f0 db3f f849 b985 0a12 a33f
00000110: 81fd d4b4 d9e0 bcbf ebfc 7bc5 7554 e13f
00000120: e84c 721d 67eb e03f 65fa 8962 c225 bcbf
00000130: 0897 0a1b 4973 9c3f 2b4e e8be fa96 ec3f
00000140: 792a 7a22 c25b eb3f 368e bb42 5593 b33f
00000150: c8fe d980 e8c8 d23f 9063 a2a1 ba68 b93f
00000160: bec3 02d4 ada3 b03f 7ce2 d66e ee95 b5bf
00000170: 2c60 9990 115e c3bf e354 7a83 97e4 e33f
00000180: 6117 2c6e 927d e43f 755e 21dd 53a6 e93f
00000190: d661 22cd b030 e73f 0ac4 4ea9 d010 d93f
000001a0: 62fa 685c 0e91 de3f 1176 17dd 7820 e63f
000001b0: 74b8 ad5f 76d6 e13f 876f 1b97 58da e13f
000001c0: e058 dc82 ae0c e73f 537d ddc0 160e d53f
000001d0: 3a36 5bb6 5faf c43f 2849 b25f f22b e03f
000001e0: 1c8e e970 2475 cc3f 7c18 1918 0386 ea3f
000001f0: 6648 185a 489b d63f d164 44e1 8568 e73f
00000200: d266 5238 1849 d63f 72a7 dd42 2d7f e63f
00000210: 29f7 f307 cbc5 e63f d40c e126 d889 dc3f
00000220: 9e2e 3ab2 1a6a e03f 002b f367 7d6c d33f
00000230: f99c a0a7 ccee d23f 4c1d a320 39fb da3f
00000240: 6188 3f48 b9bc d23f bf31 6734 aee9 b2bf
00000250: 3590 3350 4759 b5bf 9f57 e471 d9be e13f
00000260: aec5 b0f1 5812 e23f 45d5 2a3b 9a50 ea3f
00000270: f4db abf8 1aa6 c0bf c69f 9460 ee6c d93f
00000280: f867 ab55 1127 99bf 9632 15c4 fbde c03f
00000290: 43be ccdd 5ce5 d13f c4f3 e667 8b24 e23f
000002a0: 2714 2830 acf4 e93f 8e00 1ae7 fef0 de3f
000002b0: 8067 ae0d a1c5 e03f 3ffc 2a8d addb eb3f
000002c0: 649b f1d7 44b9 cd3f 3061 70a3 28d4 d63f
000002d0: 47c6 680c 2c99 e23f 242d 4d26 f84b d73f
000002e0: 1845 5278 ed29 963f 90cc a667 1b0f d93f
000002f0: 1eb9 24d2 23ca db3f 29fd d549 bcdd e63f
00000300: 89e9 b9db 4ea2 ed3f 55d8 a6c9 9703 e33f
00000310: bfdf 712b 7364 e83f 1a60 5656 3887 da3f
00000320: e0e5 ca3c 66a8 bb3f e893 5ff9 b781 d23f
00000330: baae c467 92e8 c63f d7ab 31a7 5200 bbbf
00000340: 2047 7446 a131 e63f 51b4 cefa ff2c ea3f
00000350: 6900 c59d 444b ec3f c8ad 729a a040 ce3f
00000360: c583 e2b5 f495 eb3f 9fd0 4c85 aeb7 eb3f
00000370: 8c08 187f ff9c ca3f 7e78 bef3 5352 e23f
00000380: 38e7 3436 124d bd3f ea44 135d f776 d93f
00000390: 13a6 9208 ada3 e53f 967c 578d 49a1 a7bf
000003a0: 5f5a 1078 a817 e13f 5f8e 3253 7def eb3f
000003b0: 7ec8 4fde 41b9 c93f c0b4 96be b05b 703f
000003c0: a6e8 db04 b34f e83f c22b e004 77a9 de3f
000003d0: 468a 087c 83a2 d73f 1db5 ddc8 1b23 ed3f
000003e0: 0e01 81f2 9bfc c0bf d400 b3bd 2592 e93f
000003f0: c4e4 aa8a 5bd2 a0bf d018 cee9 95ee e23f
00000400: a428 7612 1ce0 bb3f c803 a9e4 9572 b9bf
00000410: 5a5a 4b96 fb2c bebf 2272 57d7 fed0 d53f
00000420: ba0d ec20 8f3b e43f d6af 29cf dc29 e23f
00000430: dc02 0aa8 efc7 d73f 562b c6e5 bff8 b73f
00000440: e941 6eb9 35df d33f e6a3 daaa 3339 dc3f
00000450: f061 c9bb daa1 d83f 29d0 45be 0fae ec3f
00000460: 9ff5 4418 ba77 e13f 9f40 6004 144f e73f
00000470: cd94 3543 5eca e73f 64fe 4bdc 86f3 d73f
00000480: 4c57 bf11 9300 e13f f38e 1e64 6d94 b4bf
00000490: e263 bfab 8ef6 a5bf c7dd 5f75 58b4 ed3f
000004a0: a494 be76 8b05 c53f 006b 85b6 5e9e cb3f
000004b0: 038d a62c fd20 e13f 44ae f9e8 4729 adbf
000004c0: 800e 5d5e 04a5 8e3f ef79 4b37 4893 c0bf
000004d0: 3c4d 4a47 7e1e a4bf 034e 9682 30cd c0bf
000004e0: b02d 3234 5cf7 cb3f a527 14cb ac3e bcbf
000004f0: c8ab b947 d4ea a73f 6afc 1dbc 8b26 c43f
00000500: 2031 886f d93f ac3f 447b 60b9 99aa dd3f
00000510: b1cb e435 8772 d53f fa12 b1b2 49dd cd3f
00000520: 4ec7 de73 0c26 c83f d63b 2b2c d03d cc3f
00000530: 8b2c 7718 1044 ec3f b507 ad81 662c e83f
00000540: ad56 406e 51ca d33f 8824 a489 be28 b63f
00000550: a280 a7ea 5c8c de3f 1659 4817 9610 e93f
00000560: 6ca3 afdb 6015 d83f 6262 a510 4edf c13f
00000570: 5812 7a71 99e9 e03f 0c5e 26d3 6a4c d63f
00000580: 9532 9b4c 0655 e53f 2ae2 aff3 bb87 a3bf
00000590: f265 92a6 436a e53f 30f3 6a03 80a0 c83f
000005a0: fc64 af55 f28c c83f 26fb 9ad7 c1bb e73f
000005b0: b3a9 48f7 65ac e93f 2fe5 be94 ca4a e23f
000005c0: 4601 0f7d 86b1 d93f 971c 17da 2abc ea3f
000005d0: 2767 a260 8d9d ea3f 30da bb03 ad43 be3f
000005e0: 0093 c931 1702 763f 28e0 ba05 6274 b13f
000005f0: e213 5b7a f28e de3f e841 1383 42d7 b7bf
00000600: f391 7181 00b9 ec3f 11de bb8d 9ebc b6bf
00000610: 14ec 574b 97f2 de3f a3ba 471c e91f e03f
00000620: 28c2 278b 0156 da3f 1eb2 1bcc fb5a d33f
00000630: 7ab5 f15e 96ea e03f b000 7906 3218 b83f
00000640: 291c 0b4e 0d8c c3bf 6e57 c6bc 48a1 c63f
00000650: 3c93 2081 0f17 aa3f 91a8 c0c8 65e5 ea3f
00000660: 271b 271b 7f25 d13f aca9 9dd5 96e2 bb3f
00000670: 7a3e ad0b f9bb d23f 100b 6b0a 814f 88bf
00000680: f43e 0ab5 e91f e73f 4d92 980c cc91 e23f
00000690: 0051 fce9 1b52 a83f 6809 211d 8a72 a2bf
000006a0: 4ec2 cbd9 8322 dd3f 5e6e c0d4 69e1 a1bf
000006b0: 8cca 908e ee9e e63f 0ea9 58b1 3590 e83f
000006c0: ba9a 7274 1c37 c2bf 2361 5b99 3f40 ec3f
000006d0: 85bd b7a0 5e36 e73f adab 526c 6c3b e93f
000006e0: 1095 689a b8eb b83f 24a6 a004 88b3 c63f
000006f0: a09b efe7 31ad 943f 2ec4 a04b fba7 c03f
00000700: 9b27 a940 fcec e53f 5aad 06d3 22be e63f
00000710: 2617 69d4 0633 c53f a4b8 fbd5 d305 e03f
00000720: 70e2 6ac7 34ea d63f a8b5 4249 d6ec a73f
00000730: dd20 a096 679e eb3f 3044 3ce8 5789 8bbf
00000740: 61fe d13b 8194 d53f 4c61 2c6e 7e84 da3f
00000750: b272 8e49 4499 c33f c1c5 fb77 d109 e13f
00000760: 74b0 5684 d61e d13f ccf5 b27a b9e0 df3f
00000770: 9e92 995e df5a c0bf 2268 b6e2 bf08 aabf
00000780: 005b f66c 12c7 cb3f 7647 ae84 4561 db3f
00000790: 10b6 9ed5 ceac dc3f 721a 9d5e 67e5 b7bf
000007a0: 27d1 53db ddab d33f 8e52 8555 bdcf e53f
000007b0: c9ab 9ec9 6611 d03f 1a12 e29d 653b aebf
000007c0: bba6 e1dc fdeb d13f 91e8 f115 9c0c e23f
000007d0: 207e 2027 a36b b03f 9947 00c1 7817 e33f
000007e0: 6847 aad8 e8d4 e63f 9480 69b6 9d6e b33f
000007f0: fcf6 61f3 bab3 b9bf 7848 7c2e af6a 903f
0.9399248850274532 0.8568910161188724 0.08295038729701457 0.37074532843092667 0.13964992556977934 0.4808722845361868 0.5233012212152386 0.47514620952077946
0.3569051946038102 0.18200565835391763 0.7434389722449121 -0.07648683393026058 -0.058554238008446155 0.31735207188682923 0.07143239127385487 0.6263439716241701
0.40564052300673226 0.5200592449003344 0.3985192285977873 -0.14146305981311746 -0.12982655743790403 0.4443041751206226 0.38768831846308194 0.8565228857920771
0.32611354765866696 0.759062386815836 0.5923620992860104 -0.12126748484975516 0.5351789182987097 0.029431864717489264 0.2439086387920164 0.780547245951591
0.43656262170457183 0.037247017692283835 -0.11280594506114562 0.5415600640407353 0.5287356925131492 -0.10995116143929236 0.02778352954432875 0.893430111757373
0.8549509690650005 0.07646687392439663 0.2935124643627032 0.09925428815985371 0.0649975435833445 -0.08431902128257635 -0.15130824623588646 0.6216542785574827
0.6403286124993707 0.8015536612465001 0.7246936804322626 0.39165131124451646 0.47760352157994224 0.691463882274265 0.5574294918749403 0.5579035712539601
0.7202980571626334 0.32898491701594884 0.16160198597064995 0.505364596278274 0.22232490075394729 0.828858897272553 0.35322769926381736 0.7315091514348301
0.34821134090598804 0.7030245119069447 0.7116446643192137 0.4459133510283213 0.5129521828652803 0.3034966960082528 0.295825160692814 0.42158344447348806
0.2927687840984899 -0.07387818126080158 -0.0833935328296896 0.5545470451786406 0.5647396774785898 0.8223391681300788 -0.13006913320688762 0.3972736304444847
-0.02456309399972409 0.13180491518359777 0.2796241918576678 0.5669610051478391 0.8111172619397892 0.48345921104920186 0.5241246478283159 0.8705661542115947
0.2322164587414718 0.35669914208257847 0.5811977617615377 0.3640118001973909 0.021644316166718885 0.3915470611784224 0.43421264192410713 0.7145673219783123
0.9260629931953172 0.5941885889540212 0.7622619484454772 0.41450317794215297 0.10803832039064032 0.2891673980032565 0.17897253100215044 -0.10547367650876481
0.6935583473261637 0.8179931543906013 0.8841879922329215 0.23634727040676595 0.8620551636159851 0.8661720851437343 0.2079161997390354 0.5725497971177587
0.11445726226238839 0.39788612450963845 0.6762299697340403 -0.04615239954341026 0.5341379494664799 0.8729845642996671 0.20096610407887633 0.003993692787316039
0.7597289175894459 0.4790933177579825 0.36929404366143037 0.9105357096829355 -0.13270902005206903 0.7990902619422067 -0.03285490100592761 0.5916242186074445
0.10888839197847006 -0.09940468628430132 -0.11787388247771827 0.3408810713715714 0.632270397473284 0.5676101728581624 0.37157813463276823 0.09363936767310341
0.310498648724233 0.4409913223740304 0.3848788102964411 0.8962477413429087 0.5458651041041555 0.7284030995815732 0.743453151004951 0.37423869622577954
0.5313201281194124 -0.08038982099838758 -0.04289670797852076 0.9282648365469236 0.1642317132765686 0.21577056801000793 0.5352769729692287 -0.05695557326256709
0.014963182573075828 -0.12949469280188405 -0.0392951452278347 -0.1312618863708935 0.2184863333571747 -0.11033134420372777 0.046713479762579946 0.15742632565886377
0.055174631943460506 0.4635376272507765 0.33511524451312896 0.2333156702535673 0.18866115243650444 0.2206363883655899 0.8833084562151198 0.7554199726803207
0.3092235161469528 0.08655920849209242 0.47731707492313025 0.7832746939409698 0.37630483106345625 0.13962722599787286 0.5285155502647951 0.3484141408930277
0.6666289802756916 -0.03814494466491099 0.6692217114788817 0.1923980728805872 0.1918013494858214 0.7416695796053758 0.8022947149050225 0.5716298012913849
0.4014602872157592 0.8354696521354467 0.8317324530973779 0.11822015134007624 0.005373087504811691 0.06818211212055358 0.4774748034363353 -0.09312835407332154
0.8975832489200556 -0.08881560287760971 0.48355657918699646 0.503895335421323 0.4114993914545573 0.30242819721641634 0.5286361555460382 0.09411919267677393
-0.15271154700005354 0.1767970010520758 0.05095718814144454 0.8405026360462832 0.26791360522877244 0.10892622676116187 0.2927229513197528 -0.0118703919700969
0.7226456199586822 0.5802974935546189 0.04750144225377717 -0.036030117088119706 0.45523163098463193 -0.03492289278093773 0.7069008621677582 0.7676037277026653
-0.14230685888215594 0.8828428263905476 0.7253869189279817 0.7885038486177699 0.09734681863536232 0.17735386110261786 0.020191936284301826 0.13012639229558104
0.6851788771539192 0.7107099649050881 0.16561971065146358 0.5007113627778108 0.35804481005064925 0.04672879833502047 0.8630865041641546 -0.013445555472147402
0.3371890148336885 0.41433678397290374 0.15311482993719988 0.5324485152652231 0.2675071995133813 0.4980910967095411 -0.127773209754328 -0.05084800379263778
0.21701269455362393 0.4278119846068117 0.44804736005139123 -0.09334417400268949 0.30736490648929976 0.6816088362052868 0.2510621041243977 -0.05904691269191549
0.2800287873311437 0.5640392712223435 0.06414241509673291 0.5966151971390331 0.7134899360409976 0.07590661719723563 -0.10039871637306058 0.016031968319176276
