Zenodo/Npys/theta_N18N20_to_N44.npy (npy, 352128 bytes, 1 tensors)

array f8 [1000, 44, 1]
000000 88 94 fa a4 d5 4f d3 3f 8e fa c5 a7 cd 35 cf 3f
       0.3017477141496063 0.2438294476705391
000010 2a 43 e9 3b 25 f2 dd 3f 80 cc 0e 1c e8 c1 d6 3f
       0.4679043850965622 0.3555851243974715
000020 50 d0 a6 d7 4b 79 cc 3f 0e d1 72 c6 e6 89 e3 3f
       0.22245166807045047 0.6105836749980271
000030 49 f2 2b 5b 45 00 ec 3f aa bf 88 c4 c7 0d b0 3f
       0.8750330715843769 0.06271027134130117
000040 ae 05 4f ee 34 aa c3 bf 59 f2 46 24 3f e6 eb 3f
       -0.15363179813543354 0.8718562801873971
000050 ab b5 aa 27 d1 17 e7 3f 39 e9 99 3b de a2 eb 3f
       0.7216573500388014 0.863631359490035
000060 e8 5f bc 88 aa 89 a4 bf 7d eb e0 ea 07 ef eb 3f
       -0.04011280936373379 0.8729285800430798
000070 00 64 09 5c ec 08 2d 3f 13 63 df 42 45 8c c1 bf
       0.0002215183758547401 -0.13709321751846257
000080 a0 7e 81 f2 39 91 72 bf 7c 20 b6 30 63 d9 df 3f
       -0.004533029896350321 0.4976432777116384
000090 fb c2 44 64 ba 66 e5 3f e0 24 ab 72 95 6d b8 3f
       0.6687900503512475 0.09542211579823201
0000a0 82 2d 7d c0 09 8e e3 3f 20 1c 3e d0 77 b2 9b bf
       0.6110886344480806 -0.027047988972778936
0000b0 bb 12 e4 7f 26 0b e1 3f 92 b1 ad ac 08 52 da 3f
       0.5326111314648964 0.4112569509805094
0000c0 b8 60 f6 5f b7 bb 94 3f bf f5 5a 60 46 1e ee 3f
       0.020247330886917964 0.9411956674518293
0000d0 d2 d1 14 f4 94 36 b7 bf 60 04 be 2c 64 96 9b bf
       -0.09067660292641413 -0.0269408848103051
0000e0 cc 8c 40 12 ff ae b8 3f 00 b8 89 b2 33 13 81 bf
       0.09642023273095218 -0.008337406049772511
0000f0 b8 b7 17 34 7a a5 90 bf dd 34 82 e3 21 ad ed 3f
       -0.01625624602268491 0.9273843234565465
000100 00 43 76 17 63 c5 44 3f 1b 35 1b 27 ca 45 e1 3f
       0.0006338819356860037 0.539769245509578
000110 a5 99 96 16 05 6c ea 3f 26 85 84 c3 77 39 d4 3f
       0.8256860200097448 0.3160075578071705
000120 96 1a e1 16 08 a2 be bf b5 fb c4 ac 2f f2 e2 3f
       -0.11965990599228812 0.5920637487796429
000130 27 73 e3 a2 51 ee d5 3f 06 a9 53 c9 9d 55 e8 3f
       0.3426708307941219 0.7604512149967213
000140 c2 ee 67 a9 5b ae c6 3f 17 2a 0c 9d 78 d7 eb 3f
       0.17719598552490906 0.8700526301702806
000150 bc bc 52 4f 98 e3 c1 3f 80 81 d6 f3 43 23 b9 3f
       0.13975814698412659 0.0981943579013258
000160 80 0c 95 38 29 37 c0 3f 71 50 e1 b5 7e fa d0 3f
       0.1266833807258969 0.2652889991925412
000170 90 ac c7 29 dc 20 95 3f 34 2b 02 72 3f 7d d7 3f
       0.02063316349987737 0.3670195210803968
000180 15 f1 de b4 cc 32 e1 3f c0 c8 ee 04 c8 68 80 bf
       0.5374511273035149 -0.008012354517493825
000190 c2 77 96 05 a7 b4 bd bf b7 18 6c 32 78 07 e9 3f
       -0.11603778730793038 0.7821618065652477
0001a0 2e f3 92 bb 66 e9 de 3f 07 0f 20 d4 82 66 d3 3f
       0.4829956847932405 0.3031317779097979
0001b0 74 f1 f1 5a 74 4e e5 3f 79 73 c5 1b f3 01 e5 3f
       0.6658269668837833 0.656487993470008
0001c0 46 b4 29 f6 07 e9 bc bf af 28 8c 75 df 27 d1 3f
       -0.11293077239834401 0.26805864791152606
0001d0 ca bb 66 fa 61 17 d5 3f 5c 8f 5f 25 34 a4 d0 3f
       0.329552168400309 0.2600221981976938
0001e0 c4 86 5a ff 08 83 de 3f ec db f9 4e 81 4c d7 3f
       0.47674775063397257 0.3640445014238469
0001f0 c2 ea 57 5c 22 c0 dc 3f ff 18 16 dc 98 91 d1 3f
       0.4492269422332066 0.2745115422516306
000200 60 e9 50 fe 91 89 d2 3f 34 0a cc 26 e4 e4 a3 3f
       0.28964662395050844 0.03885567639919821
000210 71 f8 3d 8c 2a 7e bc bf 76 a2 29 51 bf 4b d2 3f
       -0.1113001434696075 0.2858732502559528
000220 c0 28 ea a5 7f 65 6d 3f 5c bf 08 fc 77 07 c0 3f
       0.0035884373786006785 0.12522792631488755
000230 89 f7 af bb 8b ba ed 3f b6 5f d4 23 bd a7 db 3f
       0.9290217080849611 0.43211296557410195
000240 a8 89 cc c8 ad 77 c4 3f 34 e1 cc 03 61 a2 e6 3f
       0.1599023085082767 0.7073216509079772
000250 21 84 37 ad 04 cf ed 3f ff 7d 62 6b 2a 39 e6 3f
       0.9315207846776766 0.6944782349928004
000260 b7 c2 aa 71 4e bb e5 3f b6 fa 91 e5 48 1a d0 3f
       0.6791145534571886 0.25160429400413464
000270 13 ca ea c4 7a 48 ee 3f f2 37 a2 db bb e5 b5 3f
       0.9463476034200674 0.08553670990133336
000280 43 6d ce dc e4 50 b3 bf 22 da 75 05 95 1b ab bf
       -0.07545309439449448 -0.05294480983404905
000290 d0 e1 2f 06 a1 1f d9 3f f4 f8 80 94 cd b5 dd 3f
       0.3925554809971148 0.464221377394906
0002a0 85 f4 93 c3 f5 c4 ea 3f 92 b9 9e 5f 99 9a cd 3f
       0.8365429706460793 0.23128049057909245
0002b0 4c 40 8b 8a 27 21 e7 3f 84 21 d9 e0 75 7a bb 3f
       0.722797175019886 0.10733734836060732
0002c0 cc 5d f2 46 55 28 da 3f b6 28 04 af fa 1f e2 3f
       0.40871173790352766 0.5664037149702128
0002d0 e2 50 17 94 98 5f e8 3f b0 10 43 d5 3f 44 98 bf
       0.7616694347766748 -0.023697850600698345
0002e0 d1 ba 91 2b 65 e4 eb 3f 9d 8e 88 e4 bb e3 e2 3f
       0.8716302729570434 0.5902995551627616
0002f0 04 27 98 89 43 37 c0 3f c8 1a 5f 2a 1a c8 d3 3f
       0.12668651789163488 0.30908826959459335
000300 60 8b 1e c2 f4 fb 9d bf 48 e5 60 73 b5 06 d7 3f
       -0.02928144869623439 0.3597844721549177
000310 75 b6 36 36 41 66 ea 3f c1 27 05 ea 1c a9 e8 3f
       0.8249822672712087 0.7706436701494043
000320 c9 2e 49 f7 12 0a e5 3f 36 1c 85 f9 eb 2a e8 3f
       0.6574797467996741 0.7552394746243241
000330 46 88 ca e9 05 43 db 3f b0 3e 7b cd 80 0d a5 3f
       0.4259657652966137 0.04111864574735813
000340 4a 39 76 f1 89 eb e8 3f 8a 6a 9a c2 35 53 b8 3f
       0.778752299885846 0.09501968384794615
000350 08 32 04 4a 14 86 c7 3f 9b bf 10 88 66 e6 ed 3f
       0.18377927412110773 0.9343750627067381
000360 fd dd be 43 b5 9b e6 3f d6 e3 e0 fa 70 d5 c0 bf
       0.706507332149101 -0.131513712405449
000370 50 64 13 0e bf b4 e7 3f 10 22 c2 30 54 51 e6 3f
       0.7408137583653431 0.6974278404532601
000380 28 48 e1 82 26 c8 ab 3f 51 c3 98 fe 28 64 e4 3f
       0.0542614016309389 0.6372265789596928
000390 b6 d0 15 9d fc 18 e7 3f 46 3e b8 cd 34 97 ad bf
       0.7218001430578826 -0.05779423724390802
0003a0 d3 a9 74 1a ff 94 e9 3f 62 fa 1a ca d0 69 c2 bf
       0.7994380490029535 -0.1438542353480044
0003b0 b2 e8 ef 57 d6 1f e0 3f a2 14 f1 ca 70 14 c3 3f
       0.5038863866350509 0.14906129750503277
0003c0 c8 84 ad e5 06 b2 ce 3f c4 f1 5e 0f 6c 12 d9 3f
       0.23980795111405073 0.3917493963342873
0003d0 3c 71 08 37 9e a2 b0 bf 1e b9 c6 ec bd da c1 3f
       -0.06498135417536316 0.13948797284451414
0003e0 fd 15 41 4b 7c c1 d5 3f 5a 96 d4 09 da 3a d1 3f
       0.3399344191460328 0.26921702346803544
0003f0 50 a6 f0 79 04 79 d7 3f ec 17 b1 7f ef c9 e6 3f
       0.3667613211460763 0.7121503347377689
000400 a0 15 9f 1f bc 8c e5 3f 44 98 ae a3 7c cf a7 bf
       0.6734295480352337 -0.0465048742110388
000410 70 ae ca 39 b4 59 9b 3f 5c f8 d7 ab f1 60 bf 3f
       0.026709381129576604 0.12257299847985464
000420 fc 01 c6 52 42 48 d3 3f 30 fb c7 b4 9b 67 db 3f
       0.3012853439650198 0.42819874433910154
000430 e4 f7 d5 41 a5 93 b8 bf 38 0a 35 ce af b6 d6 3f
       -0.09600289208717033 0.35490031373425124
000440 d5 58 38 0c 24 6e c2 bf 10 24 68 c3 f6 4e b0 3f
       -0.14398623081860387 0.06370489378618083
000450 c0 46 7d 38 8c 87 6a bf 88 b1 42 e4 35 ce d8 3f
       -0.003238462322692509 0.38758609095636887
000460 12 15 fa 7c 26 ff c0 bf 80 32 ff a6 fa 4e a5 3f
       -0.13278657057177462 0.04161818779502813
000470 21 a6 00 36 91 92 e3 3f af 7f 49 ca 74 7b e8 3f
       0.6116415076004992 0.7650703383369456
000480 41 7b 73 e8 b6 bc ea 3f d9 3d 54 3a f4 45 e6 3f
       0.8355364360867058 0.6960393084754585
000490 d5 a7 a0 8b 2b dc e4 3f 50 34 6e 9a 1e 35 95 bf
       0.6518762328244018 -0.020710447478951288
0004a0 ea c0 72 c9 89 e8 b8 bf a4 b8 77 a2 f1 77 e9 3f
       -0.09729825180216137 0.7958915875622279
0004b0 9e 74 71 87 4c da e2 3f a6 bf 8e 06 78 0d a1 bf
       0.5891478200316163 -0.033305884170999264
0004c0 24 b6 bc aa a0 48 e8 3f 0d 11 17 0a 4e 38 d0 3f
       0.7588656744680446 0.2534365747963115
0004d0 49 2d 73 0b c3 24 ed 3f 08 47 cd b3 b2 30 da 3f
       0.9107375358229685 0.409222293460616
0004e0 81 d8 cd b2 6c ba e3 3f 98 73 f0 73 c6 9d bb 3f
       0.6165069095866472 0.10787620859669145
0004f0 00 a2 be c9 ee cc 69 bf 6c 63 ef 2d 83 3f dc 3f
       -0.0031494773702045453 0.44137649045801797
000500 1a dc 40 f2 02 57 b2 3f c6 7d f2 ad 2c 9d da 3f
       0.07164019026173243 0.4158431719497141
000510 4a 16 0f 03 1f 1c c1 bf c7 5f 49 64 01 20 d6 3f
       -0.13367068909990315 0.3457034568177701
000520 0e 1f 82 40 49 cd e0 3f 64 73 4c 4d 94 eb c6 3f
       0.5250593433310955 0.17906430982921073
000530 f2 b7 24 7a 0d 70 b8 3f 20 5a 97 28 8b 2b de 3f
       0.09545978767411592 0.47140768970476365
000540 62 5d 8f 71 00 c5 c7 3f 0c ce 67 66 20 f2 e8 3f
       0.18569951577112948 0.7795564651591476
000550 28 d3 eb 78 cf 2c e6 3f 2a b9 20 4e 0c 19 e7 3f
       0.6929700242750174 0.7218076253828134
000560 60 55 7c 64 99 f7 bc bf 70 04 34 27 00 d3 d1 3f
       -0.11315306380523316 0.27850345447956837
000570 a2 eb 77 e6 8c b7 e5 3f 82 44 d8 04 3d 1d b3 3f
       0.6786560536705688 0.07466489189416062
000580 9d 89 c9 70 f5 4c ea 3f 8e 60 53 ed ae 2c cb 3f
       0.8218943789363952 0.2123011263672691
000590 9f d2 53 3e d2 fd e0 3f d4 1a 2b d4 70 2d c2 3f
       0.5309840409596126 0.14201174125465477
0005a0 7f 25 a3 83 90 cf e2 3f ba 2b a5 c6 2a f0 e1 3f
       0.5878374644318426 0.5605672721661599
0005b0 c5 a2 56 78 e5 d5 eb 3f b8 46 21 24 ce 6a b7 3f
       0.869860396419505 0.09147346860961647
0005c0 c2 b4 ce b2 87 c7 d8 3f dc 2a d7 01 f8 1d b7 bf
       0.38717834912933935 -0.09030103726324107
0005d0 02 da 6c 03 35 5c d9 3f 80 d3 be 41 be 60 80 bf
       0.3962528737496599 -0.00799702299250682
0005e0 ee 7a 25 b8 07 21 cd 3f 7b c2 5f f5 4a 49 e6 3f
       0.2275705002930048 0.696446875807012
0005f0 9f c3 4a 0e e7 31 e0 3f 70 3b 5f 84 fb 52 90 bf
       0.5060916213170578 -0.015941553072305437
000600 a9 d8 41 e4 79 60 e0 3f 66 34 11 58 95 c3 d9 3f
       0.5117768724583317 0.40256246185601297
000610 fc 23 92 e5 75 da b4 bf 25 33 e9 0d 69 47 eb 3f
       -0.08145844321019519 0.85246708600025
000620 d8 c6 bf 78 95 40 ba 3f f0 b3 26 82 ff 1c dd 3f
       0.1025479717061687 0.45489490232540586
000630 78 39 47 48 d2 a0 c0 bf 6e 88 87 6a 1c 4a ca 3f
       -0.12990788010797494 0.20538668824798684
000640 98 72 be 5f 0a 2b e8 3f 4c 9f 87 86 be a7 df 3f
       0.7552539701460601 0.4946132959143952
000650 f8 e2 fe 00 45 2b da 3f dc bd 2f b5 2a 76 c7 3f
       0.40889096352798004 0.18329366538044567
000660 6d f8 77 b5 c8 f8 ec 3f 41 b3 ec bb 43 a5 d3 3f
       0.9053691429433123 0.3069619498444816
000670 32 e3 00 d4 d9 6b ea 3f c9 dd 8e 63 10 cc e9 3f
       0.825665391988059 0.8061601585858905
000680 8b 1a 9b fb 92 78 e9 3f 73 e9 13 a4 ea 60 ed 3f
       0.7959685243775579 0.9180806355137022
000690 7e e2 6c 52 41 92 e2 3f bc 0b 6e 65 f2 81 de 3f
       0.5803534135694262 0.47668132691631704
0006a0 68 e1 de 63 97 e1 9b bf fd 02 9d 1b 33 fb e1 3f
       -0.027227750273341483 0.5619140185663977
0006b0 d6 15 e4 98 c7 b1 ae bf b0 51 1e 6a b3 f9 dc 3f
       -0.059950101293036503 0.4527405296624023
0006c0 f8 e7 6c 6e 57 c9 ce 3f 87 32 b6 1d 6f 6f e2 3f
       0.24051945583215661 0.5761027889544302
0006d0 ad a2 93 5b 7d e1 eb 3f 8c e3 f9 88 c3 3f e8 3f
       0.8712755955321733 0.7577836680712706
0006e0 e0 af a8 4d 6e 37 a3 3f 4f 26 7a b9 40 76 d3 3f
       0.03753227899537115 0.3040925799656166
0006f0 6e 0d 52 ee cb b2 e5 3f d2 1c a1 0e 76 a7 a5 bf
       0.678075757474671 -0.04229325226384052
000700 97 14 55 ad cf 2e ec 3f c1 e8 73 03 1e 2e d3 3f
       0.8807142625234005 0.29968977296051597
000710 00 1a 85 5a ea 7e 91 3f 3c cb d3 ef a0 8a df 3f
       0.017085706496141384 0.49283622189175325
000720 d1 a6 fc cb 40 e3 ea 3f 13 38 23 17 85 06 c1 bf
       0.8402408584708728 -0.13301147107853292
000730 db 1e 02 4e bc ec d2 3f ac 97 d6 cb 43 7e e3 3f
       0.29569919221874635 0.6091631871429306
000740 7a a5 64 4f d1 95 b0 3f 3d 22 c1 f6 dc 54 ee 3f
       0.06478603542622877 0.9478592700407443
000750 96 04 af 92 75 1a d6 3f 87 0d 82 7c 9e 24 eb 3f
       0.34536494564606224 0.8482201034352536
000760 0c 3f a7 b5 a1 60 d5 3f a7 70 ff 33 19 71 ed 3f
       0.33402292956905977 0.9200559630949287
000770 87 53 47 32 6e ae e1 3f 6d 39 37 30 62 36 e8 3f
       0.5525427801136268 0.7566386167252809
000780 0c 15 80 46 8a 21 ae bf dd 15 f6 2d 40 3c e1 3f
       -0.05884964094733833 0.5386048219376637
000790 1d f7 07 4b af 16 b0 bf 58 0c 0a 31 42 0e df 3f
       -0.06284614164175335 0.48524527348508206
0007a0 76 c4 20 c1 22 52 ca 3f 1d 83 8a a5 18 91 eb 3f
       0.20563158445432678 0.8614619477485551
0007b0 8e 87 83 e1 3a c8 d8 3f 31 ef 2c ef d7 72 e6 3f
       0.38722106955366875 0.7015189811131447
0007c0 e0 55 64 c7 ee 18 77 bf fc d6 33 1c f6 07 dc 3f
       -0.005639012079219324 0.4379859233298331
0007d0 d8 6a 2e 5e 45 90 c9 3f 24 48 14 a3 ab b8 aa bf
       0.1997153005475727 -0.05219017377579885
0007e0 51 d6 55 3a c7 ff e0 3f c4 c1 08 af f6 b3 ac 3f
       0.5312229289399487 0.05606051336906462
0007f0 d0 20 58 04 e7 39 db 3f 0e b3 45 4b 22 5b a9 bf
       0.4254090826439212 -0.0495234219441497
