Large_Circuits/Npys/theta_N18N20_to_N42.npy (npy, 336128 bytes, 1 tensors)

array f8 [1000, 42, 1]
000000 0c c6 ac 9d 00 6d ba 3f 90 28 0f 62 c7 ec de 3f
       0.10322574471936025 0.48320183349699963
000010 2c e7 42 89 96 9c bc bf ea 5c 2f 9f c6 04 d3 3f
       -0.11176434374911243 0.29716649575625687
000020 70 17 22 93 90 ac e3 3f cc 09 87 24 14 07 ca 3f
       0.6148150323576669 0.20334102424210554
000030 04 01 3f 05 c5 24 d4 3f d8 e1 61 8a e7 b4 da 3f
       0.314744238970903 0.41729153169538113
000040 aa e0 79 db c0 80 d1 3f a4 ab 8c e0 1f be b0 bf
       0.27348348077021944 -0.06540106994786626
000050 13 18 7f d7 e7 1a d6 3f 8e 7c c2 2a 50 51 af bf
       0.3453921894509914 -0.06116724512070802
000060 eb 2f 75 51 c2 7f ed 3f d6 73 88 d0 17 7b d3 3f
       0.9218455878230974 0.3043880020575761
000070 fc 4a 52 7d 5c bd db 3f 96 fa 1f 33 4c 7d c9 3f
       0.433432695755229 0.1991362809785257
000080 7a ad 73 9e 2c 36 d2 3f ca 4b 72 a0 2d 38 c1 bf
       0.28455653642478007 -0.13452692350673906
000090 84 c3 53 00 16 98 d9 3f 94 bd e8 ac 05 ce af 3f
       0.3999075892634709 0.062118699414322937
0000a0 a3 9b e2 01 a0 a8 c0 bf 59 ae 84 bb 04 e8 eb 3f
       -0.13014602748918688 0.8720725691286574
0000b0 4b 74 14 4e 04 e9 c1 bf 99 11 f4 d4 3e eb d1 3f
       -0.1399236088990697 0.279983241998957
0000c0 18 9a 8f d6 3c 9c bc 3f fc be 93 81 12 29 b8 bf
       0.11175899732879946 -0.09437671340469572
0000d0 60 4a 60 bc 31 42 ca 3f 6c 14 a4 38 d4 13 a8 3f
       0.20514508913091145 0.047026283182312806
0000e0 33 f8 35 63 05 15 e3 3f 1c 9f 02 6e 01 25 d8 3f
       0.5963160455428408 0.37725864165484935
0000f0 d4 ba 94 6c 5b 5a b6 3f 47 cc 81 a4 a8 db e9 3f
       0.08731624031927804 0.808063813498287
000100 60 25 2c 43 81 45 c4 3f bc c7 9c 74 41 5a db 3f
       0.1583711221685844 0.42738376987392335
000110 78 90 8b f2 73 32 d9 3f de 3a 42 d6 cc b7 c1 3f
       0.3937044018368918 0.13842163526393042
000120 78 32 21 c8 ba c9 e6 3f 7a 2c 11 f7 e2 87 e3 3f
       0.7121251972944966 0.6103377175835611
000130 ed 52 2c 52 64 f0 e0 3f 9b cb 1b 28 c1 40 ed 3f
       0.5293447117752216 0.9141546042795768
000140 65 3c fe d1 38 bc d4 3f 41 c1 71 d4 02 48 e4 3f
       0.32398815638675266 0.6337904118827639
000150 16 86 be d9 ff c2 e2 3f 9e 0d 93 4e 3a 2b df 3f
       0.5863036396805821 0.4870134131744751
000160 98 40 16 2f 74 1f c6 3f 48 61 8d 3c 77 25 cb 3f
       0.17283489512602013 0.2120808644929275
000170 0d e4 40 80 7b 9a eb 3f 4f 04 a4 5e 7b ac e2 3f
       0.862607717986181 0.5835549210024825
000180 5f 5e 3d 0a f6 8e e5 3f 34 e8 79 38 02 7c d8 3f
       0.6737013053888851 0.3825688888097176
000190 8c 07 8f 83 30 1f a3 3f bc 9c 4d 6f bd 9c d2 3f
       0.037347332057392796 0.2908166491456077
0001a0 c8 4f 52 84 a1 51 92 bf d0 de 25 ff 56 e2 b3 3f
       -0.017889522267594576 0.07767242173383271
0001b0 6a a1 d1 d9 0d 5e e0 3f 15 55 95 5f 4c 4e d0 3f
       0.5114812139773168 0.25477895101842424
0001c0 6d de d2 00 d5 57 ea 3f 00 c3 44 c7 a6 72 56 bf
       0.8232216850364701 -0.0013701084799999097
0001d0 00 df 4c fc 97 46 e8 3f 28 42 dd 13 35 d7 96 3f
       0.7586173942317771 0.022305325829906547
0001e0 5e b7 5b a8 30 81 be bf 69 88 9d e1 dd 6d ed 3f
       -0.11915878401097532 0.9196614653158238
0001f0 83 16 ba 85 09 4f e7 3f 0a f8 83 77 42 d6 cb 3f
       0.7283980953076966 0.21747618518560358
000200 8d 96 51 19 5a 49 e0 3f 2d 6f 21 4f 09 e5 ea 3f
       0.5089540953164985 0.840458540489157
000210 5b bf 26 20 27 07 e3 3f 52 58 d2 35 e8 47 ce 3f
       0.5946231487232397 0.23656942966471434
000220 7d 0c 66 01 97 8f d3 3f ce e8 c3 e2 02 d3 e6 3f
       0.3056390298517682 0.7132582119950486
000230 49 18 96 8a b9 23 e7 3f 99 b3 c4 51 e9 d1 e8 3f
       0.723110933948882 0.7756239506758106
000240 38 2f 2e 4e 78 06 e1 3f a3 05 a7 40 0f c4 be bf
       0.5320397879563421 -0.12017913177898847
000250 6b ba 69 dd 59 00 e9 3f 29 b3 0f 7c 1a ef b2 bf
       0.7812928509209319 -0.0739609291919804
000260 29 a3 6d a1 24 f3 ec 3f 4a 73 80 34 c0 b7 dd 3f
       0.904680552758781 0.464340258857011
000270 d6 4a da a5 04 37 c4 3f d0 15 59 17 ed e8 bc 3f
       0.15792902086521704 0.1129291707994391
000280 a4 6a 67 51 01 5d e6 3f 40 44 7d 3f de 46 e4 3f
       0.6988531675263698 0.6336508979822
000290 0c 33 8f d0 26 46 e0 3f 3e 80 de 16 a5 56 ca 3f
       0.5085634301591155 0.20576919190080106
0002a0 d6 5d 71 08 95 8b dc 3f e6 b8 29 b0 72 dd d6 3f
       0.4460194189500418 0.3572661133138254
0002b0 72 7e 23 b8 fa e2 e6 3f a9 f8 eb 60 ff 75 e5 3f
       0.7152074428995105 0.6706540005686935
0002c0 c4 cb 72 05 19 49 cb 3f a6 b0 e0 99 ae 0f d2 3f
       0.21316826597248284 0.28220715548628517
0002d0 a4 8e b7 2e c5 e6 de 3f e8 8a e6 ec 22 90 d6 3f
       0.4828350979061986 0.35254738936252616
0002e0 3d a0 74 73 a0 59 ee 3f ba a9 91 17 f8 4f b8 bf
       0.94844076681057 -0.09497023177542632
0002f0 38 99 9f f7 d7 05 e6 3f 1c 9f 90 74 40 17 e8 3f
       0.6882133327860975 0.7528383518847224
000300 b2 b1 b2 6f be 02 bb bf 6f 1b da eb d3 85 b3 bf
       -0.10551061846735513 -0.07626080043892867
000310 21 e6 4b 27 df ca c2 bf 0a 30 b6 c8 86 ee d2 3f
       -0.1468161527516694 0.29580850220440935
000320 8b 9f 7c d1 ec 6d b5 bf b4 a7 55 6b 21 de e2 3f
       -0.08370857347892817 0.5896155449274745
000330 b4 4e 8e 7b 08 b9 e9 3f ec 5d 04 65 41 3e db 3f
       0.8038370526505418 0.42567477097460826
000340 7d 00 65 98 66 98 ed 3f 3d e4 26 8c f8 74 b1 bf
       0.924853608747085 -0.06819108411481607
000350 b7 a3 97 76 91 40 ed 3f 9b 78 c6 77 19 0c ec 3f
       0.9141318622833897 0.8764769877777953
000360 6c c3 c6 54 ca a7 b7 bf 51 8e a3 c8 7e 44 c0 bf
       -0.09240402765023042 -0.12709030911274735
000370 2e ac fb 1d c6 b3 e6 3f bd 8c c2 1e f0 eb e8 3f
       0.7094450555426925 0.778801021650359
000380 88 34 fd 86 08 4a e9 3f d6 af ff 4d 49 3e e6 3f
       0.7902872692590259 0.6951033137715921
000390 32 dd 22 a5 df 91 da 3f ee 40 48 06 8c 92 de 3f
       0.4151534187944491 0.47769451726436685
0003a0 15 02 81 fe db bd ed 3f 62 84 f4 9b e6 cc e6 3f
       0.9294261904506721 0.712512306785481
0003b0 1d 20 60 3a 3d 18 c3 bf 67 18 f8 9e 55 8e d2 3f
       -0.14917722082486842 0.28993740581825594
0003c0 ae 1a 82 50 c4 a2 d4 3f 8c 97 b5 af 62 5a ea 3f
       0.32243450033312626 0.8235333854506606
0003d0 31 99 53 10 d3 6d d5 3f 02 7a a1 dc 72 a6 a9 bf
       0.33482815355673085 -0.05009802764174155
0003e0 68 17 c0 a6 b9 1a bf 3f 06 07 21 11 95 a6 c2 bf
       0.12150154419950143 -0.1457086881292115
0003f0 8a f6 18 42 5e 35 c1 bf 00 6d 2c 97 25 f6 cc 3f
       -0.13444116809289525 0.2262618053581278
000400 56 5d 55 c9 9b be c5 3f 7d 60 5d 85 72 f8 ea 3f
       0.1698794110368264 0.8428280453472464
000410 90 ea f0 57 71 6e c5 3f d8 dd c1 f9 44 fa c2 3f
       0.16743294519422536 0.14826261706524124
000420 44 cb ba f6 e6 bb e9 3f 4b 90 c0 70 b9 98 e8 3f
       0.8041872805536987 0.7686431123916092
000430 82 71 38 64 31 33 b3 3f 43 ee 70 d5 ec 8c e0 3f
       0.07499989220418082 0.5172027748844318
000440 25 42 e9 1c 50 4d ea 3f 82 39 df 12 19 e0 c6 3f
       0.8219376148863985 0.1787139265201852
000450 eb d3 80 f7 45 b2 e3 3f e9 5b 7d 1c 79 00 e7 3f
       0.6155118783996135 0.7188077503623137
000460 2b 17 e3 94 96 6d e9 3f e6 e3 5e 95 1e 42 ea 3f
       0.7946274669600134 0.8205712239642906
000470 8d 54 51 cd f3 53 bb bf 47 52 a2 da 5b 70 e0 3f
       -0.10674976122511932 0.5137156744190826
000480 ef 09 bd 82 f5 91 e9 3f 97 bd f0 2f bf 63 e9 3f
       0.7990672639355675 0.7934261261306571
000490 00 2f 64 7a 68 ad 4e bf 66 04 2b 35 e7 31 b0 3f
       -0.0009361992022447196 0.06326146171615363
0004a0 cc 44 c6 28 25 15 bf 3f f1 1a 41 49 85 92 d2 3f
       0.1214163994357193 0.29019291070691994
0004b0 9e 91 46 0c c4 06 eb 3f a4 f8 6b 1d a6 0c dd 3f
       0.8445759048232053 0.45389702676028265
0004c0 b8 69 e5 9d 19 2a df 3f d8 f1 26 3d 47 98 e1 3f
       0.48694458407922125 0.5498386568429465
0004d0 1a 07 f7 73 62 9d d7 3f 10 39 4d cc 04 17 ba 3f
       0.3689809925527797 0.10191373813470173
0004e0 37 2f da a2 fc d7 e4 3f 18 91 14 74 f8 b4 e7 3f
       0.651365583487382 0.7408411280817147
0004f0 f8 e7 f1 3c 4d a5 e3 3f 18 4d 8e 75 57 e8 e9 3f
       0.6139284315424893 0.8096120162976232
000500 cd 43 b4 3a 60 a1 e0 3f 33 cf b6 50 43 e8 e2 3f
       0.5196992060247055 0.5908524109313248
000510 9c c5 c6 2f e4 2a cd 3f 8c a5 d8 19 f6 0c d8 3f
       0.22787144024691208 0.37579109691667933
000520 78 b5 8c 17 b5 5e 97 3f 7d a5 9c 56 59 ea e4 3f
       0.02282221752391453 0.6536070529593158
000530 26 fd e4 40 97 89 e5 3f d6 ca c9 9d c0 e7 e9 3f
       0.6730457560987915 0.8095400888253959
000540 96 61 23 84 12 2c b4 bf 34 35 68 3d 93 25 e3 3f
       -0.07879749036817993 0.5983368110043217
000550 44 5a e3 93 46 35 db 3f 43 df e7 ce bb aa e9 3f
       0.4251266903133095 0.8020915070655764
000560 78 c3 48 dd 4a bc dd 3f cc 93 8c c3 2c cb df 3f
       0.46461745843685476 0.49677580925554987
000570 cd 9c 25 af 5a 1e e6 3f 44 d4 75 ee 0b 7d b7 3f
       0.6912053509558064 0.09175180980476322
000580 d5 f1 ff a0 77 71 d2 3f b5 da a0 9d 4f 0f ee 3f
       0.28817549440989626 0.9393690184286557
000590 3c 7d 5e 14 55 d9 c9 3f c0 c8 c2 4e 19 98 e5 3f
       0.2019449567278374 0.6748167551325182
0005a0 49 f8 e4 be ba 73 d5 3f ae ca 79 67 f5 ae e3 3f
       0.3351885666087396 0.6151072522173615
0005b0 30 70 3e df 24 60 8c 3f f2 e9 75 3d 6a 8f e2 3f
       0.013855255186904086 0.5800067139055598
0005c0 d2 64 ba 46 3f b8 b7 bf a0 e7 55 b5 f2 fb d6 3f
       -0.0926551387477901 0.35912769039679837
0005d0 8e 73 07 91 05 57 b8 bf a5 42 e2 63 dc e2 ed 3f
       -0.0950778464388817 0.933942980847935
0005e0 a8 a5 96 97 91 6e 9d bf 76 93 bd b6 e5 88 c2 3f
       -0.02874209869120184 0.1448027746474982
0005f0 f6 fa a7 d2 c7 65 bb bf f6 24 31 19 77 5b c9 3f
       -0.10702179806683518 0.19810379724575683
000600 f6 46 35 9c fa f4 d8 3f a8 4b 27 30 f4 d2 98 3f
       0.3899523282499183 0.024242225112015042
000610 17 3b e9 26 41 f2 e4 3f d1 81 5b a0 3b 8c e8 3f
       0.6545720825177764 0.7671182758313596
000620 02 1e 01 31 f7 e8 cd 3f 4a d4 d1 7c 37 8f db 3f
       0.23367204563895433 0.4306162566129542
000630 f1 66 fa 37 5b e6 e6 3f bd 14 9f 45 5c 6b ee 3f
       0.7156196683237949 0.9506055221360367
000640 f2 24 ee 41 42 b2 e6 3f 71 60 0b 67 4d 63 e4 3f
       0.7092601096821041 0.6371218693339086
000650 78 94 1c b8 94 a7 bb 3f 42 5a 11 9d 1f 89 e1 3f
       0.10802583212769601 0.5479887073259493
000660 50 de c3 d9 f4 7e dd 3f 67 a2 aa 21 ff 95 e4 3f
       0.4608738066303646 0.6433101327466603
000670 40 b6 83 ac f7 8d e0 3f e6 d5 f3 57 5e d9 d4 3f
       0.5173300141738721 0.32576712216481807
000680 94 a8 d3 cd 2f 1b bf 3f 5b 8c 75 85 58 96 e3 3f
       0.12150858664577618 0.6121027571320029
000690 70 6c 55 d3 20 bf 95 bf cc e1 74 31 3a 32 bf 3f
       -0.021236908816132105 0.12186015803752709
0006a0 a5 7e 87 f0 63 af c3 bf fe 26 ba 43 33 5d d2 3f
       -0.15378998989671291 0.28693849195461485
0006b0 c1 85 16 68 19 ff e9 3f 3a cc 9b 51 4a 4c d6 3f
       0.8123900444954232 0.348406390853771
0006c0 9b 21 f3 2d 92 1c e9 3f 3e 78 9e da 18 51 ca 3f
       0.7847376725631422 0.20559988665348955
0006d0 aa 33 64 77 77 df c9 3f 00 44 d9 e2 72 a3 81 bf
       0.20213216142329077 -0.008612535045502412
0006e0 92 66 70 cf b7 b1 c4 3f 1d 4a 5f 30 01 24 e1 3f
       0.16167352322445488 0.5356450981874478
0006f0 00 0d 75 68 0c c1 dd 3f ff 56 75 9b cd 9d ed 3f
       0.46490774346257524 0.9255130802436894
000700 6a bf fe a3 a2 5a d7 3f 6c 00 34 6d fa b9 c5 3f
       0.3649069406046609 0.16973810512718346
000710 e0 6b 40 97 70 5f b1 3f 6f 3a 2a b7 96 de e4 3f
       0.06786254589717045 0.6521714761200438
000720 15 dd 03 78 88 ad eb 3f a4 93 b3 72 08 8c dd 3f
       0.8649332374615449 0.4616719360477026
000730 b4 40 d7 db 16 e3 e1 3f 20 55 cf 8e b5 77 c3 3f
       0.558970860840438 0.15209073517932215
000740 52 e4 4c ae 46 84 db 3f 94 d2 02 18 a1 28 ac 3f
       0.4299484922553961 0.0549974767504057
000750 b6 4a 1a b6 ab 00 ce 3f 28 e6 5b 88 b9 53 e7 3f
       0.23439546958669205 0.7289703048001615
000760 f9 dd 64 6a ce 6f e4 3f 18 3e 37 ca ea be da 3f
       0.6386482313163803 0.4179026579631411
000770 5c 90 ce 05 5b 85 b6 3f a2 f2 ab 0e 21 43 ac bf
       0.08797234432000905 -0.05519965461823985
000780 87 f6 1a 9e 0c 77 eb 3f af ea e8 33 f9 f0 e1 3f
       0.8582823837275136 0.5606657041419875
000790 ee 5b b4 6c 82 74 bc bf c0 5a af d6 f9 95 85 bf
       -0.11115279344481596 -0.010539962639012912
0007a0 f0 60 16 a7 49 6a cc 3f 99 93 a8 58 8e 29 e8 3f
       0.22199364336552874 0.7550727588282938
0007b0 ec 85 8c 96 99 c2 ae bf 4a 7e d8 b2 8f 66 e9 3f
       -0.060078429820588614 0.7937696927146558
0007c0 68 e7 3b 16 f5 71 ca 3f 3f ce be 52 e8 7a ee 3f
       0.20660270295757788 0.9525033584708992
0007d0 2a 35 a2 f0 29 5b cd 3f 9e c6 a1 68 2e 1f cf 3f
       0.22934459924400957 0.24313907727223677
0007e0 4d fd bc df d1 1b d6 3f 86 df 90 c4 f4 d1 af bf
       0.345447987074256 -0.0621487131069776
0007f0 6e 64 d7 73 c5 e1 b7 bf 00 f3 83 3a ac 1a d4 3f
       -0.09328874662550543 0.31412797655484326
