Large_Circuits/Npys/theta_N18N20_to_N34.npy (npy, 272128 bytes, 1 tensors)

array f8 [1000, 34, 1]
0	0x3fbda49483753820	0.11579254350110135
1	0x3fe6608960a9daea	0.6992842567404669
2	0x3fbeab3645c5aef0	0.11979998782561174
3	0x3fead8d854728eab	0.8389703416218784
4	0xbf9342d004ea5f30	-0.018809557247180198
5	0x3fe6440c98c97c34	0.6958067878839587
6	0x3fd09d9288012ecb	0.2596174553079719
7	0x3fea24954dc13c16	0.8169657248162163
8	0x3feceb8fa6eb334d	0.9037550220615259
9	0x3febfc0989f09753	0.87451626721734
10	0x3fdc03587ab47930	0.4377042005816234
11	0x3fe64d6bd98d3e58	0.6969508408601071
12	0xbfc1a9dcbe0a8c8c	-0.1379962852416593
13	0x3fe6f8c028d3e040	0.7178650662817816
14	0x3fdef201e73ce896	0.4835209615881778
15	0x3fe1e16805d1db7b	0.558765422217092
16	0x3fd28f6117cc7ff8	0.2900011761103083
17	0x3fe39c59ae6812e1	0.6128357321145722
18	0x3fc7f05b30617d80	0.18702258932442462
19	0x3fd3d2449a1dddfe	0.3097087388082115
20	0xbfae708f5faca4b6	-0.059452515057566144
21	0x3fdd62f6b0ba8600	0.45916526087430043
22	0x3fceff88435d1170	0.24217322625385007
23	0x3fe195abdb6575c6	0.5495204243740595
24	0x3fc044ea7543d7cc	0.12710314489203112
25	0x3fe135327ed49297	0.5377438046603683
26	0xbf863f4bd7deb1c0	-0.01086291554005292
27	0x3f9fda1e15838028	0.03110548979100272
28	0x3fd4027fb3fe4d1e	0.3126525171039293
29	0x3fe8f50816db0787	0.7799110838316076
30	0x3fc88bb9ed333432	0.19176410753280632
31	0x3fc2728ccc00d056	0.14412078820317004
32	0xbfc0604b235e8a70	-0.12793864466683003
33	0x3fe94eadd32a669c	0.7908543705300022
34	0x3fe471eb9880f7fd	0.6389062861051112
35	0x3fe8971f35f7cc46	0.7684474996625645
36	0x3fd847511cec4214	0.37935283493519134
37	0x3fd0810e53eb5774	0.2578769511722989
38	0x3fd84eef672fcc9e	0.37981782032802325
39	0x3fe40ce9c3a69251	0.626576311235633
40	0x3fb239a50b23ac5a	0.07119208833653215
41	0x3fce2061fc48a70c	0.235363243279885
42	0x3fe91bddd01ae0c9	0.7846516670752176
43	0x3fd6c7ccccf7b126	0.35594482437479014
44	0xbfb21b0e1518a176	-0.07072532668155937
45	0x3fd4a8922b108436	0.32278875546950603
46	0xbfa94e7c35163fba	-0.049426919441543274
47	0x3fc26a2d1d406778	0.14386524132060763
48	0x3fc3a17754216322	0.1533650551598607
49	0x3fe6e953cd981e2e	0.7159823432456898
50	0x3fe96984992ef686	0.7941306106437913
51	0x3fe188a937449657	0.5479322509242576
52	0x3fd46ff31d975100	0.3193328656173122
53	0x3fdbc042ea48a022	0.43360970381991326
54	0x3fd80307274fcb20	0.375184811010671
55	0x3fe20b30c89f1b1b	0.5638660353077712
56	0x3fd080c29bceb157	0.25785889831128855
57	0x3fc4c30a4f5c758c	0.16220215678269445
58	0x3fd637fb87d8fd20	0.3471669031750526
59	0x3fe6fd2667287f00	0.71840210102161
60	0x3fcb35f57705e300	0.212584193340966
61	0x3feb8488712c2003	0.8599283419034695
62	0x3fe052d19bc24d17	0.5101097147147894
63	0x3fe2e0831f111595	0.5899062735340289
64	0x3fb5acbaca0eea8e	0.08466689522803447
65	0x3fe37a2c0d68658e	0.6086635839339338
66	0x3fdd15432c5ae3d8	0.45442275363489903
67	0x3fec40e295cec2c1	0.8829205442362636
68	0x3fd063663929bd27	0.25606685240105026
69	0x3fd56a2101087a51	0.334602595337775
70	0x3fcdf8b44450f55a	0.23415234885934916
71	0x3fe6e6eb02a85dd1	0.7156882335574953
72	0x3fc4725658c5b840	0.15973929724299474
73	0xbfbe4a7a7a13efa6	-0.11832395058075793
74	0x3fc5981b6e9f351c	0.16870444203815615
75	0x3fe6734b0ca3d8c3	0.7015738722682489
76	0x3fcead41dcd68cf6	0.23966239245519433
77	0x3fea12e1333dd6f1	0.8148046494304407
78	0x3fe5a4e002bca592	0.6763763478713136
79	0xbfc181ceb8008694	-0.13677391037440556
80	0x3fc49073a8dda6a2	0.16065831895257526
81	0x3f91f49bbaabeb70	0.017534669178512485
82	0x3fe889725e02db95	0.766778167357972
83	0xbfb52e0aef50ee63	-0.08273380606345308
84	0x3fe934aa52b9c3ef	0.7876788726554177
85	0x3fdf03e45fb42250	0.48461255403575354
86	0xbfc1096c59dca011	-0.13310007465156606
87	0x3fed6a6da300ad99	0.9192417319913374
88	0x3fe800a95c7c337a	0.7500807577467719
89	0xbf7c099dded06fc0	-0.00684510868179794
90	0x3fdb279a7ebadc30	0.42429220558136915
91	0x3fd3ad09f25a0acf	0.30743645350609666
92	0x3fead617e13a6fd0	0.8386344336499807
93	0x3fd8bacca2117f00	0.3864013273905442
94	0x3fe684f6d97422f5	0.70373098822992
95	0x3fe89a5e94c59064	0.7688439279268207
96	0x3fdddb345c3e4c5e	0.4665041828931801
97	0xbfa139c7a14c0e6c	-0.03364394992788963
98	0x3fd6489449167c6a	0.34817988526805854
99	0x3fe87808032f8dc3	0.7646522581312002
100	0x3fd4f6c451a5f72b	0.3275614545199114
101	0xbfbed1e53b115c8e	-0.12039025013051427
102	0x3fdaf0479890aa36	0.42091550730643534
103	0x3fb58cf8274c5334	0.0841822715704666
104	0x3f901cd55fea5440	0.015734991053779845
105	0x3fd133d6340dc551	0.2687888630235494
106	0x3fee73109bfa10dd	0.9515460058614981
107	0x3fbcafd239d4080c	0.11205781852552849
108	0x3f626598c44357c0	0.002245710728042888
109	0x3fdac8b609c0338c	0.4185004325125241
110	0x3f620042e54ba6c0	0.002197390227924284
111	0xbfb93b27ad2eba88	-0.09855888345803454
112	0x3fb59dbcdc829612	0.08443813689753935
113	0xbfb0b7b1faf8e507	-0.06530296685459201
114	0x3febb3707ffd7d33	0.8656542300995284
115	0x3fbc1d1e5d2e23b0	0.10981931471736917
116	0x3fecb41157780bd9	0.8969809254052691
117	0x3f94b35f79fe5010	0.020215503521811284
118	0x3fe5b47fba4da9de	0.6782835615861662
119	0x3fed4d6a3f5857e5	0.9157000767906963
120	0x3fe1fdfa5e521b1d	0.5622531740380939
121	0x3fe530904f22ca56	0.6621781869528813
122	0x3fcb082204240f3c	0.21118569566908174
123	0x3fd407e0586d07ec	0.3129807342085076
124	0xbfb0321d47123620	-0.06326468453536238
125	0x3fd7ca6da2748d82	0.37173024048589565
126	0x3fe96a24ec64bd57	0.7942070595799277
127	0x3fe86b46596adaac	0.763095068591459
128	0x3fe1375ff5271da9	0.5380096233501962
129	0xbfc178c93f29c9e8	-0.136498599854874
130	0x3fd16460f5035add	0.2717516319948297
131	0x3fee5b7251299c9d	0.9486629090505577
132	0x3fd558831fd153e0	0.3335273562163916
133	0x3fe277a46d9e685f	0.5771047726623343
134	0x3fe93de34dee5f13	0.7888046762554687
135	0x3fe088c2e7f999d1	0.516694500995806
136	0xbf771f9b527aec20	-0.0056453768990492315
137	0x3fedff96c6afd315	0.9374498253442619
138	0x3fc5a0cbfb60abfe	0.16896962904260698
139	0xbf8140b9bdfbc2d0	-0.008424235449156298
140	0x3fe695c74e02375a	0.7057835124594292
141	0xbf95cf40d8773d08	-0.021298421108267213
142	0x3fa114b74e303f6c	0.03336117581795758
143	0x3fe54b87adb3dc28	0.6654699700001219
144	0x3fe4999d5bc25ba9	0.6437517921611874
145	0x3fe55a43ff4985ca	0.6672687517240601
146	0xbfba7c294f1f8a9e	-0.10345705205649344
147	0x3fe99598c232daa7	0.7995113175337182
148	0x3fdfa87838dce7bc	0.49465756943720485
149	0x3fd52ff318faa3e6	0.3310516113220373
150	0x3f9d33125f2ece48	0.028515135821818555
151	0x3fe85bcbf839e280	0.7612056587377793
152	0x3feb47c257adbba9	0.8525096619103937
153	0x3fd0b22e11dd3213	0.26087524170432735
154	0x3f43f7aa3465b900	0.0006093579366231172
155	0xbfb657e20f8e47af	-0.08727848892001931
156	0x3fc09daf6f3b6778	0.12981217318775484
157	0x3fc70802d9eb6c38	0.1799319805203099
158	0x3f90292b26f0f7b0	0.015782045604502748
159	0x3fcd81b98203012c	0.23052138183812454
160	0x3feba27795f26b6f	0.8635824135447886
161	0x3fe78f8a63c96ed5	0.7362720440828193
162	0x3fbe6979a9d661e8	0.1187969245569388
163	0x3fd028ae48d8d5ae	0.25248295892682904
164	0x3f8b6680dd84e300	0.013379103431917283
165	0xbfc197c1634f0860	-0.13744370793398542
166	0x3fdae85eb36a0f52	0.42043273468901987
167	0xbf811ecde2a247f0	-0.008359535673921642
168	0x3fe9467f935eacb0	0.7898557546917768
169	0x3fe040997eacf1e0	0.5078856920368331
170	0xbf933ef2414784a8	-0.018794808611236974
171	0x3fdb332e2c927e12	0.4249988017345184
172	0x3fd40b8ee3f2734a	0.3132054544492361
173	0xbfa6e2aa8d829dd6	-0.044698076032826314
174	0x3fdeceb236062a20	0.4813657310084256
175	0x3fcf30435a78aef2	0.24366037290143755
176	0xbf9efe591f269968	-0.030267136122028943
177	0x3fe976c652c76edb	0.7957488648202927
178	0x3fade7f3986b5288	0.05841027484499245
179	0x3fd90f05a5f7cb52	0.39154187400634044
180	0x3fed933b968ee55b	0.924222749766311
181	0x3fea691d8b74c090	0.8253314708472477
182	0x3fee139c93258115	0.9398939966158958
183	0x3fd2dd53ac085bbe	0.29475871849120583
184	0x3fe33c698d4fe040	0.6011245498657516
185	0xbfbbe4da7aca55de	-0.10896077630817255
186	0x3fe957948a8feda1	0.7919409471791604
187	0x3fdd96dd6178e7ba	0.4623330547216217
188	0xbfba08be253d413c	-0.10169590386545208
189	0x3fd9210987add954	0.39264143228446824
190	0x3fe616e8cf48743b	0.6902965591904214
191	0xbfc20376ffd922ba	-0.1407307385691377
192	0x3fd409f2c8c578da	0.31310720068530673
193	0x3fea625010a87416	0.8245010686256389
194	0x3fe2db058cc0043e	0.5892360447907163
195	0x3fd62202231c5bb0	0.3458257048491147
196	0x3fa60e0a4a5dd56c	0.04307586820406581
197	0x3fc40a301bdd172a	0.15656091080216444
198	0x3fe5643628e265de	0.6684828566096106
199	0xbfa9a091f5f2e85c	-0.050053178093961675
200	0x3fe9942c46d782b3	0.799337519038167
201	0xbfb02c7777eb3f3d	-0.06317850759228079
202	0x3fe96686151c79ac	0.7937651073769323
203	0x3fcb638dd0a96994	0.2139756459099088
204	0xbfb4766d0af3a82c	-0.07993203656556663
205	0x3fd23d53bafab512	0.2849931074113822
206	0x3fe2a419b08a274e	0.5825317810097006
207	0x3fe473c16df85c96	0.6391303203444234
208	0x3fd070d188d6aeb5	0.2568858944239126
209	0x3fb2908292cbc5f6	0.0725175484074255
210	0x3fd17a82cde70c3f	0.27310247523945813
211	0x3fb9d682719150a0	0.1009294059052217
212	0x3feb3be3ca3c088d	0.8510607671635327
213	0x3fdd8e7c04f8fb1c	0.4618215607223861
214	0x3fe34ec66b76edcb	0.6033660983006767
215	0x3fc368a1bd8c524a	0.1516306090858442
216	0x3fd88ed4c53b3290	0.383717720612176
217	0x3fbb53321b431ab4	0.10673821607188466
218	0x3fe2467e6eee907a	0.5711052099836842
219	0x3fd5c5816a717c63	0.34017978091100626
220	0x3fe748e3929cf5ba	0.7276475776231373
221	0x3f680ab1ced23f00	0.002934787064596267
222	0x3fcf9110d9931302	0.24661455749278366
223	0x3fe5f676565a2d0a	0.6863357245032671
224	0x3fd3f13c89b9561a	0.31159890603643847
225	0xbf9f4f95e7d31840	-0.030577032350969313
226	0xbfc2915aab08266a	-0.14506085730708956
227	0x3fe7f96ec400c374	0.7491983249839067
228	0x3fc4fe2617a01af8	0.16400600579819247
229	0x3fe642efa275a432	0.6956709073102785
230	0x3fe02c29e5433d52	0.5053910711084575
231	0x3fd42441c2b32b1f	0.31471294416103207
232	0x3fdced800bd9616e	0.4519958606447493
233	0x3fd506dd65c5dfa2	0.3285439962269213
234	0xbfc1a60de74934a2	-0.13788007539043173
235	0x3fdbac515d750e62	0.4323924458187546
236	0x3fd00524a46e39e6	0.25031391198800035
237	0x3fee3bd98ea9271b	0.9448058878271895
238	0x3fe63b7bf70d3fe6	0.6947612595777144
239	0xbfbf66d8fec7c9f0	-0.12266308040833684
240	0x3fe59c03e61ce45b	0.675294827880076
241	0x3feb0d921c8d49a1	0.8454065854696645
242	0x3fe8a79660307cce	0.7704574469279579
243	0xbf84d01d4dcfbe80	-0.01016257184707503
244	0x3fe758be559536ff	0.729582945970577
245	0x3fd39ed260f0b9b9	0.3065687128718327
246	0xbfb50a7e33ae262a	-0.08219136010861719
247	0x3fd72807a0cfddfa	0.36181822494788174
248	0x3fe2c3bde567abd8	0.5863942604604473
249	0x3fd14ca832c0c9a9	0.2703037734637755
250	0x3fcfa9807dcff76c	0.24736028807813726
251	0x3fec89dc98b2f505	0.8918288214114517
252	0x3fd391424fb8a917	0.3057409075287451
253	0xbfbf082150fe78c2	-0.12121780612366975
254	0x3fe7286197621cdd	0.7236793476776274
255	0x3fe0a56e11849cd2	0.5201940862797534
