Large_Circuits/Npys/theta_N18N20_to_N46.npy (npy, 368128 bytes, 1 tensors)

array f8 [1000, 46, 1]
0	0x3fd32aa3d94a9f68	0.299477541159368
1	0x3fd61e868adbad7d	0.3456131320987977
2	0x3fd5f7d034323056	0.34325032326956284
3	0xbfb62e6786b6f8c0	-0.08664557494100489
4	0x3fd7562895bbeaac	0.3646336996313646
5	0x3fd543c4d237141d	0.33226128128836924
6	0x3fe2defa5bb41895	0.5897189894756304
7	0x3fd5feae081f1f28	0.34366942208406437
8	0x3fab95a7ae8df040	0.05387615209380714
9	0x3fec3fbc5ef9c30b	0.8827802519791431
10	0xbfc1ae1cfe44a293	-0.13812601485667084
11	0x3fdcf730fd913ee8	0.45258736383855913
12	0x3fedecf1068b1373	0.9351735236929087
13	0x3fd1aac5e2b15745	0.2760481561466473
14	0x3fd5a660ac85d68d	0.3382798847954767
15	0xbfb70b53851ae36c	-0.09001657485613429
16	0x3f5b6e48e08e9f00	0.0016742431346105646
17	0x3fc1030c5b0900b0	0.13290552563740254
18	0x3fe246c38c25b3cf	0.5711381661654914
19	0x3fd85bb447d8b0f0	0.38059718147520893
20	0xbfac03b3f36e0188	-0.05471575113824928
21	0x3fd454ecabdf77ee	0.3176833799788018
22	0x3fc3764e53e09ad0	0.15204791160177544
23	0x3fe864a099882de9	0.7622836111708554
24	0x3fc92f2d0e52434c	0.1967521972587981
25	0x3fe42a3761dbe7c5	0.6301533614453027
26	0x3fe147cdf9a40fc1	0.5400152087972786
27	0xbf9eb6721b7ce598	-0.02999285023472495
28	0x3fe39cf8221684d1	0.6129112878590154
29	0xbfae090c8a2e41c4	-0.058662788264999516
30	0xbfb72bf1a86443c1	-0.09051428185581668
31	0x3faad7518dd035c0	0.05242400032157546
32	0x3fe0171721ea1938	0.5028186476127194
33	0x3fd9e9e5a8f5ded0	0.40490094661752796
34	0x3fead15d3bbb0915	0.8380571524251389
35	0x3fda4e3a0421323c	0.41102457431114536
36	0x3fb91fcdc5a4bddc	0.0981415374305849
37	0x3fe913d01adbfcce	0.7836685680958
38	0x3fde0f3b5626feb4	0.46967967427552115
39	0x3fe37d27991c3040	0.6090276709014759
40	0x3fe4a29f29a8ce64	0.6448512853298323
41	0x3fc352f2fb6e51d0	0.15096890713597455
42	0x3fee58010c81277f	0.9482426876286211
43	0x3fe35282638e522e	0.6038219398929578
44	0x3fe6fdb381088e9f	0.7184693832573038
45	0x3fe7427a796c5b7c	0.7268650409267674
46	0xbfbce3c18e419e56	-0.11285028193526023
47	0x3f9fae599e9d7f98	0.03093853026018642
48	0x3f88bd32c4e30280	0.0120796171507902
49	0x3fce79516e338470	0.2380773342220297
50	0x3fe1a69f23d8456d	0.5515895557493146
51	0x3f9685ec8d3f3d90	0.021995254632029282
52	0x3fd9f3fd135c856c	0.4055168809009817
53	0xbfb467e9716c9121	-0.07971056956427393
54	0x3fed0edf2ec85053	0.9080654062004306
55	0x3fd44dd7cf363f5d	0.3172511600068811
56	0xbfa6d4c657bc33f6	-0.044592092714175566
57	0x3fd05cdf2b0ecee5	0.2556684418188822
58	0x3fe9cb4329f6177d	0.8060622996861039
59	0x3fe12606a2a8d996	0.5358918358750084
60	0x3feb8741466c0fcb	0.8602606177741959
61	0xbfb2a3419c116692	-0.07280359325650412
62	0x3fc7ae6008488dae	0.1850090065428111
63	0x3fe5ebfd4f21952e	0.6850573106318387
64	0xbfa4a26570ddd278	-0.040301485088012734
65	0x3fe8b34a683cf6cf	0.7718860660458747
66	0x3fdff4d9e6fbc44e	0.49931953007677954
67	0x3fedfee50abf859f	0.9373650751041857
68	0xbfc193138decf77b	-0.13730091505015793
69	0x3fd306778a72a78b	0.2972697116880389
70	0xbfc238843377831c	-0.14234974396733768
71	0x3fe5033155cbccbb	0.6566397357659278
72	0x3fe791c6d0646618	0.7365449972305127
73	0x3fe5fb8c5e31db85	0.6869565810910535
74	0x3fde5e19090e9da0	0.4744932735870524
75	0x3fe7dba34be38b7e	0.7455612642482803
76	0x3fec5837a0810f53	0.8857687125059591
77	0x3faefe9e1ee765c0	0.06053632857556179
78	0x3fd8d6c720706716	0.38810899894598216
79	0x3fe18beaa631b640	0.5483296628933161
80	0x3fe4b27b70e24565	0.6467873768580544
81	0x3fda2339034ce92a	0.40839982340152636
82	0x3fdc7ba7ef6a12f6	0.4450473630934505
83	0xbfbd045f2934185a	-0.11334795719094029
84	0x3fe9f060470583d5	0.8105927836551198
85	0x3fecf7ff4f9754dd	0.9052731089128901
86	0x3fb03c97bedfdce2	0.06342457208653543
87	0x3fdbed3807eeb2de	0.4363536908593185
88	0xbfbf69317b13ee52	-0.12269887213545275
89	0xbf735eccc78effa0	-0.00472908012392273
90	0x3fe58f64e8cde6b9	0.6737541720351238
91	0x3fd1a96aa1912867	0.27596536424665036
92	0xbfbf4e5884cd7e09	-0.12228921167615438
93	0x3febdea670fb821f	0.8709289747894821
94	0x3fc268a18f0a7126	0.14381808742917562
95	0xbf973a46a048a310	-0.0226832423524313
96	0x3f7c4de464aafc00	0.00691022125346219
97	0xbfb570f7fc3d4e59	-0.08375501545133925
98	0x3fd73237f576cf5e	0.36244009944060973
99	0x3fe48322a7ab6f57	0.641007735709972
100	0x3fdd9bb8d1609224	0.46262951323504553
101	0x3fe0c6b73d715853	0.5242572975209988
102	0x3fe2b87f2d2599b3	0.5850215799117023
103	0x3fe248222989a011	0.5713053523331856
104	0x3feb1860ec00578f	0.8467259034539313
105	0x3feb6b2096818aed	0.8568270625658819
106	0x3fc96f10d1808338	0.19870195607747987
107	0x3fd85d6748c48418	0.38070089441504384
108	0x3fd2a7a581153b1f	0.2914823303771516
109	0x3fed487011a6ffdf	0.9150925011417675
110	0x3fd047e1220e0471	0.2543871719900102
111	0x3fe97828738ac305	0.7959177262001452
112	0x3fea76ff5cf4ae62	0.8270260634939854
113	0x3fe6342ee44c3d71	0.6938700159970904
114	0x3fd955ea8321d2c4	0.3958689003550655
115	0x3fc61eb1c14cecec	0.17281171740055556
116	0x3fd8fa894de01ea4	0.39029152493501784
117	0x3fd48a6118effe00	0.32094600138950113
118	0x3fec9f711ab181f3	0.8944631120066887
119	0x3fe10c12740ff816	0.5327236430018754
120	0x3fdfd76fc191b468	0.49752420333135783
121	0x3fea3e2dbfd42bcf	0.8200901743560908
122	0x3fbb3ecacb074520	0.10642688233135233
123	0x3fcde929b166785a	0.2336780658924365
124	0x3fec37a7a44b10b3	0.8817938050128958
125	0x3fd736493ae8a880	0.36268835785688935
126	0x3fd1e01ccbd92d06	0.2793037405687787
127	0x3f8c1a85911f5dc0	0.013722461215293857
128	0x3fe46cc6f00628f5	0.6382784545869798
129	0x3feb244982c0704f	0.8481795839065941
130	0x3fea78837693ac4f	0.8272111240343153
131	0xbfc173b9e85bc278	-0.13634418340327037
132	0x3fdf835557864b7e	0.4923909525615996
133	0x3fd77c31cd47b510	0.3669552330673733
134	0x3fe85e9ef336dd21	0.7615504026679539
135	0xbfc0d706b355695e	-0.1315620780613455
136	0x3feb276cd6440dc7	0.8485626397018046
137	0x3fdbb3200e7f0cee	0.43280793586400435
138	0x3f99d77d9e17f060	0.02523609425951212
139	0x3fed3069e70023f7	0.912159873173663
140	0x3fe73488236dc30b	0.7251625720947187
141	0xbfb1e6732711c999	-0.0699226351150969
142	0x3fda412c136213bc	0.41022779362566175
143	0x3fd727411d29f2ec	0.3617708954623555
144	0x3fed2714a71c1143	0.9110205901966214
145	0x3fe03ac3fbd2161d	0.5071735304233617
146	0x3fd86fec5a863e04	0.38183125343582014
147	0xbfb701a6bfbb9256	-0.08986894780134355
148	0x3fe1aa809de0a438	0.5520632823510203
149	0x3fcbe4dac4bb7c72	0.21792158704826964
150	0x3fd488af25eb6787	0.32084253981667427
151	0x3fbf197f5a513ed0	0.12148281054509913
152	0x3fed87c4b3297e03	0.9228232859858853
153	0x3fd947fa62262ede	0.3950181921470469
154	0x3fec09005e62f13b	0.8760988086210441
155	0x3fcc5e856d111e80	0.2216345579674801
156	0x3fe4e65ad8acdfa0	0.653119490808411
157	0x3fecf55d50a288d1	0.9049517226124185
158	0xbfc225a040e87f5d	-0.14177325410218602
159	0x3fcd884674376c60	0.23072128939279235
160	0x3fe39887ba3d0eb5	0.6123694074126066
161	0x3fed258b7a5057ff	0.910833109754776
162	0x3fc9a1d732b4060c	0.20025148368590384
163	0x3fb79272813d338a	0.0920783582234447
164	0x3fe939dda92142a8	0.7883137038534942
165	0x3fe6535a0ca560e4	0.6976747748367669
166	0x3feacf96f03d5e4a	0.8378405277425796
167	0x3fe07854aafe5e61	0.5146888103217401
168	0x3fc312efece71c30	0.14901541774290328
169	0x3fc6a641e1dfafb0	0.17694877175324342
170	0x3fd35aab2e4990a1	0.30240897674799255
171	0x3fec685a9b544aaf	0.8877385171675395
172	0x3fd470a0e3d890f3	0.31937429667074396
173	0x3faa37fcd766b05c	0.05120840196045215
174	0xbf6ad2d2c45b3f40	-0.003274356512385085
175	0xbfa175a11294c0e8	-0.03410056449718174
176	0x3feae29ec0d98363	0.8401635901064818
177	0x3fe7a3444d2eaba2	0.7386800296275065
178	0x3fee5a3212e37ec5	0.9485102051657682
179	0x3fdd39348c1f2934	0.4566165321708866
180	0x3fc16d7d1ef42cca	0.13615383159080913
181	0x3fe948ab4e985cc8	0.7901207480489569
182	0xbfb262b9e52a6a4c	-0.07181894154420226
183	0x3fc1cce1d3051050	0.1390650062913914
184	0x3fcf50fdd7c684c0	0.24465916667853627
185	0x3fdf9e2ff1f0e574	0.4940299856858339
186	0x3f7544492c952d40	0.0051920755734714
187	0x3fe374f678ebdfdd	0.6080276834245485
188	0x3fe2e337e9294410	0.5902366212777697
189	0x3fe3ae23849245ae	0.615007170608967
190	0x3feb18a1bfcca011	0.8467568155365389
191	0x3fb4c93797a769a0	0.08119533016671321
192	0x3fc74ba0f2c4d708	0.18199550489378447
193	0xbfb6578a2ff9b30d	-0.08727325125955705
194	0x3fc9413f751a537c	0.19730370729362423
195	0x3feb9efc714743eb	0.8631574833362924
196	0x3fe6b79e5bd02977	0.7099143784737824
197	0x3fb126ceb644bbe6	0.06699840497888906
198	0x3fdb6edad698b870	0.4286410422963689
199	0xbfb748f99765a40a	-0.09095725961891801
200	0xbfa01a247310d87e	-0.03144945053684099
201	0x3fb5f3aabb31659e	0.08574931211605594
202	0x3fddc59611b8a684	0.46518470507235343
203	0xbf7e40f9bdda8e20	-0.007386184266269719
204	0xbfbb0605e8a81452	-0.1055606549271755
205	0x3fe746218a487605	0.7273109150734746
206	0x3fc2fa09be772c9e	0.1482555561072773
207	0x3fdb9aebf2f15078	0.43133066868654835
208	0x3fce7ef708ea8d16	0.23824966369020534
209	0x3fab397dc6f1455c	0.05317299893853075
210	0x3fe411ed61525f6e	0.6271883869949144
211	0xbfc0d86b1cc1b395	-0.13160456565983894
212	0x3fdfde2bb0365084	0.49793522079676955
213	0x3fcfa75848e8bcd6	0.24729445991531546
214	0x3fe0c67f93722d1e	0.5242307548336702
215	0x3fcb0b07dce2ad7a	0.2112741306822093
216	0xbf929fa042faedd0	-0.01818704994978565
217	0x3fb30f48e69aff8a	0.07445197706237941
218	0xbf2572c8f4675400	-0.0001636381441147139
219	0x3fc774203dfa50a8	0.1832313826204246
220	0x3fe6596eb0e6216d	0.6984170393998689
221	0xbfba616ff02ba0ac	-0.10304927457366614
222	0x3fd48008d6bfc17c	0.3203146073492673
223	0x3feb88bd9dc6917b	0.8604419786029632
224	0x3fec9f3319f13d0d	0.894433546703938
225	0x3fd712c3b4528542	0.3605202923736962
226	0x3faa7979003b1534	0.05170801284615792
227	0x3fd97fe5b743d1c8	0.39843123337712116
228	0x3fed5c407bf3733b	0.9175112172048111
229	0x3fe5790015276af8	0.6710205472148507
230	0xbf9a3f8005014240	-0.025632858567691708
231	0x3fa69bd6b44a5ac0	0.044157704837905154
232	0xbfa60465efbc3788	-0.04300230552153922
233	0xbfbc886194ded566	-0.11145601162464444
234	0x3fd85e2924ecda6c	0.3807471142385228
235	0x3fe5daceced0deeb	0.6829599418042255
236	0x3fc53e6caff22b0c	0.16596754637824807
237	0x3fd4b1d4bfdbcaa2	0.3233539460772282
238	0x3fda8b61bea7eb62	0.4147571908830995
239	0x3fe56d61267bd61a	0.6696019889483893
240	0x3fe8e914e0afe1d5	0.7784523380678886
241	0x3fe115b7894fda31	0.5339009935258386
242	0x3fe558749eb21615	0.6670477962040332
243	0x3fea35ec1bb2f895	0.8190823117254405
244	0x3fea0040dfb7fb80	0.8125309342866416
245	0x3fe0fb409d3e8419	0.5306704589057772
246	0x3fec3a0207824fd9	0.8820810457859763
247	0x3fed5496b26080bf	0.9165757640767181
248	0xbfc1860528e4203d	-0.1369024705566079
249	0x3fb659237d413d14	0.08729764755229424
250	0x3fb6ff1cdd6429a8	0.08983021168766092
251	0x3fcc19d28ed9a1cc	0.2195380399237038
252	0x3f8cd317f4f2a7e0	0.014074504053798564
253	0x3fecb7256e2a01ff	0.8973567153589669
254	0x3fda3f23a472a09c	0.41010371264793277
255	0x3fd41806ee37d58c	0.3139664961193709
