Large_Circuits/Npys/theta_N18N20_to_N52.npy (npy, 416128 bytes, 1 tensors)

array f8 [1000, 52, 1]
0	0xbfa75c3466e8fbca	-0.04562534099795064
1	0x3fe051ae1ac4a6d3	0.5099707148376303
2	0x3fd3e6524dbbdda7	0.3109327086562765
3	0xbfb2ec6ab397019a	-0.0739199341251208
4	0xbfb363a520f94071	-0.07573921256084916
5	0xbf91c7f81ee18f48	-0.017364384541351613
6	0x3fc4430cdae5c6fa	0.15829621017797263
7	0x3fd8010450f1d6dc	0.3750620642161786
8	0x3fe0f11768e6e50f	0.5294301079622147
9	0x3fe858110b83537b	0.7607503151763092
10	0xbfa82c0ad0d3e2b2	-0.0472110156933402
11	0x3fe24ef4f1b24cca	0.5721382828363855
12	0xbfa41dbe745916ba	-0.03928942842735013
13	0x3fe65a54b0660675	0.6985267110141665
14	0x3fce4d2231ddf64c	0.2367289298526195
15	0xbfa5bcc63324140e	-0.042455857985295706
16	0xbfc07547b0c10756	-0.12857910280768675
17	0x3fe161eb03cd02a2	0.5432028841242593
18	0x3fcdda47a6cc026a	0.2332238735616728
19	0x3fd9a0a5fddccb0a	0.40043020049340383
20	0x3fb4d6a70656df4a	0.08140033631104618
21	0x3fd6ebe414a1927a	0.3581476403690328
22	0x3fc49dc2c4a64e46	0.16106447793991857
23	0x3fdc1ba29027e25a	0.439186707284113
24	0x3fe7c331f55d5701	0.7425775329854504
25	0xbfb62735d3e13c0a	-0.08653580115172602
26	0x3fd4a62013294580	0.32263948317730495
27	0x3fed9e95e3fd2cd5	0.9256085827741126
28	0x3fc8178e44b5c428	0.1882188640115896
29	0x3fe957adad22e8e0	0.7919529325074812
30	0xbfc3103945d76603	-0.14893260870194078
31	0xbfb1d1f0b48b8b68	-0.06960968406523949
32	0x3fa80dc8286bd98c	0.04698014729904107
33	0x3fd13c36263d19f1	0.2693000195908147
34	0xbfaae18d003e06b8	-0.052502065925194186
35	0x3fe826cbf28cd993	0.7547359216030592
36	0x3fe27a2870ce3e61	0.577411861728205
37	0x3fddb63a5d09f856	0.4642473133643582
38	0x3fdaff5654381f2c	0.4218345472768188
39	0x3fe0fc3946cf5e5d	0.5307890303619832
40	0x3f92adda6e328be0	0.018241322494429002
41	0x3fe5f78d6839e0e3	0.6864687953630234
42	0xbfc29129f69fd612	-0.14505505125241364
43	0xbfb3911c31022a19	-0.0764329547547863
44	0x3fea2063a06fefe0	0.8164537557163349
45	0x3fd86b78f17e3db6	0.38155959685624496
46	0x3fcbcf4c69231464	0.21726374753612554
47	0xbf8979bf223af580	-0.012439244491697421
48	0x3fc8c78052b58014	0.1935882953503102
49	0x3fe95dc89ed69339	0.7926982023533135
50	0x3fe8f7ae9dcdf9b9	0.7802346307869846
51	0xbfb2134b511f4038	-0.07060690622825028
52	0x3fd11f1a480224c5	0.2675233557898305
53	0x3fe833790e8d4ead	0.7562833103388208
54	0x3fd01ed49f49d729	0.25188174777518896
55	0x3fdf4fe4c940a148	0.48925132421074524
56	0x3fb6e159905734f4	0.08937606595937436
57	0x3fe99deb0e145c7c	0.8005271220198575
58	0x3fb8e293fa1a7dc0	0.09720730644266151
59	0x3fd9628a483bdc2c	0.39663941434941097
60	0x3fddf90c8efde954	0.46832574810072924
61	0x3fea9584fa9d2093	0.8307518858719213
62	0x3fed81c1f5a69691	0.9220895574441831
63	0xbfb6124bb18b195b	-0.08621666988901693
64	0x3fc18ccf3dee7fa6	0.137109666099602
65	0xbfb5bd408d68ebfa	-0.08491900875462469
66	0x3fda956d37cb6dba	0.4153702778691827
67	0x3fe810afcacd8115	0.7520369492522457
68	0x3fde4bd2ace949d4	0.4733778656565424
69	0x3fbf5d8130a26068	0.12252051770554007
70	0x3f8c214d38e6a6a0	0.01373539285562525
71	0x3fe0e5fabaedcbb0	0.5280736590342396
72	0x3fe172a55b89d358	0.545244864259625
73	0x3fe914f771b7baf4	0.7838093968437918
74	0x3fe9d127979e923f	0.8067815743748453
75	0xbfbfb649aafadba6	-0.12387524055780705
76	0x3f7371a79f653040	0.00474706151574017
77	0x3fce585a853929ea	0.237071337747991
78	0xbfc30e77948ce880	-0.1488790011733876
79	0xbfb12163322b44cc	-0.06691570257978013
80	0x3fe54fa1ad0bfa57	0.6659706477947321
81	0x3fee6df6067003bd	0.9509229779943024
82	0x3fb9bb731cf13f54	0.1005165048275079
83	0x3fd30c993a525a2c	0.29764395423390755
84	0x3fe029e48328e0bb	0.5051138459885104
85	0x3fb37827435ab9ee	0.07605214495081444
86	0x3fcc6de8948d5daa	0.22210414174581433
87	0x3fcd087ffad19c52	0.22682189700137428
88	0x3fcdf21e3f4ce91e	0.23395135966149722
89	0x3f8c7a347b8254f0	0.01390496255798232
90	0xbfb38af1cfd1c061	-0.07633887599672697
91	0x3fd5397eb5364f00	0.3316342134141763
92	0xbfa7269a1f37418c	-0.04521638518383772
93	0x3fdff0cb0442b38a	0.4990718404395059
94	0x3fdb6104d8a194de	0.42779656558407264
95	0x3fabe061a5ea4d88	0.05444626951534831
96	0x3fe352fe880f73da	0.603881135695356
97	0xbfa88dee35ebb266	-0.047957843858829105
98	0x3fc4af6df2004a4a	0.16160368267499542
99	0x3f9e5ffe3c6b0700	0.029663059651972468
100	0x3fda596799cdf592	0.4117068292615268
101	0x3fd0f005cc56dfcd	0.2646498198987473
102	0x3fe220524d874040	0.5664454950547295
103	0xbfc36fcb6759b3b1	-0.15184919878393324
104	0x3fe842f8b976b3ae	0.7581752416932568
105	0x3fe8ca91f24455cc	0.7747277957702692
106	0x3fab77137f0203ec	0.05364285397900645
107	0x3fe9a0aa86c608da	0.8008625633522357
108	0x3fdab2ad00c33f96	0.41715550493699405
109	0x3fc21702994955fe	0.1413272140950283
110	0xbfbc019b5a931a2c	-0.10939951859754932
111	0x3fbb8089ab6584dc	0.10743008074270527
112	0x3fd62e50fd29a46c	0.3465769264499332
113	0x3fea580ddbcfeca6	0.8232487958151935
114	0x3fc943702566c042	0.1973705465911753
115	0x3fe3a289c73fec6c	0.6135910884471634
116	0x3fe482ea6b058a50	0.6409809198633614
117	0x3fc3d05196fa3fb8	0.1547948825068468
118	0x3fe3980e0643fe74	0.6123113748908069
119	0x3fde64a5417e1d7a	0.4748929156853233
120	0x3fe621fe4aa5b535	0.6916495759921079
121	0x3feb36f9fdb0996f	0.8504610018615447
122	0x3fd4227a0d03923e	0.314604294499336
123	0x3fc84b9a2bf72592	0.1898071970629585
124	0xbfb2fd04c916d0ba	-0.0741732588711014
125	0x3fd7b31edb674a8a	0.37030764986153797
126	0x3fc5c204ee8868ce	0.16998349806892182
127	0x3fd7b4f3c93b8edc	0.3704194512522301
128	0x3fdcf09725bc68e6	0.4521844738498103
129	0x3feb049b5fa72e13	0.8443123691772051
130	0x3fce1df2a1bc16dc	0.23528893372729598
131	0x3fbadb2e6b93d69c	0.1049069416656842
132	0x3fe33f396f85c26c	0.6014678171323573
133	0x3fbe555caec38f54	0.1184900213880245
134	0x3fe37b197059dba5	0.6087767786365147
135	0x3fe74ec44e8cb525	0.728365090768112
136	0x3feae0a582e042e2	0.8399226719066883
137	0x3fd1d34a94d03b7b	0.2785211995368894
138	0x3fa84f33767352b8	0.04747925587586138
139	0x3fe1f7e7ff9fc94c	0.5615119927081564
140	0xbf933388ee76d0d0	-0.018751277498908092
141	0x3fde1b01f53e245e	0.4703984160374314
142	0x3fe28be93a18ddda	0.5795789847097084
143	0x3fb067275d7355c2	0.06407400161273016
144	0x3fecc36faeda97bd	0.8988569655527879
145	0x3fa679cda4d52740	0.043898035403414415
146	0x3f971eefc6d81b18	0.02257895136974772
147	0x3fbd349ff1466a80	0.1140842403459974
148	0x3fc214caecbca5e6	0.14125954207820185
149	0xbfb36821cc858817	-0.07580767863467518
150	0x3fe893df66d0ec01	0.7680508621336913
151	0x3fc4e31a405bbd14	0.16318061964509722
152	0x3feb1cdb065d35d3	0.8472724079417112
153	0x3fe455207d1e9e82	0.63539146840499
154	0x3fc0928c2e0e886e	0.12947227715364157
155	0x3fe9c59b85450d3d	0.8053720095562437
156	0x3fe19931888568ca	0.5499503771236729
157	0xbfb3854e3b3bc310	-0.07625283189896614
158	0x3fe580705cd8f7d1	0.6719285787037227
159	0x3feaadd5fc2aa263	0.8337202000739804
160	0x3fbe3da5c9e22b60	0.11812816790385972
161	0x3fe1740cc86cbd17	0.545416251616106
162	0x3feaee5e0e27dbfc	0.8415975834349179
163	0xbfa61e69ee55dc74	-0.04320078882567993
164	0x3fe3e1753b6d27f3	0.6212717209502884
165	0x3fe144bface62064	0.5396421791965733
166	0xbfbded451041f0e7	-0.11690169951356531
167	0x3fe92151249f6455	0.7853170123372687
168	0xbf99376b6ba73960	-0.024625471540099197
169	0x3fe3fc80c0e2394e	0.6245731131801138
170	0x3fdd8ee03c74ec7e	0.4618454542539395
171	0x3fd9ec6a6307290c	0.4050546614713688
172	0x3fe55cea3d6efdc1	0.6675921630739411
173	0x3fe3ade8f5986897	0.6149792477401829
174	0x3fdb9bca5ed7c5ae	0.43138369810102517
175	0x3fdbf4d0a86dc084	0.43681732605092116
176	0x3fbdb06e68e8f170	0.11597337781217276
177	0x3fec73fdd9c03bc9	0.8891591313312058
178	0x3fe890b2bc292749	0.767663352490879
179	0x3fd2fa0bf9905865	0.2965116440913163
180	0x3fd9176e377ad65a	0.3920550863070723
181	0x3feb1c6b51c30887	0.8472191426192389
182	0x3feab342fd92c539	0.8343825295070594
183	0x3fd553e28523ce3b	0.33324492456378935
184	0x3fe13fe8c00a77df	0.5390514136122383
185	0x3fe6bd31df474cb7	0.7105950699718936
186	0x3fdac7de46d46056	0.4184489909835113
187	0x3fdbd712b026036e	0.4350020141792389
188	0x3fda77ed7276f39c	0.413569795400514
189	0x3fdf9b4b889e1cac	0.49385345784726087
190	0x3fec7d816b1132bb	0.8903205004840723
191	0x3fe48c3fa01aaa44	0.6421201827082048
192	0x3fe756a8bb7724fc	0.7293285046991111
193	0x3fe72015653d4b4d	0.7226664521534559
194	0x3fcd0d21c87096d6	0.2269632557592362
195	0x3fd50761c1addee8	0.3285755530737178
196	0x3f8df639c581bdf0	0.014629794444970451
197	0x3fe46bfa06bc0e0f	0.6381807452712013
198	0xbfb4f6d4faf29007	-0.0818913567223377
199	0x3feb8fac28e35261	0.8612881468385006
200	0x3fe595485356417a	0.6744729640650313
201	0x3fed55196559238b	0.9166380862671856
202	0x3fb24b9046514fda	0.07146550862063297
203	0xbfc2610ba22fdb94	-0.1435865919044913
204	0x3fe8734187356348	0.7640693321983258
205	0x3fe4b7c328840691	0.6474319258997686
206	0x3feda597b3bcac2d	0.926463938759644
207	0x3fd95e3d98f2cd6c	0.39637699066516663
208	0x3fd65658dc51b5ea	0.3490202094606888
209	0x3febbc02107909bd	0.8667002031073064
210	0x3f81a65215380290	0.008618012688203863
211	0x3fc50b34c587428e	0.1644044842237417
212	0xbfa278a1a0dccc82	-0.03607659424451361
213	0x3fe211143d4a4c5a	0.5645848462176091
214	0x3fed8d827647d6fb	0.9235241232078971
215	0x3faee4c51ed7a084	0.060339126601150844
216	0x3fb0814708542bea	0.06447261765804027
217	0x3fd4d2de42b7b3f4	0.3253703738726579
218	0x3fd812da77c1efac	0.37615071959566637
219	0x3feb3ab48be4af2b	0.8509161693850492
220	0x3fda02e4ae35639e	0.40642659199289166
221	0xbf8fb247f98e5c40	-0.015476763060901289
222	0x3fe5740a6b5838d3	0.6704151245665123
223	0x3fd9ed7ae798f250	0.4051196347898314
224	0x3fcdd76e165b054a	0.23313690272883952
225	0x3fd52675e0cd72b3	0.3304724402749272
226	0x3fe02d21a63c2dd9	0.505509209325676
227	0x3fe0712320e13971	0.5138106958564049
228	0x3fd3f7c9d7f0b8b7	0.3119988068382428
229	0x3fe667a8e351a4f2	0.7001537742445676
230	0x3fdf2d771b3a9426	0.4871499792009807
231	0x3fe0590546a5d4e6	0.5108667735900354
232	0xbfb1e0cf0954b737	-0.06983655908399276
233	0x3fd291e34c5c8ca1	0.29015428979091423
234	0x3fd00bf0634883d3	0.25072869964247707
235	0x3fe5983860e6fbdf	0.6748315708754226
236	0xbf8c40e31e4e4fb0	-0.013795637476313377
237	0x3fe6e30ca66f6881	0.7152159929930947
238	0x3fd298d36fc47d18	0.29057775416181775
239	0x3fd95247da1b5e52	0.3956470136595033
240	0x3fa3b90d97d085b4	0.03852121809201084
241	0x3fe01aff6a105135	0.503295619159451
242	0x3fc112022bd634f2	0.1333620752379044
243	0x3fe3b4844e386331	0.6157857444514773
244	0x3fee1196652666a1	0.9396469092927938
245	0x3fec780054639beb	0.8896485946869438
246	0x3fd0452c48cfe497	0.2542219840102659
247	0x3fdb64d296142e76	0.42802872329841735
248	0x3fc620cfbecc7508	0.172876327670487
249	0x3fc5e776dd731b70	0.17112623036356522
250	0x3fb875a2d4a1354a	0.09554498377948054
251	0x3fd436ba85b72f0f	0.3158403688255342
252	0x3fe18e79c6b8f876	0.54864205182072
253	0xbfafd087e84b4652	-0.06213783941860797
254	0x3fb3f3efed445090	0.07794093649528322
255	0x3fe82bf4635fb748	0.7553655568023965
