Zenodo/Npy_zenodo/theta_N14N16_to_N40.npy (npy, 320128 bytes, 1 tensors)

array f8 [1000, 40, 1]
00000000: f866 1dd6 736e 99bf 3f22 2472 bc32 ec3f
00000010: e641 8dc0 8763 e23f bad2 b6c7 faa3 ea3f
00000020: 9e67 2457 9553 db3f 7196 4cbd b021 e23f
00000030: 1887 3bd0 ef84 c43f 204b eb2b 19e4 7fbf
00000040: 819b 856c 3dcb e33f 1c71 979f 5b5c a23f
00000050: 89a5 d6e4 2069 eb3f 0ae0 e821 531a c83f
00000060: 468d 67c1 fe48 d83f 6549 1a4c 8ed9 e13f
00000070: 1fb5 3bf7 1635 ed3f 8890 b99b fd74 e13f
00000080: 4ca6 b8f1 5b57 d93f 321d b637 9914 dc3f
00000090: fc30 4f2b cbb5 a93f faaf 624a f895 d73f
000000a0: 62c1 5348 ed35 dc3f 7823 7637 506e e23f
000000b0: 9251 ed19 0f5d dd3f a030 f123 3e8e d63f
000000c0: 80c9 1a65 7e01 d83f 3f64 b8dc 20ba d13f
000000d0: acff 10d0 aca4 de3f 12e0 335a 4720 e43f
000000e0: f692 d32c 1609 c63f 8419 8462 9fb9 aabf
000000f0: 6460 c118 6cff d53f f1ca 7838 c964 ed3f
00000100: 50ad 10f1 b991 82bf c614 5fed 547f ce3f
00000110: c0e8 ff04 e280 da3f 88b6 1cce 4752 9ebf
00000120: 2ac2 247a be1a e33f c20a 24b4 cdb1 cc3f
00000130: da90 a733 bb04 d93f df14 9627 e51d b3bf
00000140: f27a ff08 3619 d03f ea5e c0d2 cde4 d53f
00000150: de8f dee3 bf55 aebf 4465 530c 1284 dd3f
00000160: c019 3a14 33da dd3f 7c68 e7be 0bf2 a6bf
00000170: e997 5183 89bd e03f a039 05b6 7822 c33f
00000180: 64f3 ec92 69b4 d83f 2f8a 6553 473a d43f
00000190: f994 069a f7f4 d03f f004 e960 2f24 db3f
000001a0: 5a69 0f8a af4a c83f 6e63 0786 aa71 dc3f
000001b0: 704d 9b19 4ea2 82bf 1b25 7670 8914 b2bf
000001c0: 185e ec09 b2fb dd3f 49e8 1161 0431 e23f
000001d0: 0878 cea4 6b71 c93f 5300 7ba4 96b6 e23f
000001e0: a606 3742 1fe8 e13f 9469 be5c edf3 ea3f
000001f0: b49c dd97 d89b e93f 68f0 d0f5 93d0 a9bf
00000200: 18c1 efb6 0acb e73f d32e 58c6 c0a3 ea3f
00000210: 12a0 b179 f89b d63f 45a3 576b 5d77 e33f
00000220: c149 d4d8 0b42 d23f c424 d349 f77f d43f
00000230: 50ff d483 e5a1 e93f 8a25 7808 a5ba c93f
00000240: 9d88 59bb dcbd ec3f c9d2 bde8 7fa6 e23f
00000250: 4cea a8c0 ce31 ae3f 603a d6b3 e64f a9bf
00000260: fe89 b3ed f591 e43f 2ecf 9013 133f d73f
00000270: 0a07 99af b905 e23f 041d 1185 f69d b1bf
00000280: 2b74 4989 89d1 ea3f 1eec e638 2e8d cc3f
00000290: cb0f da8c 0efa d23f 56b9 dc4f 1e97 e83f
000002a0: 6fc7 92ac e46d e33f 8da6 06e4 5a99 e93f
000002b0: 66a6 b869 b16f d83f 5493 14bd 32cb a4bf
000002c0: 1f47 8865 05e8 e23f f445 cf2c 8fd8 e83f
000002d0: b4ef f345 93d7 d43f 4769 c27d c964 e93f
000002e0: 5801 b540 e321 e83f d789 c40f 288f bdbf
000002f0: d844 c113 9fa3 95bf a59a 6c3e 1fe7 d03f
00000300: 689c 5be2 3eaa c63f 76a3 5387 fb78 dc3f
00000310: 38b9 0174 2ed5 b83f 16d9 8477 cf13 d93f
00000320: bc8f ba49 0f36 c93f 1ac8 3f2a 1b50 d13f
00000330: 4846 4033 f4bc 9f3f 005a d1d3 9a04 463f
00000340: 29f2 a673 712a e23f 4b68 1633 1d78 d23f
00000350: 40ef 9fc3 8a3d 60bf 1e67 4a13 aeea c13f
00000360: e59a f249 bd10 e73f 9c90 a854 5dd1 b43f
00000370: 64ab d2a7 e022 bf3f 88f8 78d6 d27d c1bf
00000380: 34a4 f555 ecfa b53f 748b 241d 5b9e a33f
00000390: 4085 b8cd f446 67bf 261d f94a e7e4 c43f
000003a0: fa09 f361 1d0c c03f 3a00 0dc3 3c23 da3f
000003b0: f8d5 6464 ca8a db3f 35ec 6c7e ff39 e53f
000003c0: 4099 60ba 5017 65bf c4fa 0f5f 934d d43f
000003d0: 180b 94bb 9bd2 cb3f 8bda 1de9 1d50 ed3f
000003e0: 89d0 096a 72e1 e63f bec8 d39a 4149 ce3f
000003f0: b4dd 13fc e06d a83f 64fb c93d 6d9e ca3f
00000400: aa98 2f1d 99c4 e03f b2c6 117f c48a d93f
00000410: 6650 7b8f 1964 d23f 6747 3073 dfec d53f
00000420: c37b 7d27 9909 e03f 4ff0 bf54 3a0f b7bf
00000430: ee21 66d6 6dd0 aabf 6d77 1c1d 44d1 e23f
00000440: 1ea3 5e4b 4222 e63f 9221 c570 5389 b23f
00000450: 63fb fae8 6d72 e83f 0926 c0e7 ccb0 e53f
00000460: 3015 be57 1ee7 df3f c2c1 375a e406 e13f
00000470: b450 7805 3cbb a7bf 4826 56a1 ee45 bc3f
00000480: d4e5 6797 a787 d13f 6c0b 5152 aa0b d53f
00000490: 2c1b 1ca9 11c2 b83f b371 116a bc89 e73f
000004a0: 76bf d348 83ca e03f f03c 6ca0 2283 c93f
000004b0: 1506 e7ed 1746 ee3f e821 44e0 0e1b a43f
000004c0: ee78 ac25 fbca afbf 97d7 445f 5b0a ed3f
000004d0: b2b2 4045 3e50 a9bf 244d b443 e7a0 a3bf
000004e0: 54dd 3048 ea37 b93f 14f1 936a 98dc d63f
000004f0: b66e 37da a574 c93f 7cde f03f 8b83 aebf
00000500: bf0c d3ec 3e42 ee3f ba84 981f 004a b1bf
00000510: c625 29c6 2ac4 d83f ed43 a107 99b9 ec3f
00000520: d369 bdb6 31da e33f 5475 b18e f86a abbf
00000530: dad2 dce3 f013 c23f a2b7 1582 908c e33f
00000540: 3b1e 9ba1 ae96 e03f 3e93 cfd2 0961 b13f
00000550: 3f92 7341 c0d9 ed3f b846 428b e10f bd3f
00000560: 42e7 bd92 e390 d83f aefc 830f 5981 db3f
00000570: 3b54 8337 5b29 e63f 8557 7054 eb86 e23f
00000580: 757c e8a6 e637 ec3f f06f 1b18 48a5 e63f
00000590: 5123 4c2b b737 eb3f fdc7 3a0e 2cfe ec3f
000005a0: 5ead 3f1d 0445 e43f a296 4c1c c5b7 d93f
000005b0: 7e74 8ca3 0bb5 e93f d0ec 72aa 9173 e03f
000005c0: 600b 2b0b 774f c63f 6e79 23a6 a4b6 babf
000005d0: d264 eb1a a533 c03f d41f cbce 0f60 bc3f
000005e0: eeb8 2bdd 1103 e43f d667 8cad 3cc0 c03f
000005f0: 9ba9 f34d db98 d13f 2c95 f999 bab7 bebf
00000600: 93a7 1cb0 1f0a ec3f 005b 169d dd7b dd3f
00000610: 4a7f 6029 3051 e33f 1ff9 ff42 2f59 ed3f
00000620: da98 5211 608f df3f 0ebb df74 fac1 b3bf
00000630: 46f7 c248 6b68 ca3f 7a58 cfed d3e5 e93f
00000640: 7830 2345 f19d 92bf 79d5 7c05 f096 e63f
00000650: af5a 9cde f13b eb3f ce3f 51f0 befc e83f
00000660: 12b7 7c25 180f c53f b840 188a d772 bd3f
00000670: ec6c 7152 9ea4 ce3f a21f c23c f371 b43f
00000680: 5e4c 0e58 a21f d93f 7a66 32d5 f9a8 c93f
00000690: 9098 6992 dbdc abbf bd8c 01c9 963e e13f
000006a0: 90cd 2804 f56d e63f 9e11 fdf6 8c04 b73f
000006b0: 0a0d 62b2 def2 c53f e093 2d3c a5eb bbbf
000006c0: f1e7 cf7a 884e e23f 5ca1 7420 f858 bfbf
000006d0: e04a 29dc 807c e53f 8aa8 0362 eaca d53f
000006e0: 1d75 9eb5 80bf e03f ae9c cd4c adb7 bfbf
000006f0: f57b 28ae e10e d33f b34d 147a 653b e93f
00000700: d402 da07 4797 ce3f 71ec cf40 fb91 e23f
00000710: 6cf3 4e41 1cf1 de3f f43e 6ff7 8e32 9fbf
00000720: 81be 6f85 3154 e43f 58bb 65fc 3c54 ea3f
00000730: 6ef4 73b4 8908 e13f d03f f494 777c bf3f
00000740: 8859 4e44 3095 da3f 1e8d 5a14 6f7a e83f
00000750: ec27 4b78 ba73 df3f ee7d f33c 9386 e33f
00000760: 84eb 769a 1acc df3f 3dab 3c5e 224b e83f
00000770: 1fff 3033 8643 e23f 424e 4700 461d d83f
00000780: 4897 e16f 1880 ba3f 88a7 2736 8154 e63f
00000790: 5cbf 5e43 65ca a13f 5579 d1a7 5c16 d43f
000007a0: 5e04 84cd 2d9b d63f 0bc2 08b7 24e2 e23f
000007b0: 921e 28d0 6bde b33f 4cd8 696e 93f7 c13f
000007c0: 05cd 1560 4294 ea3f 2a12 3e8a bada e53f
000007d0: fcc2 e5b4 448f e13f d4f8 f861 25ac d63f
000007e0: 28c8 2246 53db e13f 809c efc9 3896 b5bf
000007f0: 4c13 58ae c923 e43f fcb2 8d4d 91d3 d23f
-0.02483540529588077 0.881193373615197 0.574649692609509 0.832517042223649 0.42697652349453985 0.5666125962495255 0.16030690829853067 -0.007785890890505326
0.6185595626419486 0.03586088488711622 0.8565830678464162 0.18830336719270263 0.37945526969106813 0.5578071104412571 0.9127306774877616 0.5455310861111835
0.39595697980494005 0.4387572330528712 0.050215100323471845 0.3685284353657604 0.4407914358444228 0.5759659846527105 0.45880486995636105 0.3524318076131383
0.37509117005824777 0.27698537401881035 0.47880096739754197 0.6289402734537382 0.17215230168144274 -0.05219743802631441 0.34371473710553446 0.91855298070581
-0.009067013425087339 0.23826085653687396 0.4141163872551594 -0.029610750155532745 0.5970146546952197 0.22417613311707468 0.3909137730063442 -0.07467491356335952
0.25153876188953384 0.34209008771129723 -0.059247967306219826 0.46118594363868604 0.4664428422478544 -0.04481541352625215 0.5231368603533585 0.14948948753085478
0.38601149891092335 0.31605704445078947 0.2649516109616595 0.42408356155290416 0.18977922669621244 0.4444376286388011 -0.009098634869053795 -0.07062586780206852
0.4684872719676334 0.5684835334680055 0.19877381846612274 0.5847886288174869 0.5595852177868508 0.8422762690927805 0.8002741781355298 -0.050419448620659335
0.7435353825549411 0.8324893831172296 0.3532696903625957 0.6083209129838926 0.28528114485484585 0.32031042298747203 0.8010127615780025 0.20100844300786164
0.8981765422033906 0.5828246637089133 0.058973752038998656 -0.049437722637880155 0.6428174631694785 0.363224763018695 0.5631988935130903 -0.06881657360746735
0.8380782777200059 0.2230584886400217 0.2965122581010717 0.7684470710571911 0.607164704377494 0.7999700978882217 0.3818172008928741 -0.040612779217815614
0.5908228858045027 0.776435458678121 0.3256576712735708 0.7935531097639704 0.7541366828736882 -0.11546564469293884 -0.02113197858881652 0.2641065702068011
0.17707048466329245 0.4448841878461772 0.09700289089389436 0.3918341319253086 0.19696227169072056 0.27051428914922016 0.030994239452473843 0.000671935653040745
0.5676810511427607 0.2885811804677629 -0.001982470535038333 0.1399743646805342 0.7207933849611804 0.08131964985710954 0.12162593934287497 -0.1366523310879908
0.08586003397580627 0.038317534739937736 -0.0028414517708063303 0.16323558007045696 0.12536971361812715 0.4084007172386951 0.43034610561457454 0.6633298367736474
-0.002574594184824225 0.3172348430961558 0.21736475619408036 0.9160298874911218 0.7150203772603315 0.23661060390401717 0.04771330906981622 0.20795979992905267
0.5239987916982234 0.39909469994664015 0.28735960971721963 0.3425825714958734 0.5011716624538781 -0.09007610863767578 -0.05237143747496363 0.5880451744630882
0.6916820022644037 0.07240792754340067 0.763968424835053 0.6778320814493678 0.4984813553677041 0.5320913087908183 -0.04635036055347666 0.11044207991485522
0.2739047030041466 0.328836994540487 0.09671125773102734 0.7355634757655508 0.5247208044438441 0.19931443055290954 0.9460563322574581 0.039268936992872316
-0.06209549746403008 0.9075142727585782 -0.0494403323685665 -0.03833697034328967 0.09850944769356335 0.35721407325742516 0.19887231021026758 -0.05959735065010549
0.9455866456486531 -0.06753540774708969 0.38697308875688596 0.8976559781095809 0.6203850335253328 -0.053550498407939046 0.14123355032065527 0.6109087506026649
0.518393817555029 0.06788693806408916 0.9328309324597014 0.11352357530474932 0.3838433201814163 0.4297697688597947 0.6925483783949241 0.578969635886765
0.8818238506245409 0.7076759787410065 0.8505512090351691 0.9060268667146826 0.6334248133911549 0.4018414284094921 0.8033502764043445 0.5141075448113046
0.17430007977790307 -0.10434941345326873 0.12657607855252323 0.11084078596752472 0.6253747291318896 0.13086660837217207 0.2749546300171006 -0.11999098071244835
0.8762358131109401 0.4606851610237044 0.6036606605666546 0.917136793955965 0.49312593166031393 -0.07717862466209288 0.20631161740123555 0.8093051571584191
-0.018180627674880573 0.7059249980144805 0.8510674808374769 0.7808527654360604 0.16452314215114733 0.11503359910443833 0.23939875627079432 0.0798637412391359
0.39255579566196797 0.20046923551562995 -0.05441938555013437 0.5388902593516814 0.7009224969137211 0.08991318731302164 0.17147430143459302 -0.10906441420736668
0.5720865629839392 -0.12245131294605954 0.6714481639886252 0.3405099827929311 0.5233768031354519 -0.12389643788411561 0.2977832985652065 0.7885005363809142
0.2389916218126219 0.5803200021613418 0.4834662091996538 -0.030466302730757414 0.6352775198156025 0.8227829866062661 0.5322922253104829 0.12299296747755695
0.4153557459880166 0.7649455449613105 0.4914385008565876 0.6101776304676017 0.4968325146143615 0.7591716614309473 0.5707427024680988 0.3767867090911957
0.10351708156084982 0.6978155191147701 0.03474728057278639 0.3138648642397091 0.35322136945621263 0.5901053976904803 0.07761262733412824 0.14036791697771134
0.8305980564749978 0.682950277333082 0.5487388165621208 0.3542569596064713 0.5580231065598626 -0.08432345323636703 0.6293686299473875 0.2941630608900565
