Zenodo/Npy_zenodo/theta_N14N16_to_N36.npy (npy, 288128 bytes, 1 tensors)

array f8 [1000, 36, 1]
000000 31 2a e3 c3 c9 0c ed 3f 08 30 27 40 61 48 9b bf
       0.9078110528874445 -0.026643294849961335
000010 94 24 8d ab 21 a1 b9 bf 62 aa 63 99 0f e8 cd 3f
       -0.10011492193474886 0.2336444376918108
000020 60 3c c9 44 d3 39 99 3f 5f 2f 4f 2c a3 c9 ec 3f
       0.0246346483930292 0.8996139398018207
000030 b4 2b ff fd 84 6d c2 3f 43 a4 97 21 94 2e e2 3f
       0.14396726991830422 0.5681858688450422
000040 06 f7 4c 7e 67 85 e7 3f b8 66 81 5e bd 72 d9 3f
       0.7350347010430773 0.3976281569390312
000050 d3 17 83 c1 97 c7 d4 3f 64 e7 34 19 52 2d d5 3f
       0.324682177521365 0.33089115583026385
000060 fc 97 5e ee 1f c7 dc 3f 3d f4 b5 ea 3e 6c e2 3f
       0.44965360906860474 0.5757135948366635
000070 3b 41 d9 d9 36 b3 d2 3f 00 2b 90 8f 72 77 ce 3f
       0.29218837045938856 0.23802024850768788
000080 32 94 63 31 83 2a a2 bf 0f 1f d4 33 8a 83 bd bf
       -0.03548059442417929 -0.11528838887545255
000090 9b 3c af 41 00 3b ed 3f 53 d7 37 0a 13 a4 e6 3f
       0.9134522707844498 0.7075286101887549
0000a0 1f 65 35 bd 53 af e7 3f 2b 3d 44 24 e8 30 b5 bf
       0.7401522346000639 -0.08277750859655401
0000b0 18 96 7f 66 c8 e2 c5 3f 0c 6a 71 1f 96 74 c2 bf
       0.1709833622436896 -0.14418293509773183
0000c0 00 02 88 f3 c1 b8 94 bf 80 b6 14 ec 1e 7e 6c 3f
       -0.02023604439637161 0.0034781078290027634
0000d0 9d 13 e6 73 ec 10 ec 3f 91 6b f0 10 12 d6 e9 3f
       0.8770658744475558 0.8073816614954571
0000e0 0f db f2 7c 4e 7d ea 3f f4 23 ae ec 37 7a e9 3f
       0.8277962150958461 0.7961692450199949
0000f0 03 e9 e6 40 5b a5 ec 3f 38 f0 48 b6 0b 02 96 3f
       0.8951851146332789 0.02149217891768293
000100 f1 e4 d8 a9 3a a3 e6 3f d7 c1 c0 e9 aa a2 eb 3f
       0.7074254338578198 0.8636068883407074
000110 f3 08 c8 e9 05 f3 d3 3f 8e f0 19 98 f7 bb cf 3f
       0.31170795278752833 0.2479238026315937
000120 9d fa 13 c3 83 70 eb 3f 5b c3 bd 41 b5 70 e4 3f
       0.8574847040288948 0.6387583049782778
000130 e0 7e 55 4b 0b ae de 3f 2f b5 f1 c7 fd cb e8 3f
       0.4793728099520944 0.7749012856635654
000140 e7 bd 40 41 39 70 eb 3f f4 24 74 cb 94 e5 d1 3f
       0.8574491762610109 0.27963752621197036
000150 7f 5c 4c 0e 8c 3a ee 3f 38 56 62 ab 30 f1 d6 3f
       0.9446468619597822 0.3584710763619543
000160 12 03 e9 b3 9a 16 a6 bf 60 04 31 fe 25 11 e9 3f
       -0.0431412071816394 0.7833433117558677
000170 30 10 9d 71 5d 81 e3 3f 20 a7 f7 b6 73 f2 ea 3f
       0.6095416277899002 0.842096192701522
000180 05 b0 85 76 51 13 eb 3f 7b 2c 51 66 a3 36 e3 3f
       0.8461081805121472 0.6004197119122091
000190 61 8d 48 b8 c2 a5 ec 3f 84 9e d3 38 cf 52 bc 3f
       0.895234451225786 0.1106385720955761
0001a0 ae a0 22 39 3a 18 df 3f 66 07 c4 58 11 7d c6 3f
       0.4858537252389493 0.17569176515831514
0001b0 d8 92 4d 07 d0 85 e6 3f f2 d7 77 2b 31 9e a7 bf
       0.7038345472943446 -0.046128784710091866
0001c0 e6 cb fb 0a f0 70 c8 3f f2 cf 39 d4 cf a4 d3 3f
       0.1909465840941202 0.3069343159215797
0001d0 e6 3b 54 a7 67 d7 e4 3f 1f b9 8f 9d da 7f eb 3f
       0.6512945430894177 0.8593571736690001
0001e0 d0 36 36 a7 2b 91 94 3f 46 53 69 68 57 7e ea 3f
       0.020085031586453195 0.8279225386892015
0001f0 44 ed 44 86 97 79 9e bf 21 df 68 7f f4 b4 e1 3f
       -0.029760711259979603 0.5533392418355768
000200 00 d8 c5 f3 10 4e 11 3f 3f 14 56 51 07 0a e0 3f
       6.601313083884341e-05 0.5012241924856723
000210 8c 82 48 a8 d2 a7 b4 bf 1f 70 24 08 db bb e9 3f
       -0.08068577393033588 0.8041815909414288
000220 6b 33 11 ff 6f 02 e5 3f 94 41 41 ff b1 4e d4 3f
       0.6565475446492263 0.31730318000065805
000230 e8 be 56 09 97 e4 d7 3f f2 67 07 5e 9c 07 a0 bf
       0.3733270255279266 -0.03130806587041936
000240 a0 08 e8 24 f6 5d c0 bf c0 9d a3 7c 51 4a 75 3f
       -0.12786747743672766 0.005197828586666231
000250 8f 99 f6 25 b0 1f ed 3f e9 61 41 25 f3 30 e9 3f
       0.9101181737394642 0.7872253158230339
000260 13 e0 e7 90 39 4e e4 3f d7 be 2f 3f a6 50 ed 3f
       0.6345489340010338 0.9160948976623001
000270 6b 26 06 62 a8 12 e3 3f b4 bf 65 d9 31 2e ba 3f
       0.5960275568515504 0.1022673755412587
000280 98 24 6e 20 3d e1 e9 3f 8c 1f 2e a4 e8 bd da 3f
       0.8087449677851906 0.41784111054629913
000290 0e b4 4d 2c 6b 1d ac bf d5 c7 b2 b3 d8 b1 e3 3f
       -0.05491194644751128 0.6154597768529536
0002a0 8c 8e 0b c7 5a 86 be 3f 75 be 1a 8d 63 e4 d5 3f
       0.11923758849621374 0.3420647504781081
0002b0 ac ae 47 f4 75 16 e9 3f a5 70 62 c4 2f f2 e0 3f
       0.7839917918294836 0.5295637927661302
0002c0 46 77 42 da 79 1d e8 3f ea 2e b0 7b 34 be e4 3f
       0.7535981428988883 0.6482183852944818
0002d0 fc ba 3b d8 8e 80 bd bf 8c 81 32 a0 42 b7 c2 bf
       -0.11524288920530162 -0.14621765920766128
0002e0 0c 04 c2 b4 42 5d aa bf 78 58 da 47 ae b1 df 3f
       -0.05149277168766994 0.49521977440725307
0002f0 c8 c4 7b ce cf 37 bc 3f c0 c6 5f 49 88 24 69 bf
       0.11022661963558555 -0.003069177803802642
000300 3f 94 23 7f 83 e3 e4 3f 10 22 9c 46 ff 9b e6 3f
       0.6527726634200305 0.7065426234340197
000310 7c 06 54 be c6 2b cd 3f 06 3b 17 fd 2e 08 e2 3f
       0.22789844792719183 0.5634989684275247
000320 8b 59 8c 4b 94 85 e8 3f 14 f9 86 db 86 8b bb bf
       0.7663060641814793 -0.10759775981475556
000330 e8 47 77 85 74 b1 d8 3f 58 e4 73 d5 54 7d b4 3f
       0.38583100351126953 0.08003740512130386
000340 a7 94 ec d9 e8 a0 b5 bf c6 e8 d9 67 3c 0f b8 3f
       -0.08448653526700643 0.09398248229436765
000350 4d 65 eb 91 d9 5e ee 3f 67 06 b5 20 4d 99 d3 3f
       0.9490783548346059 0.30623176759772835
000360 62 48 a8 98 89 40 d7 3f b8 ef 2c 58 6e a1 bc bf
       0.3633140555185773 -0.11183824207995385
000370 59 dc 4b 71 2f 4f ee 3f a0 cd 0e 56 70 f4 b6 3f
       0.9471661770647969 0.08966734028836365
000380 f2 f9 f2 8a 37 c5 b7 3f e0 45 a9 5b 9c 57 84 bf
       0.09285304205238967 -0.009932729289320485
000390 c4 16 06 60 e5 6b de 3f 3c 4a ac fa 92 11 c5 3f
       0.4753354490024828 0.16459882011311489
0003a0 ed 38 1c e7 ac 4a ed 3f be ee 0a 89 a8 40 e7 3f
       0.9153656495925852 0.7266428639045086
0003b0 20 42 b6 05 ad f2 c8 3f 03 e3 00 5d 4c 75 e6 3f
       0.19490587977317464 0.7018186394189744
0003c0 cc 25 d3 ef 85 28 a7 3f 9e a6 41 29 34 fb da 3f
       0.04523104240940831 0.42158226040792524
0003d0 f8 24 94 25 e9 6e e6 3f f0 c7 c1 e6 22 e3 e4 3f
       0.7010389074286243 0.6527266032192056
0003e0 a2 b4 e3 66 fb c1 be bf 01 aa 0a 4d 87 15 ee 3f
       -0.12014743101072381 0.9401279930801253
0003f0 c8 bd 7c 42 9a 99 cf 3f e2 cb 96 12 89 a9 d2 3f
       0.24687507864426395 0.2915976220639874
000400 ad 30 35 5c ac 84 ec 3f c0 95 54 a1 70 d3 d1 3f
       0.8911954689915739 0.2785302711002622
000410 e0 5b fd 8f 52 19 c3 bf 0c b7 91 9c 70 9f e8 3f
       -0.14921028166528938 0.7694628770820784
000420 dc cd 6d 63 76 fa e9 3f d7 8d 51 de eb 73 e9 3f
       0.811824030110468 0.7954005567702848
000430 92 8b 77 b3 8a 4f c3 3f 81 56 d4 9c 15 ab e0 3f
       0.15086492312465488 0.5208843291354271
000440 ac 54 82 a3 e7 2d b7 3f 50 e1 56 35 18 55 96 bf
       0.09054420225068566 -0.02180898500020706
000450 74 c5 cf 2d a8 6f c9 3f 18 73 c1 50 ad c4 d9 3f
       0.19871999966521126 0.40262921224875603
000460 3c fb ec a3 12 7c de 3f 7f 0d bc cc 16 b6 d3 3f
       0.47632280357713674 0.30798883432017726
000470 68 bd be a6 86 2b d3 3f c0 91 3c e5 ef 58 89 bf
       0.2995316151018046 -0.012376665290113276
000480 00 08 74 c7 c3 e3 b1 bf ec 8d 2d f1 10 50 e8 3f
       -0.0698816644617466 0.759773703623464
000490 59 ac 42 e0 ed d1 e5 3f f8 cf a3 09 3d e9 c8 3f
       0.6818761234366192 0.19461787195871216
0004a0 fe 6d aa fd 68 7e da 3f 20 56 96 25 9a cd c4 3f
       0.4139654614643574 0.16252447924914382
0004b0 17 ee 6d d4 c6 e7 e8 3f 79 94 9b f8 80 41 ee 3f
       0.7782930516254422 0.9454960685367403
0004c0 b9 6c a0 19 55 81 eb 3f c5 8e a1 b7 db 4f e8 3f
       0.8595376492043193 0.7597483240646957
0004d0 08 ac fa 6b 3e 1f da 3f 28 1b 70 6b d7 90 d1 3f
       0.4081569723591092 0.27446542255386186
0004e0 e0 79 21 9a 41 02 72 bf 50 4a fa dd 35 7e 83 3f
       -0.004396682985400052 0.009518071018907254
0004f0 dd 0b 4c db be b9 d0 3f c8 e1 63 03 6e 86 e4 3f
       0.2613370076725781 0.6414098802770747
000500 9c d9 1e 54 c9 eb bd bf fe d7 fa b5 9a 33 c4 3f
       -0.11687906554911937 0.1578248394559409
000510 3e 83 26 23 bb 7c e7 3f bb aa 47 30 7c 04 e4 3f
       0.7339759527713807 0.6255474989860298
000520 30 28 34 8c f8 71 ea 3f 8c e9 4c 0f e0 02 c9 3f
       0.8264124620775473 0.19540024516193133
000530 ca 19 dc 8f f9 6a b1 3f b9 8b 56 e4 91 33 d4 3f
       0.06803855669213657 0.3156475763191185
000540 9b 1b 73 03 2d 31 ee 3f 87 e7 c2 40 be 50 e6 3f
       0.9435029094100743 0.6973563446874643
000550 e1 6b 05 77 88 59 ed 3f 32 86 7b 2b 25 91 ea 3f
       0.9171793293602343 0.8302179192798518
000560 b7 80 e9 5e 80 6b e9 3f 6d 85 e3 b7 9c 3d eb 3f
       0.7943727353813504 0.8512710181786766
000570 2c 05 cc dd 55 0d d8 3f fa 89 85 4e 63 1b cd 3f
       0.3758139291749838 0.2273983128935269
000580 ce 56 2c 55 f6 9c e2 3f 35 ef 72 9b 42 57 e8 3f
       0.5816604293383649 0.7606518779861974
000590 bf 38 19 81 bf 16 e7 3f c1 3a ed 05 f9 1d eb 3f
       0.7215268632369528 0.8474087825541902
0005a0 4d 87 fe bc d0 16 e0 3f 14 ce 99 02 77 b8 ad bf
       0.502785081033133 -0.05804798037288719
0005b0 72 64 64 e8 78 2c cb 3f 1e a7 b8 a7 60 a7 e6 3f
       0.2122946867682774 0.7079318309599534
0005c0 dc fe 52 0e be 5e e3 3f 0a 83 2c 37 55 1a be bf
       0.6053152351159627 -0.11758930775659962
0005d0 73 96 b0 96 4e 95 ed 3f c0 d9 4a b2 a4 52 6a bf
       0.9244759505424568 -0.003213235543024967
0005e0 96 42 0d ad d6 88 c3 3f a2 7e 59 8a db a3 e4 3f
       0.15261348199648656 0.6450021459713364
0005f0 ea ff b3 d9 ab 2c ad bf 80 48 29 9c 31 44 65 bf
       -0.0569814399004825 -0.002595993895092852
000600 dc 3a 5f a9 62 88 ca 3f d0 92 8b 72 f6 ab 85 3f
       0.20728715200535575 0.010581899042742121
000610 78 e9 45 26 9b b5 b7 3f 64 f6 9a e2 6c 1e ab 3f
       0.09261483845140173 0.052966501867086874
000620 9c fd 1d 9a 9a 08 c1 3f f1 59 0d cc bb dc ec 3f
       0.13307507062198176 0.9019450173753382
000630 20 ba 9b bc 8d 33 86 bf 42 70 3a 3e ae ab b5 3f
       -0.010840518301361846 0.08465088862652784
000640 b0 98 0a e1 84 6c d5 3f 00 69 0c 21 d9 5a 6a bf
       0.3347484777135703 -0.0032171479036949835
000650 c8 fa 7b 5e bb a4 d0 3f 67 37 46 91 0a bc ea 3f
       0.2600544378946492 0.8354542577160203
000660 8a e5 4a 2c ff ec ca 3f 7c 54 23 37 df a4 c5 3f
       0.21035756743166828 0.16909399215970555
000670 a0 f9 32 69 25 e8 d7 3f 0f 76 01 54 61 b2 e1 3f
       0.3735440757117434 0.5530249253021696
000680 3b 16 a5 3a cf 3d ea 3f 13 9a 82 6e e0 67 e2 3f
       0.8200451035888315 0.5751802595521575
000690 2f 35 c6 cc 90 3b d1 3f 44 ba fd ff 5c b4 cc 3f
       0.26926059720502143 0.22425425052229475
0006a0 7a aa 4c 32 81 3b d5 3f d6 d6 3e 17 5d c1 d8 3f
       0.33175687706049184 0.38680197973313335
0006b0 60 ba b8 56 4b 35 df 3f eb d2 4d 0e d8 0f e5 3f
       0.4876278254404607 0.6581840781569473
0006c0 68 49 3a 8f 79 f2 d7 3f c4 d6 4e 82 0a 82 d1 3f
       0.3741744898517454 0.27356207585704007
0006d0 b4 0b ad d4 0b 1e ab bf b8 0e a5 98 d4 fc d6 3f
       -0.05296360942022407 0.35918154627527654
0006e0 b3 59 f9 6b 79 c9 e8 3f 67 5c 42 5a 22 74 e9 3f
       0.7745940312259364 0.7954265368342818
0006f0 ce 88 c0 13 29 42 d7 3f c4 cd f4 de 34 d5 a0 3f
       0.3634131138698081 0.03287663671144572
000700 db 04 7b 1e fd db ed 3f ca e6 f5 6e 02 db cc 3f
       0.9331040950129607 0.22543363969798796
000710 b6 82 bb d1 a6 81 cc 3f 30 55 7d c3 cb 60 d0 3f
       0.22270665398447925 0.2559079560354176
000720 25 8c 42 a8 51 17 e2 3f 50 3d e1 e6 10 7e dd 3f
       0.5653465544058959 0.4608194594083743
000730 78 8c d4 9b a8 29 bd 3f d4 e9 a7 85 7e ef be 3f
       0.11391691021394645 0.12084189189037114
000740 2e 48 09 02 4c eb c0 3f a0 3f 93 e9 1c 2b d6 3f
       0.1321806917135872 0.3463814049728118
000750 30 9e fa c7 11 eb 98 3f 93 08 fb d5 c0 18 c2 bf
       0.02433421881747061 -0.1413804097010752
000760 80 6f 0b 07 b3 f2 e4 3f 3e 54 71 4b f1 1b d7 3f
       0.654626382598039 0.36108047835779533
000770 f0 ca d0 47 9b 65 83 bf 22 f5 0b 26 1d 8d ce 3f
       -0.009471142892015533 0.23868145330190155
000780 0f 2b 9a 0c e3 07 e2 3f d4 3e 63 15 89 f2 b4 bf
       0.5634627576958752 -0.08182579776916593
000790 6d 8f d3 96 ea 06 eb 3f db 4b 3a fb 8d 98 e6 3f
       0.8445942827060954 0.7061223894874006
0007a0 11 4f f6 8f ea e0 e0 3f 44 b4 3a ea f7 fd e4 3f
       0.5274555980454086 0.6560020041266701
0007b0 38 10 69 53 01 17 d3 3f 78 d0 b6 46 96 54 af bf
       0.29827912469432105 -0.061192222721190015
0007c0 05 33 69 57 83 60 ed 3f 84 6b 5f 75 91 d4 de 3f
       0.9180313784832782 0.48172413313084683
0007d0 1a f3 35 f2 00 f0 da 3f 1d 53 67 d0 3a d2 ea 3f
       0.4208986630763306 0.8381628103621527
0007e0 96 70 21 6b e4 13 e7 3f 2a 95 fe d5 67 37 b3 bf
       0.7211782543559078 -0.07506417250131805
0007f0 65 21 eb 6d 8e 84 ee 3f b6 0b 2c d3 7e 71 de 3f
       0.9536811968655853 0.47567721006651753
