Zenodo/Npy_zenodo/theta_N14N16_to_N20.npy (npy, 160128 bytes, 1 tensors)

array f8 [1000, 20, 1]
000000 8a ad c7 61 e2 20 e2 3f 36 af db c1 53 56 d9 3f
       0.5665141973271812 0.3958939927240296
000010 cc c2 d3 a0 a4 d8 bb 3f 81 6a 80 4a eb e9 eb 3f
       0.10877446104474159 0.8723045783147684
000020 20 93 94 2a f7 a6 78 bf 74 1a ba e2 eb bd ae 3f
       -0.0060186057028530915 0.06004273550666009
000030 c0 f3 fe 0b 84 43 8f 3f 56 73 ba b0 26 4b e9 3f
       0.01526549493416407 0.7904237224316641
000040 c8 59 b3 75 c1 3c e1 3f 52 a6 17 31 00 34 d5 3f
       0.5386664675559638 0.3312988738458432
000050 bb 1a 96 ce d4 b7 e0 3f d2 26 1e c2 32 0c e8 3f
       0.5224403414620932 0.7514890471804512
000060 c5 1b 94 70 26 c6 e8 3f d1 2b 48 9b 93 c9 e9 3f
       0.7741882513808994 0.8058565171098683
000070 32 d5 a5 5b eb 22 ea 3f e7 98 d1 2c da 2e ec 3f
       0.8167626180644787 0.8807192683568957
000080 1b 7e 1c 0f a6 6f ed 3f 69 8c c4 ce 70 bb d0 3f
       0.9198789878027499 0.26144046966709894
000090 81 b8 d2 71 ca 30 ed 3f 76 7c 42 72 9a 5a d0 3f
       0.9122059081180539 0.25552998693633044
0000a0 2e 44 3b 24 e6 79 b0 3f 96 f0 85 31 12 92 e7 3f
       0.06436003098066642 0.7365809409380002
0000b0 5b 48 3d 24 d5 69 ee 3f 07 57 b5 4c 48 c0 e3 3f
       0.9504190166283125 0.6172219751558438
0000c0 89 7c 03 cf 40 8c ec 3f 50 dc 16 34 b4 06 e8 3f
       0.8921207469210383 0.750818349587357
0000d0 76 4c 77 c4 29 c4 b9 bf af 84 3b 5e 3c 5a eb 3f
       -0.10064946218999346 0.8547651138761888
0000e0 a7 1c 62 6f 9b 63 c3 bf 46 ea 24 0e ba 23 e9 3f
       -0.1514772695411228 0.7856111789945508
0000f0 20 65 89 c5 71 9a ba 3f 85 17 45 c7 42 5a ea 3f
       0.10391913483308146 0.8235181705465356
000100 97 6f 03 ef fd 96 c2 bf 7a 19 0d 94 33 5e e5 3f
       -0.14523290796830388 0.667749203836862
000110 f6 4e 5c 2a 1f 8c b0 bf 04 e0 21 4d 5a f9 b9 3f
       -0.06463808807557911 0.10146107085336104
000120 65 e1 55 f8 fd 24 e6 3f 80 61 4b f2 e6 50 c1 3f
       0.6920156336118849 0.1352814372137452
000130 20 7c b3 1d b4 1c bc bf 31 82 2a a7 57 63 d0 3f
       -0.10981298184513877 0.25606337857064704
000140 6f f1 38 76 02 3c e5 3f 04 b5 1c 91 b8 51 a4 bf
       0.6635753926307596 -0.039685981477626725
000150 52 f1 85 b3 ca de ea 3f 14 3d 04 83 98 b5 bc 3f
       0.8396962648689998 0.11214593123098765
000160 ce 5e 43 e8 96 d3 bc bf 31 c6 f4 6c 12 53 b5 bf
       -0.1126035992668861 -0.0832988277441238
000170 7d 5e d7 39 5a d8 eb 3f 54 ce 1f a1 d3 70 dc 3f
       0.8701602105820282 0.4443863938788344
000180 85 fe 59 e7 71 46 bf bf 44 f6 0d 28 bb 8c c0 bf
       -0.12216865442496257 -0.12929477172649417
000190 28 f7 2d be 79 69 d7 3f ab ff a2 2d 96 84 e1 3f
       0.3658127171728318 0.5474348918287338
0001a0 75 76 b3 58 f2 6b e0 3f 26 33 32 65 a6 79 e7 3f
       0.5131770832483215 0.7335998512731734
0001b0 2b e0 c4 2d 0c 4f ee 3f 04 3d 21 28 19 24 aa 3f
       0.9471493619848891 0.051056657932912614
0001c0 80 67 98 df c2 4e cc 3f 02 5a b3 7d cb 1a e6 3f
       0.22115360181561172 0.6907708602037135
0001d0 a4 8c b3 03 d4 41 c7 3f 27 04 ca 39 45 48 ec 3f
       0.18169641667109204 0.883822071904551
0001e0 2a 3e 94 b9 1d 16 cf 3f bf fa 85 53 53 da eb 3f
       0.24286243020513726 0.8704010611835072
0001f0 80 c5 63 e4 a7 39 6e 3f 40 44 cd a0 76 42 d1 3f
       0.003689601816511512 0.26968160346320147
000200 f0 a3 1c ba f5 45 99 bf 04 a6 34 c8 8b 45 dd 3f
       -0.024680938228957616 0.45736975241979416
000210 58 88 25 e9 4c 73 c0 bf 12 f3 05 3e 6f 40 d4 3f
       -0.1285186899577322 0.31643277222592403
000220 44 26 f1 65 e2 99 ab 3f f8 9b ab 16 9d 1f be 3f
       0.05390841955575046 0.1176698856685191
000230 9c 8e 51 02 bd 57 e9 3f 9e 2b 46 46 8f a0 bd bf
       0.7919602437290965 -0.11573119607616753
000240 14 35 93 33 fd e8 cd 3f 7a 08 5b 13 3b 00 b6 3f
       0.23367276209175059 0.08594102118061811
000250 43 94 64 6b de 2a eb 3f a4 31 d6 97 fb ce c4 3f
       0.8489830110089617 0.16256661332989808
000260 4d 33 65 cc f8 7e ec 3f 30 4b a7 0a 54 36 e9 3f
       0.8904994957061746 0.7878818710399624
000270 52 aa 75 da b3 7b d2 3f 2b 5b d4 10 c9 58 d0 3f
       0.28880020460079436 0.2554190315581077
000280 fc 8e c5 c6 d7 83 d4 3f 93 96 92 65 c0 16 d4 3f
       0.32054705058384036 0.31388864440155223
000290 93 cb 4a a0 b4 e1 d0 3f 98 c2 df 34 bf 51 ab 3f
       0.2637759747842036 0.05335805435595836
0002a0 bf 7b fa 8c 18 f3 eb 3f 8a a3 d9 a0 6a 46 e6 3f
       0.8734247926221242 0.6960957662205243
0002b0 ab 7d 88 d0 0d cc e3 3f 83 46 d5 5e 8c db e6 3f
       0.6186589310563496 0.7143003322800755
0002c0 5d 41 ae 93 6c 87 ec 3f 7c 8d e0 07 58 ef cd 3f
       0.8915312656772972 0.2338666952574434
0002d0 b3 d1 84 e9 07 23 ed 3f 82 67 74 73 e6 23 c2 3f
       0.9105262337603136 0.14172058713375796
0002e0 c4 d7 dc 1f 26 e3 d3 3f 82 e8 23 17 0e 3a c2 3f
       0.3107390700491772 0.14239669923683002
0002f0 c0 e8 69 3c 8c 02 81 bf 28 fb b8 55 43 f4 c5 3f
       -0.008305640786819501 0.17151681600258795
000300 df bc 53 61 ae d1 d0 3f f2 5c ef 77 47 a4 c6 3f
       0.26279792313193967 0.17688840252115018
000310 1a f9 76 38 a7 30 e0 3f 02 83 27 26 1e 03 e5 3f
       0.5059391119791912 0.6566305871202476
000320 e8 0a 48 29 59 60 e7 3f 54 7c ef b5 c9 6b e5 3f
       0.7305112653997101 0.6694077065875583
000330 4b f5 a1 2c fb 7c e3 3f 24 36 95 1d b5 a2 a1 bf
       0.6090064880114964 -0.034444484578312534
000340 ea d2 3d b5 49 2b e0 3f 88 11 4b 33 16 d1 c7 3f
       0.5052841701386488 0.18606832031776954
000350 82 6a 5f aa db fd df 3f ed 3f 6c 06 76 85 e5 3f
       0.4998692668720325 0.6725416303106592
000360 8b e9 55 81 3c 0e d6 3f 2b 71 51 68 13 84 ec 3f
       0.34461891775540526 0.8911225354636704
000370 de 38 69 a4 84 03 d5 3f b1 09 77 d9 ac 1d ee 3f
       0.32833972984088955 0.9411224601138227
000380 5d 18 94 63 e3 7d e7 3f 26 d1 29 8b 43 79 d2 3f
       0.7341172165768161 0.288651357557017
000390 39 6b f1 c2 5e f7 b3 bf a4 11 a8 75 19 2e ac bf
       -0.07799331912376041 -0.05503921090351874
0003a0 82 ae fb 7e 40 b4 ce 3f d1 f7 cd 31 85 52 e4 3f
       0.23987585258815974 0.635073277735268
0003b0 11 1e 83 52 86 70 c0 bf 5e 37 ef 17 90 07 d8 3f
       -0.1284339812175266 0.3754616006598236
0003c0 e3 93 da 44 20 fc d2 3f e4 30 2c b4 86 64 c4 3f
       0.2966385528946473 0.15931781575671444
0003d0 ee 90 40 af ff b7 c7 3f 62 6e 3e 6c dd 34 e3 3f
       0.18530269677388084 0.6002032388818856
0003e0 52 bd 1d ca 3a bc d3 3f 5d ed e1 01 ca e7 d5 3f
       0.30836362588793975 0.34227228339996946
0003f0 88 ac ec ec dd 22 d1 3f a0 10 75 ea f3 40 dd 3f
       0.26775310647162387 0.4570894040700839
000400 8f cc ad f0 92 59 d3 3f e0 6e 79 b8 4d 56 d4 3f
       0.302342162168494 0.3177675534732156
000410 b7 4f 2e 95 d1 8b ea 3f 59 9d 8f 85 81 07 b3 bf
       0.8295677102746514 -0.07433328161970588
000420 9f dc da 9c a7 ee be bf 0b 55 ff 2f ca 22 c0 bf
       -0.12082908229318655 -0.12606170028326633
000430 77 77 51 0a 3d dc e6 3f 74 c7 34 ba e9 ea e7 3f
       0.7143845750358498 0.7474259030188777
000440 39 70 8f d6 6b 71 e1 3f 9d bd ea 64 bc 98 e4 3f
       0.5450953665381412 0.6436445208582203
000450 bc f4 14 ca 22 95 a2 bf cb e4 5d 11 6a 64 e7 3f
       -0.03629406658954212 0.7310076083369038
000460 50 2f f9 f4 fb 06 b9 bf 93 43 78 1a e3 c4 e1 3f
       -0.09776282053752294 0.5552840725887215
000470 0e 93 58 f4 d9 64 cc 3f 78 08 b0 da f9 a7 cb 3f
       0.22182774001080258 0.2160637204943361
000480 b8 60 bc cb 6e f5 cc 3f b6 49 11 99 b3 40 c7 3f
       0.22624001453437415 0.18166203474045312
000490 99 29 4c 59 0f ea e6 3f 4a 4c 88 f1 07 61 b6 3f
       0.7160717720119464 0.08741807600772336
0004a0 46 75 85 49 2b a2 d7 3f 49 1d 79 3c 76 28 e0 3f
       0.36927301578346705 0.5049391919246001
0004b0 10 fc 50 0f ed eb 99 bf e8 5f c5 5f e4 d9 a3 bf
       -0.0253140488241535 -0.03877175969199681
0004c0 b8 1e 59 43 14 31 c7 3f 6a 26 38 5d 2c 23 e1 3f
       0.1811852768753306 0.5355436154070052
0004d0 1c f5 63 87 7e 36 c9 3f 15 fe 38 c2 e5 4e e9 3f
       0.19697553263532874 0.7908810418520625
0004e0 e0 c5 dd 4f 24 58 cb 3f 9b 21 ab 43 74 2e e2 3f
       0.21362737560006817 0.5681706735277204
0004f0 4e dd 42 4a 1a f9 bf bf e4 ae be f0 03 8a ea 3f
       -0.12489475548760717 0.8293475820587131
000500 89 a6 7c 33 9a 16 ea 3f 89 59 3e 21 d5 94 ea 3f
       0.8152590756992179 0.8306680344856413
000510 fe 07 02 b9 91 e5 cc 3f 84 82 5b 57 8c 44 e8 3f
       0.22575589688864278 0.758367701168098
000520 ec 3f d3 c5 48 b8 e7 3f ee 95 0c c7 3b e2 cd 3f
       0.7412456382535288 0.23346659869382286
000530 f4 74 87 9d 01 73 d8 3f 20 50 54 ed 4f ce 95 bf
       0.38201942809776246 -0.021294831142839254
000540 04 2a 36 38 8d d8 e9 3f da f1 ce 36 99 30 df 3f
       0.8076845262415309 0.4873412165868821
000550 d9 ca ee 22 a6 a7 ed 3f 6d 3d 1c 4b 44 df e8 3f
       0.92671496222314 0.7772542445181166
000560 a0 7b 90 f5 82 96 ba 3f 04 e3 fc a6 8c cd de 3f
       0.10385912413810994 0.48129574115186835
000570 7c 21 5d 71 3e bf e3 3f 68 02 4e d5 f2 fd cb 3f
       0.6170952047478262 0.21868739524144876
000580 5e 3c 7f 2b b6 a6 e4 3f 55 5f 4a b7 e7 95 e4 3f
       0.6453505372572967 0.6432989673512376
000590 8e 5e 7c 76 57 47 cd 3f b9 fc 69 02 c7 2f e1 3f
       0.22873967442932436 0.5370821997784311
0005a0 17 50 55 c8 7e f6 e0 3f c6 10 bf 54 49 59 c5 3f
       0.5300897515066961 0.1667873061943565
0005b0 4f 9b 05 20 f4 af ec 3f 0b f2 de 6c 0a 84 ee 3f
       0.8964787125995403 0.9536182524094
0005c0 13 ee 13 22 ba 1e b2 bf 8c f0 6b f2 27 68 c6 3f
       -0.07078135807017132 0.17505359017366506
0005d0 c4 71 2f 5c 65 6e bc 3f d0 8f dc 02 52 d8 9c bf
       0.11105950832956696 -0.028168946671158157
0005e0 2e 76 dc 9a 6f ed b8 bf 32 00 29 1f 70 50 c8 3f
       -0.09737298517981038 0.18995477220050955
0005f0 86 55 96 f6 ef 34 df 3f a4 a7 46 06 7f bf be 3f
       0.4876060398176708 0.12010949996206804
000600 a2 75 87 27 23 9e d6 3f 7e 9a 97 ca 83 21 de 3f
       0.35340193615214777 0.47079558166880264
000610 87 14 88 64 84 b7 eb 3f a0 9f c0 b3 12 58 d8 3f
       0.8661519969470114 0.380375552691925
000620 52 d6 e1 79 29 ad c8 3f df 6f 9b 01 c2 ca ec 3f
       0.1927844853523078 0.8997507125272896
000630 66 ed 01 6e 7e bd ea 3f 4e db af 72 10 55 e2 3f
       0.8356315754494232 0.5728838195781039
000640 74 46 5a d8 d9 d0 ba 3f d2 37 90 a0 76 13 e2 3f
       0.10474931270644011 0.5648759017947163
000650 46 15 25 e0 59 63 df 3f fe 8b ed ed fc d4 db 3f
       0.4904389084734543 0.43487475619457416
000660 ca 8a 66 95 96 d5 df 3f e2 67 cd aa 76 57 c9 3f
       0.497411390208225 0.1979816755290918
000670 06 09 99 a0 4b 00 a4 bf 0c 04 46 9e 61 d9 c4 3f
       -0.03906475387022294 0.16288395145605283
000680 de 0d 48 ae 98 f1 e9 3f 49 c4 27 d5 49 16 d4 3f
       0.8107417491850659 0.31386037651015336
000690 7d 95 dd 76 c7 74 eb 3f ba da 07 2d cf a1 e9 3f
       0.8580052682488454 0.801002109480428
0006a0 3f 52 03 a9 1e 02 d1 3f 7f 30 3d 73 38 cf ed 3f
       0.2657543802754709 0.9315454722177633
0006b0 ac ac 75 cb 97 65 bb bf 68 0d f9 b3 2d 32 a4 3f
       -0.10701893536831858 0.03944533178266846
0006c0 c2 a2 26 e7 38 67 ca 3f 09 6e 9f b1 13 02 ed 3f
       0.20627509390512527 0.9065035313792019
0006d0 4b 20 df 82 d9 01 e1 3f ec 61 79 ba bb ed de 3f
       0.5314757877431558 0.48326008997312786
0006e0 40 6c 16 69 9f 66 6e bf 2d a3 6b 8b 95 a9 eb 3f
       -0.0037110436903282917 0.8644511912399132
0006f0 22 02 97 f1 a0 67 e4 3f 59 b5 e9 2f 66 b0 e7 3f
       0.6376499861290237 0.7402831016349111
000700 b8 66 ac 40 60 30 c4 3f d6 20 c3 19 11 d0 e3 3f
       0.1577263179577153 0.6191487792175632
000710 fd 84 9f 50 ee 2f e3 3f 1a b4 ac b3 1b a2 ea 3f
       0.5996009421034213 0.8322885998983367
000720 c2 e2 1d 68 f4 d4 de 3f 59 a0 54 c4 60 bd d2 3f
       0.48174772422457235 0.29280871556193727
000730 3e 63 0a 9e 6a e8 af bf fc 27 dc 67 f7 cd d5 3f
       -0.06232007197576771 0.3406961931474368
000740 90 c8 2c b2 b2 f9 91 3f 12 8f da ea 94 94 cb 3f
       0.01755408489697935 0.215471853899651
000750 c2 c0 81 00 88 7a de 3f 35 34 34 fa 31 f4 e4 3f
       0.47622871446129633 0.6548089873118729
000760 af bb b8 37 31 7d e4 3f 67 6e 17 17 ae a7 e1 3f
       0.6402822578728457 0.5517187548643506
000770 93 11 6a 8f e7 d1 e8 3f ba d9 d0 3c 3b af d7 3f
       0.7756231118260523 0.37007027567906514
000780 9a 65 ce 76 e0 d9 cf 3f d8 6f ca 08 57 03 ba 3f
       0.24883657265745002 0.10161346401804339
000790 22 bd 58 1d 49 34 be bf 1c b4 03 cd e3 b3 bb bf
       -0.11798531500311474 -0.10821365123020182
0007a0 de b2 60 60 f9 85 bd bf 12 5a fa 0e 5e 64 e7 3f
       -0.11532553294155032 0.7310018818414525
0007b0 33 b6 56 8d bf c0 e8 3f 70 cb 30 16 12 ac bb 3f
       0.7735288391610936 0.10809433976900862
0007c0 ed ed 98 d7 a1 88 c0 bf 40 19 d5 16 15 8d 85 3f
       -0.1291696837159714 0.010522999533929878
0007d0 cb 92 9d 31 58 0a e6 3f 96 4c c7 7a 29 c4 e5 3f
       0.6887627572110316 0.6801955602662868
0007e0 a5 98 c6 ac 6f e1 e7 3f 0b f0 0f 95 f4 4c b0 bf
       0.7462690710570042 -0.06367424620833632
0007f0 b2 8f 13 50 cc 1d e7 3f 1f 55 dd 7a a2 79 e6 3f
       0.7223874629967126 0.702347984285243
