Zenodo/Npy_zenodo/theta_N12N14_to_N35.npy (npy, 280128 bytes, 1 tensors)

array f8 [1000, 35, 1]
0.6783200437776257 0.07263177024964215 0.653687921083111 0.22020939415316393 0.2867786199168484 0.2554122482888893 0.10665094750787407 0.1285469601992144
0.2910304545335699 -0.011637631018127065 0.5643840824108659 0.36666089946536773 0.6639379103293669 0.6742654628805984 0.3558172945461303 0.07301432755022047
0.7601128080097884 0.9457977736825937 -0.019563454241515732 0.36632653829573747 0.6953495293056536 -0.032041054306228375 -0.0067507241768758885 -0.03792510763963246
0.8409573343787592 0.48260508303421346 0.9044299187149637 0.36509178629905625 0.3307385615192058 0.1921074021942376 0.8223527228610431 0.7070650244090809
0.19165318399272502 0.4255687705610687 0.8670709667665261 0.6644385947384861 0.6913902124272396 0.43498769338825416 0.65073549024792 0.495403913914888
-0.1126271169953793 0.9277834986749666 0.7340827067085077 0.6797827584036024 0.34294361637440174 -0.12396928283703988 0.12667964487037348 0.7962161545198846
0.49105571810303184 0.16945969493927182 0.8712753118792725 0.09577716002602193 0.2715862712022223 0.8831623207280913 0.18123227635081396 0.7473335062977273
0.9245693482830178 0.47792919848710114 -0.024381280777500708 0.33605467813860257 0.366773638686411 0.704228864652064 -0.03345582284461855 0.8262757937839118
0.5734633073850095 0.5165690918075051 -0.11180076405813921 -0.06014730196241802 0.5324620729501826 0.09337620530597698 0.2966554380865355 0.8912835694769995
0.5032662955631241 0.7046169739067223 0.7219506671581385 0.3982365417442819 0.5751507195174419 0.7984576388522425 0.133658599120618 0.8473468772797462
-0.005081888912772892 0.5591575587583156 0.5531809445934873 0.5596132018555078 0.5669874766795634 0.513280339273389 0.8171552191305288 0.743524161185886
0.24906265326235277 0.8738844743542212 0.918877646614178 0.2737251190048514 0.29437330023707237 0.7368285477387402 0.32851103132187587 0.20751447571690934
-0.12193925863260445 0.027846773691344667 0.29552775148869814 0.27517715957927813 0.4107697830513699 0.6723115513651651 -0.039527451474443864 0.32750619226902056
0.7586045670585205 0.6331446522161785 0.3252915004218386 0.4131172400623524 0.8576152031101777 0.2988000337718015 0.12365974941893726 0.7910459542904031
0.7723037225317316 0.2669159270506152 0.41221121686024376 0.3419510397983791 0.6667743556149199 0.08029993429202406 0.07604056571253848 -0.06844452839738674
0.8042438769306616 0.30953412067619895 -0.135424058321543 0.16491783323071607 0.07799189494974604 0.06344640662907566 0.3838470997742959 -0.15367400282945767
-0.13520767233227118 0.6903280959237152 0.6063792930352417 -0.12674030116149254 0.34662518789295504 -0.12491433538570627 0.06402259035434377 0.4537080814643628
0.571737668177997 0.6568222521331752 -0.06446834247976395 0.3126748866186011 0.7867246337258651 0.6947076589571198 0.28869518187120885 0.8642653398765195
0.7720791834352713 0.6261091141176115 0.10308594915329816 0.16272213494356336 -0.1029242565151714 0.5492797721262889 0.6157784820953254 0.6791809406622132
0.7971978150517187 0.5168599644180621 -0.05224255940747974 0.3235650739087867 0.2381055231930786 0.3904850623316294 0.09435322208193289 0.3007953231717305
0.27037461143315833 0.5719733836048527 0.47209475122318234 0.09762296519282487 0.6507694413741235 -0.0239478668095206 0.2666540685839557 0.32689708245528826
0.29479867362954953 0.909968041095306 -0.024434567959545517 0.8499822281755774 0.8196289065619803 0.44134874331893525 -0.05495656001372762 0.13705722502335688
0.34526467055147203 0.9319721067761914 0.4418291300126621 0.5306404403340881 0.4125671018138046 0.5860228351521584 0.2547581274538137 0.8786609844867906
0.49575881897975493 0.2611407843177118 0.8863174389583129 0.1556566897368693 0.7806670988419591 0.24845688675065725 -0.1252065644701598 0.29779212397217597
0.5958576009228156 0.4426498620811431 0.3374662864222923 0.5790531306137355 0.9532158887320065 -0.036151766810627 -0.1463465637671934 0.11096721167543827
0.44999416629390543 0.05247033630844403 0.7983146069169423 0.06703062478134156 0.3877194531771466 0.06984888114922172 0.26700816142568023 0.4839712728818667
0.8481798759219933 0.5961578913348542 0.8659005651463582 0.6863650109752701 0.4670315317839234 0.6520844325128311 0.1452167907494326 0.5313405014614854
0.6553229144165219 -0.14628566614145444 -0.03728408301000763 -0.11406772497071953 0.3074677956917562 0.04870770608960848 -0.10619191157660453 0.7795414700610408
0.015685425907872808 0.9219353445299733 0.05892673171454932 0.07130400863509997 -0.05884788809226729 -0.05398639153706622 -0.017074523575524525 0.08484382405857707
0.8847796927246668 0.09902111846845324 0.16983986362735726 -0.08306874767939702 0.7663210779897565 0.2076558161873442 0.8852178141502521 0.5405969104526849
-0.023333002720211132 0.24515018000200822 0.9062097367656 0.4414393486699606 0.6981201988047406 0.1983381532618349 0.2886130688271385 0.10896191818686563
0.5840764299887363 0.7946392988080259 -0.014365101120771134 0.814224114713965 0.843424071855171 0.917902371963179 0.4364360368398691 0.39825363099454947
00000000: cbe0 873c ccb4 e53f be6f dfe5 fe97 b23f
00000010: 3af3 5aee 02eb e43f be74 1449 d22f cc3f
00000020: 3e08 6fb6 945a d23f da82 599d ac58 d03f
00000030: 403c a2fb 794d bb3f c025 070f 3a74 c03f
00000040: 0e26 1733 3ea0 d23f 3094 0165 78d5 87bf
00000050: eecd 0a35 6f0f e23f a43e fb46 5f77 d73f
00000060: 050e 6eb7 fa3e e53f 849f fc29 9593 e53f
00000070: 2a51 dbe6 b5c5 d63f 84b6 f724 11b1 b23f
00000080: 5187 7518 d852 e83f 4b15 53b1 f943 ee3f
00000090: 800a a830 7108 94bf fcc5 68dd e471 d73f
000000a0: 4f04 f5a7 4d40 e63f fecc bf60 af67 a0bf
000000b0: 4023 06b9 a5a6 7bbf 56dd 0472 eb6a a3bf
000000c0: 939e 0f5b 1fe9 ea3f dcfa 206e 00e3 de3f
000000d0: 5df3 4c03 17f1 ec3f aa54 8cf0 a95d d73f
000000e0: 9411 5012 d22a d53f d433 dfb0 f996 c83f
000000f0: 15df 4ea8 b650 ea3f 2f70 7fd4 46a0 e63f
00000100: ac25 b66e 1788 c83f d48e f0cb 843c db3f
00000110: bd58 b29c 0bbf eb3f 8c43 53ba 1443 e53f
00000120: 99c8 e45d de1f e63f 34f6 509f d6d6 db3f
00000130: 53c3 1e3c d3d2 e43f 3cca 249e b2b4 df3f
00000140: b84e 2378 21d5 bcbf 657a 1205 67b0 ed3f
00000150: 11e9 3b04 9b7d e73f ef4c 77c5 c7c0 e53f
00000160: 38cd 2cc8 c9f2 d53f 8760 7e6f 73bc bfbf
00000170: 46c1 e4e1 0937 c03f 93b6 064d 9a7a e93f
00000180: 560b 71f6 746d df3f 348d e0f3 dab0 c53f
00000190: 79ad 4ac3 7ce1 eb3f 4cf9 031a da84 b83f
000001a0: dbca 3662 ab61 d13f 8dc5 92a0 dd42 ec3f
000001b0: 4404 f485 9e32 c73f b61e 18f5 27ea e73f
000001c0: 9b4e 3875 1296 ed3f d28e 5359 6496 de3f
000001d0: e8bb 4b0e 68f7 98bf 8a7a 117b eb81 d53f
000001e0: 065b cc23 3879 d73f ee8d d2f8 0a89 e63f
000001f0: aef1 f421 1f21 a1bf 2ce8 f8ee d970 ea3f
00000200: 6a96 d5b8 cf59 e23f 4701 6ee7 bb87 e03f
00000210: 482a 4c91 f99e bcbf d010 be8d a0cb aebf
00000220: 08ce b5e6 ed09 e13f 4e85 03c4 80e7 b73f
00000230: 42c8 3017 67fc d23f 19b5 cb1e 6585 ec3f
00000240: 0fed 13eb c11a e03f f258 64e5 388c e63f
00000250: 73a0 1849 381a e73f fc48 b71e b57c d93f
00000260: 2025 537b a267 e23f 8b93 c308 f78c e93f
00000270: 6eaf 0698 b91b c13f 7518 c932 771d eb3f
00000280: 408e ea2a bfd0 74bf 85b3 8564 9ee4 e13f
00000290: d194 3986 a8b3 e13f d622 0cf2 59e8 e13f
000002a0: b791 b2eb c224 e23f d97c dbe3 ca6c e03f
000002b0: 937b bdb3 2226 ea3f ea88 822e f3ca e73f
000002c0: 7859 35f7 48e1 cf3f 49ac ba92 dcf6 eb3f
000002d0: 8577 2718 7267 ed3f 060d 8e5c b684 d13f
000002e0: 395d 551c 03d7 d23f 8c81 6976 1994 e73f
000002f0: a6c5 f921 5306 d53f 864a 5397 d58f ca3f
00000300: ffee ec47 6937 bfbf 98b8 3659 dd83 9c3f
00000310: 7614 ed3a ede9 d23f 72f2 3fa9 809c d13f
00000320: 6400 1958 0d4a da3f dbc3 ba83 9383 e53f
00000330: 5801 c12e f13c a4bf 8c1b 4288 dcf5 d43f
00000340: 4b9a c315 7d46 e83f 28fc dc92 b842 e43f
00000350: d7a0 fe70 93d1 d43f 48d2 de4a 8370 da3f
00000360: b923 3d70 9571 eb3f 43fd 452d 8a1f d33f
00000370: ecfc 9553 2aa8 bf3f bcee e99a 3f50 e93f
00000380: 834a db4b b6b6 e83f c4b0 5d8a 2615 d13f
00000390: 1262 dd27 ab61 da3f 571a 319d 86e2 d53f
000003a0: 88ae 652c 3756 e53f aeba a757 898e b43f
000003b0: e099 e7fe 6477 b33f 4492 0ea3 9485 b1bf
000003c0: 359d ada7 5dbc e93f 9f39 5333 68cf d33f
000003d0: 6b93 ca56 9355 c1bf d465 200e 071c c53f
000003e0: b287 29de 46f7 b33f e245 8511 063e b03f
000003f0: b27b 0c6d f390 d83f 71ef 32f8 96ab c3bf
00000400: 05ee 6a29 7c4e c1bf e812 70f2 2a17 e63f
00000410: d7da 118c 7567 e33f 5272 49b4 0639 c0bf
00000420: 1216 7e69 1b2f d63f bf7e 48c9 62fa bfbf
00000430: c8f0 c6d3 c863 b03f 7c80 f49e 8d09 dd3f
00000440: cfe7 56cb ac4b e23f 444e 8619 b004 e53f
00000450: 27f2 934e ff80 b0bf 70ac 1387 dd02 d43f
00000460: e8ec 9923 d92c e93f b50c 708e 0b3b e63f
00000470: 4793 295b fb79 d23f 51c0 3ac9 0fa8 eb3f
00000480: 29dc 5867 dfb4 e83f 059b 1bfb 1509 e43f
00000490: 7860 4a3c d763 ba3f dc7d f533 14d4 c43f
000004a0: 74a1 b27b 3e59 babf 3360 342c b393 e13f
000004b0: 1ac2 4513 75b4 e33f 3dbe 06ab d9bb e53f
000004c0: 8cdf 02fe a482 e93f 9131 79e8 1d8a e03f
000004d0: d89a 3a68 89bf aabf 5b3a a448 4ab5 d43f
000004e0: 2e3d 8ee5 3d7a ce3f 9c9d 120f b5fd d83f
000004f0: 6a37 1d63 8827 b83f 46fd f306 3b40 d33f
00000500: 3a8b 7150 d14d d13f 617d 1820 9b4d e23f
00000510: 0c7a 47e7 cc36 de3f 907b d792 d1fd b83f
00000520: 8104 7e6f 1ad3 e43f d0fe 0523 ca85 98bf
00000530: a675 fa39 dc10 d13f ea68 93bd e1eb d43f
00000540: 6f28 8941 fbdd d23f d11a 1d4c 751e ed3f
00000550: 10d0 1c19 6005 99bf 0540 06ee 0d33 eb3f
00000560: 3b47 9166 663a ea3f a6df abcc 0e3f dc3f
00000570: 8053 eb27 4423 acbf 42f2 9355 178b c13f
00000580: fae5 1efd d018 d63f 2f6a ec2a b7d2 ed3f
00000590: dec4 f4af ed46 dc3f 3670 25a9 01fb e03f
000005a0: e087 6cd8 7f67 da3f cc01 f6f5 b2c0 e23f
000005b0: 237a 7308 f54d d03f af8a 14a4 fd1d ec3f
000005c0: 362f 8e32 83ba df3f 98f7 12d6 87b6 d03f
000005d0: ed69 c663 b65c ec3f 8c67 e9f3 8eec c33f
000005e0: 7adc 5291 39fb e83f acaf 876d 6fcd cf3f
000005f0: bd69 d2c9 c406 c0bf 41e1 5db2 060f d33f
00000600: 1c2b a1f5 4311 e33f 36ea 4d16 6054 dc3f
00000610: 93ec eb31 0c99 d53f b53c 546e 9a87 e23f
00000620: 9935 849b be80 ee3f 9adc 4900 7c82 a2bf
00000630: a68b a1f4 7bbb c2bf 6c06 13e1 5868 bc3f
00000640: 06e1 e754 b4cc dc3f 24e7 e854 64dd aa3f
00000650: 5b13 1413 cb8b e93f d62c 4445 eb28 b13f
00000660: 68ce da40 65d0 d83f 90b6 32c4 9de1 b13f
00000670: 1ba8 4566 a916 d13f 7eca 4ea5 62f9 de3f
00000680: c5ba 861f 4a24 eb3f fc22 d1b6 b913 e33f
00000690: 6187 1c1a 75b5 eb3f 2a3d 68c1 b3f6 e53f
000006a0: 769d cd38 d8e3 dd3f 4ff2 fb2b e0dd e43f
000006b0: 60a8 8cbb 7696 c23f 7c27 9acb bd00 e13f
000006c0: b7a0 b7c2 67f8 e43f 58be f91b 7db9 c2bf
000006d0: 20f0 603a e616 a3bf cb42 47dc 8a33 bdbf
000006e0: 746f c467 8dad d33f 0ca4 6f69 37f0 a83f
000006f0: cd3c 52a3 642f bbbf c036 f9f3 00f2 e83f
00000700: e04c 311d d70f 903f 1b0c 398d 7e80 ed3f
00000710: b0f7 2503 a52b ae3f 2e55 29c1 fa40 b23f
00000720: 7404 9775 4f21 aebf 2458 29b4 1aa4 abbf
00000730: 4019 68e1 fb7b 91bf fa62 9929 53b8 b53f
00000740: 1f5b 8d80 1d50 ec3f fc72 6fb1 7259 b93f
00000750: b015 eb09 50bd c53f a349 9a52 fe43 b5bf
00000760: 7072 06c8 b385 e83f 7ca6 ac3d 7794 ca3f
00000770: 0195 334f b453 ec3f 42d0 56e4 914c e13f
00000780: 6834 674e 9be4 97bf 32cb dbc2 1461 cf3f
00000790: 5f33 d78f abff ec3f 141f 6dd3 8a40 dc3f
000007a0: 5d63 d12b 0057 e63f c080 e704 2563 c93f
000007b0: 71e3 f3f2 a278 d23f 683c 1fa3 ede4 bb3f
000007c0: 5550 a50d c1b0 e23f 23e6 0f65 af6d e93f
000007d0: 30ba 233c 736b 8dbf faf3 09bb 1f0e ea3f
000007e0: 1dde a87a 54fd ea3f f715 90cb 745f ed3f
000007f0: 4a7a 416a 91ee db3f 40a1 28cc fc7c d93f
