Zenodo/Npy_zenodo/theta_N14N16_to_N54.npy (npy, 432128 bytes, 1 tensors)

array f8 [1000, 54, 1]
000000 82 06 a0 30 51 a4 df 3f c3 6e 1c 95 ed 95 eb 3f
       0.4944041228155599 0.8620517647099962
000010 20 8e fe 31 a8 e8 81 bf 00 40 85 ea e6 97 e3 3f
       -0.008744539285380049 0.612292726562373
000020 73 6f 6e a5 e1 e0 e6 3f 3b a1 73 66 6f c7 e9 3f
       0.7149513465005682 0.8055951119431833
000030 e8 ed 55 32 6f e2 ba 3f ce 08 74 93 a5 34 d1 3f
       0.10501761416337951 0.2688383045171009
000040 76 34 9c 1e a4 de d1 3f 4c d6 72 3a da cd e6 3f
       0.2792139338424201 0.7126284734319568
000050 af 18 ed 85 5d 4f e3 3f 40 0a 35 20 19 aa cf 3f
       0.6034381500001212 0.24737848351112923
000060 2e 62 74 b6 b2 01 c9 3f 0a 11 49 70 b2 15 ea 3f
       0.1953643217937197 0.815148562724546
000070 5e 76 ba 5e 23 51 e2 3f 9a 3c 9e 1b dc dd e3 3f
       0.5724045610583735 0.6208324946800474
000080 66 8a 66 d7 ff 38 b9 bf e8 46 ab f6 66 b4 a3 bf
       -0.09852599152376626 -0.038485734568565466
000090 b8 97 50 97 88 45 bd 3f b2 b3 27 4e 31 9d dd 3f
       0.11434224790772773 0.4627192748292216
0000a0 08 a4 12 14 9a ef b5 bf 8c 41 cb b6 8d e0 b1 bf
       -0.08568728437479944 -0.06983266556495077
0000b0 0b 91 0c 16 ca 55 e8 3f b0 2f ad 67 87 d1 d6 3f
       0.7604723387380842 0.3565386307207019
0000c0 4c 49 9f 69 60 fb af 3f 69 25 70 82 75 e7 eb 3f
       0.06246472634633679 0.8720042750948497
0000d0 24 90 78 de 20 d4 a8 bf d6 1b 9a ab 1c 1e e1 3f
       -0.04849341121396858 0.5349257804490388
0000e0 fa 5f d2 34 31 09 c7 3f f8 3e 46 51 34 2d e2 3f
       0.17996802405536966 0.5680181109800904
0000f0 9e 63 48 c1 15 82 e6 3f 38 ba cd c1 32 3a e8 3f
       0.7033795142225363 0.7571042809702879
000100 8d 6f 2f 5a b4 4f e9 3f 02 86 ac 48 c4 3d d5 3f
       0.7909795533591805 0.331894942255616
000110 19 00 c0 a2 92 10 ed 3f 60 5d 43 4d d2 48 9f 3f
       0.9082730463705985 0.030551229444282568
000120 aa c3 a7 8a 67 3f dc 3f cb a3 a1 d8 c0 bc e3 3f
       0.44136990109023577 0.6167911749918117
000130 48 2d ff c0 f1 0b b9 3f 65 a2 ce 02 24 46 e8 3f
       0.09783850633464397 0.7585620932414484
000140 00 83 5e 4c 07 ce 6e 3f 58 9d d0 93 4d 26 90 bf
       0.0037603514237648517 -0.015771114489465304
000150 f0 cc 81 ac c9 fd 96 3f 76 ad d2 22 11 95 d7 3f
       0.02245249858283399 0.36847332382850284
000160 85 f8 02 22 d2 bb d0 3f 1f 29 be 5c fb 48 e4 3f
       0.2614636737961365 0.6339089213736634
000170 8c 29 34 6d a8 e8 a3 bf 44 76 ae 41 f3 52 d8 3f
       -0.038884414034401876 0.380062879697878
000180 da f6 aa 5a 2d c1 e8 3f 88 5e 6a 32 09 de ba 3f
       0.7735811968666113 0.10495049935195244
000190 fe 15 5a f7 d6 d0 e8 3f e8 23 75 69 ac dd 9a bf
       0.7754931288806686 -0.026236242233867474
0001a0 8b a8 2e 1c 88 52 eb 3f 5a a7 12 1c 16 9d bb bf
       0.8538246679720641 -0.10786569772122104
0001b0 e6 3d 6d c6 76 b4 c3 3f 08 01 25 4f 7e 36 a5 3f
       0.15394482315831154 0.04143137661094626
0001c0 b0 8e 64 ab 62 32 ac 3f 98 d0 b6 85 ec d0 92 3f
       0.055071910306904726 0.018375106488477927
0001d0 56 90 12 ec e5 91 ae bf 5f a8 a0 94 60 68 e8 3f
       -0.05970686442131583 0.7627413657076082
0001e0 2d f3 4f 6e cd 2d e7 3f bf 02 48 57 d4 63 d0 3f
       0.7243411211526102 0.256093106494557
0001f0 26 73 c0 45 55 c5 e4 3f 99 07 e5 eb 4f 37 ee 3f
       0.6490885126437191 0.9442519767110183
000200 3a 7d 28 6a 5e 4e da 3f 61 9d e1 45 19 b9 e2 3f
       0.4110332524014272 0.5850950589055338
000210 00 19 60 c6 80 5a 4a 3f e1 35 07 fd db 4b e2 3f
       0.0008042458327970625 0.5717601720768323
000220 3a 74 a2 d7 28 f4 d9 3f 46 ad ba 09 4f eb d2 3f
       0.40552731569352185 0.2956121058475286
000230 20 24 14 60 a8 30 7e 3f 8e ba 97 ca 91 0f dd 3f
       0.007370622364086393 0.4540752867168657
000240 cd 67 1e 76 d3 3b eb 3f 1f ab 06 ff 74 87 e4 3f
       0.8510529810912374 0.6415352803208839
000250 1d 2e b6 93 a7 a7 e7 3f 68 03 35 0a ea f7 b9 3f
       0.7392156491272918 0.1014391207618367
000260 bc fa f3 ba b9 a3 e8 3f 45 17 87 61 31 c6 ec 3f
       0.7699860240389493 0.8991934685552471
000270 c6 f5 9d a7 d7 92 e4 3f cc ab 3e 21 ab e7 a7 3f
       0.6429250978250642 0.046689365204052174
000280 02 b6 21 9f b0 3e d6 3f 11 a6 fc 10 b8 cd e6 3f
       0.347576289560351 0.712612183740193
000290 c0 d5 d1 37 bf f5 e1 3f 02 b4 93 1b 46 1a b7 3f
       0.5612484064319503 0.0902446572615219
0002a0 94 ba 16 6f 82 43 bf 3f 08 9c df af 72 b2 94 bf
       0.12212386333588149 -0.02021197508284092
0002b0 ef 8d a7 87 0d 6b e1 3f 0e b3 71 35 79 e0 ab bf
       0.5443179749967707 -0.054446971677725484
0002c0 d2 d3 9d b3 9b 4b c9 3f fc 81 98 85 75 02 df 3f
       0.1976198794397122 0.4845250897069773
0002d0 80 6f f5 ea f2 19 e9 3f 54 21 5a 10 42 54 d6 3f
       0.7844175900495287 0.3488927039802736
0002e0 1e 62 43 03 f2 fa e8 3f 14 54 37 72 8e 83 c1 3f
       0.7806329787954984 0.1368272836395198
0002f0 22 a9 21 b2 6b 15 dc 3f ef 1b 8c bd 38 08 ed 3f
       0.43880741496708897 0.9072536184402206
000300 59 63 d0 81 f8 43 ee 3f ea 1f c9 4f 32 62 a3 bf
       0.9457972083501814 -0.03785855506845322
000310 77 d7 5f 72 b9 77 eb 3f f2 65 4b ba 48 56 c3 bf
       0.8583647951006544 -0.15107068153774567
000320 c7 f4 07 d8 3a a1 e9 3f 55 7a 68 75 99 ed b0 bf
       0.8009313792569167 -0.0661254798546705
000330 ce 3f a1 47 33 1f d2 3f 02 5f 47 de 19 7b d6 3f
       0.2831543159018083 0.35126349169648574
000340 fc a6 1d 91 a5 28 ce 3f 58 67 7c 95 0c fe e2 3f
       0.23561544023259973 0.5935118598601816
000350 16 85 b0 d4 1b 1e b0 bf 68 aa d0 4a 59 a7 de 3f
       -0.06295942251792427 0.47896416002428177
000360 e7 ce b2 09 66 79 c3 bf 84 09 8b 29 37 1d a1 3f
       -0.152142290816861 0.03342602140539255
000370 9d 8d 4b d4 2a 45 b2 bf 74 5a e7 74 86 30 e7 3f
       -0.07136790926920474 0.7246734889293536
000380 7a a5 9d f7 fb b9 c2 3f e6 a9 c7 af 9c fc de 3f
       0.14630078878989733 0.4841682163811626
000390 39 79 46 91 d2 33 ec 3f 40 48 54 8e dc 08 ca 3f
       0.8813259923370317 0.20339543294591245
0003a0 92 dc 41 3e 9d 01 e1 3f a0 7d e0 4a 00 27 be 3f
       0.5314470497095434 0.11778261020707825
0003b0 a6 4a 00 37 52 fa c7 3f b0 19 06 cc fa c1 cc 3f
       0.18732669530489438 0.22466978990651176
0003c0 dd 95 a5 88 15 73 d5 3f a6 09 a7 64 eb e2 cd 3f
       0.33514917702117747 0.23348753370926295
0003d0 27 c4 4f 44 2f 6f ee 3f dc 1b ad a7 86 aa e6 3f
       0.9510723432741813 0.7083161616254716
0003e0 5d c5 da f9 d5 44 bf bf 42 69 da 30 e5 9e c2 3f
       -0.12214410161938845 0.1454740990200865
0003f0 59 7e d3 f8 f8 9d b8 bf 80 0f d0 35 21 36 76 bf
       -0.09616046976906868 -0.005422715880744167
000400 0e c7 1e f6 96 3d d8 3f 36 bd 6b 8e 06 c6 b1 3f
       0.3787591365354367 0.0694278810221832
000410 36 ee d9 ec 3f 4b db 3f 1e 03 7c 67 0b 36 a4 bf
       0.4264678776741876 -0.03947482717740612
000420 de 70 16 81 cc 26 a3 bf f0 1a af 0c d6 6c 8d bf
       -0.03740538669373604 -0.014367744695744616
000430 2e b0 34 20 f1 9d b5 3f 74 a3 59 e8 73 eb e5 3f
       0.0844412521007036 0.6849917924965738
000440 20 37 29 31 05 42 e8 3f 0c 01 64 49 af cc a6 3f
       0.7580591163802843 0.044530370434587935
000450 6e 25 2e e7 f3 82 ba bf be 5a 9c 1a c1 a8 d8 3f
       -0.10356068033265384 0.38529994581896776
000460 f8 f3 1a 6e e2 06 e2 3f d8 3a 77 f3 49 3a c7 3f
       0.5633403921598292 0.18146633518195787
000470 b5 c6 3e ef 39 51 e1 3f 76 55 50 dc 4a 7c b1 3f
       0.5411653206594652 0.06830280188326818
000480 81 d4 1e 0c 46 0d ec 3f c3 49 2f 3c 8a 37 e0 3f
       0.8766203152396345 0.5067797828181074
000490 e0 b0 2c 7c bf 47 e4 3f 08 dd 5c 19 dd 77 cd 3f
       0.6337582993778845 0.23022044886031545
0004a0 20 99 c2 b1 99 b3 98 3f a1 1a c5 34 b6 2d e2 3f
       0.02412262103521201 0.5680800467169612
0004b0 42 28 3c 69 21 88 e0 3f 6c 8a 4c 0c c8 4f d8 3f
       0.516617494141663 0.3798694725138947
0004c0 ae fa cc 4b 27 e5 ce 3f fc 10 8c d9 b5 ef e7 3f
       0.24136820985036905 0.7480115174262489
0004d0 54 f4 21 7e 32 d8 d9 3f 86 2e 0c 17 00 cd b7 bf
       0.4038206321491249 -0.09297180712399652
0004e0 dc ce e4 25 bc b3 bb bf 90 43 83 96 84 d7 8a bf
       -0.10821128773823879 -0.01310638031319103
0004f0 b1 47 c2 fd e5 87 e2 3f b1 55 5d 94 29 f7 ec 3f
       0.5790891605595246 0.905171193861568
000500 5e 88 51 76 bc 7d e2 3f 77 00 a1 d9 e5 54 ed 3f
       0.5778486548335982 0.9166135073246683
000510 f8 b5 b9 35 6c 28 c5 3f 84 4d 94 00 73 de 9e bf
       0.16529610274612572 -0.030145451460226194
000520 34 2e af 17 2f cd c7 3f 52 ef d8 3b e8 75 df 3f
       0.18594921738109493 0.49157148212883783
000530 f8 3b be 23 de b1 d8 3f 14 2f aa 0f f4 9e af 3f
       0.38585618486916884 0.0617595929262206
000540 82 4d 33 a6 23 2b c9 3f 7d 66 fd ce a0 09 ee 3f
       0.19662900557760216 0.9386753123064434
000550 45 5b e3 f2 7d e6 ed 3f a7 4b 7e 1f 04 ea eb 3f
       0.9343862289341379 0.8723164191345533
000560 b6 79 35 9b 5a 0d be bf 34 fe 08 2b eb 77 bf 3f
       -0.11739126481322767 0.12292356300985646
000570 7c 3f a1 fd 67 51 e8 3f aa 74 be 7d e1 7a d6 3f
       0.7599372819622512 0.35125005035099355
000580 3d a9 bc 25 70 ac ec 3f e6 1b 7e c1 09 f8 dd 3f
       0.8960495698022793 0.4682640447212506
000590 4c e9 07 e5 3d 22 d4 3f 4f 5c 0a f5 92 20 ed 3f
       0.314589952147476 0.9102263246485424
0005a0 e9 35 c0 b3 0b e6 c1 bf 4d 87 36 fb 69 ef ec 3f
       -0.1398329379739345 0.904225340509791
0005b0 48 e0 16 83 7b c0 e4 3f b2 ec fb 5c a6 1a ac bf
       0.6484963951434191 -0.054890822268100506
0005c0 84 61 4a 62 5f 74 e2 3f f4 3d 2b 2d 61 a3 e9 3f
       0.5767056388604463 0.8011937982755044
0005d0 1c c7 af 07 7f 91 e9 3f a2 8f 4f 4f 18 f1 db 3f
       0.7990107679490595 0.4365902685660733
0005e0 29 74 a4 a5 6e fc e2 3f 68 85 8c 53 07 7f 99 3f
       0.5933144793704105 0.02489863822404939
0005f0 19 16 cc b6 de 99 e1 3f 57 e2 28 40 72 29 e2 3f
       0.5500329561479617 0.567559361755296
000600 28 db ac 5f 09 8d dc 3f f4 3d 6a ad dc fb e5 3f
       0.44610819190295325 0.6869948756229278
000610 c6 00 ce 31 05 ee c9 3f 69 d5 56 cc 35 7e b2 bf
       0.20257630283231814 -0.07223831404447413
000620 a8 69 2f f0 80 c8 c1 bf 0f e8 a8 28 fa 40 ea 3f
       -0.1389313862590147 0.8204317850243131
000630 bd fe 36 59 8d c3 e5 3f a0 aa 25 a9 1f e1 87 3f
       0.6801211111523667 0.01165985808321085
000640 4a d1 51 9d cc d8 dc 3f e9 fb a3 cb a7 1f ed 3f
       0.4507323776554314 0.910114190803026
000650 3d e3 cc a3 94 3f ee 3f 2e 1b cd fe 3d d3 d0 3f
       0.9452613066888272 0.26289319880418105
000660 84 5b 2c 6c 5c 65 e9 3f 12 c4 88 0b d3 2f ea 3f
       0.793623172069474 0.8183379388120804
000670 90 00 63 6c 42 d4 cc 3f 10 4c 5f c0 76 fa b6 3f
       0.22522764484711333 0.0897592754038643
000680 75 30 d7 df e9 e5 b0 bf e3 ac 79 5a eb 83 ee 3f
       -0.06600820269449222 0.9536034361930458
000690 f0 a8 72 b5 e2 7b a2 bf 0f 8a c2 fb 34 5c d5 3f
       -0.03610142197551791 0.33375286661080933
0006a0 d6 03 3b 6f b4 0d e1 3f 41 6a 96 d1 40 dd d4 3f
       0.5329229519339787 0.3260042235139374
0006b0 f6 4f 57 bd 20 eb d9 3f 00 ba 99 c8 34 65 a4 bf
       0.4049760674508883 -0.03983464192139152
0006c0 10 ec 3e 8d 91 a3 df 3f 98 ec a3 a3 51 8e dc 3f
       0.4943584327081121 0.44618645649433963
0006d0 0c c5 a5 13 92 d7 d6 3f e9 ad 0e 28 6a 09 ed 3f
       0.35690738600449445 0.9073992521638817
0006e0 c0 37 5d 3d 74 cf 92 3f ae 40 0e 48 67 e3 c2 3f
       0.018369499440545445 0.14756480234473685
0006f0 d2 fb 9c c0 40 26 e3 3f 48 9d 24 3c 55 44 ce 3f
       0.5984195482232002 0.23646035610839022
000700 ab 6a 66 c0 40 16 eb 3f 2a db 71 99 de e9 df 3f
       0.846466422826173 0.4986492632373706
000710 9f a5 2d 26 64 c8 b6 bf 0a e1 03 0e be 57 e8 3f
       -0.08899522716605766 0.7607107423528146
000720 00 b9 dc ad c3 e2 8d 3f 7f 58 98 8d fb 0c eb 3f
       0.014592674964287955 0.8453347936181358
000730 98 95 fa 42 5b 6b e1 3f 4f 93 a5 f1 87 2f d1 3f
       0.5443550403767174 0.2685260639030291
000740 d8 b2 57 e3 fc 82 d3 3f be 95 b7 91 25 ae dd 3f
       0.3048698635237037 0.46375407438457816
000750 3c b4 29 36 64 6e d8 3f 42 c3 8f 39 a4 a7 b6 3f
       0.3817377594885476 0.08849550633727879
000760 8e f3 02 87 af fb e3 3f c8 d8 90 f3 22 85 bf 3f
       0.6244733464187548 0.12312525221281867
000770 64 66 9e 32 5f 59 d9 3f 4c 28 2f 18 58 18 cf 3f
       0.3960798258136491 0.2429304235541302
000780 56 d2 24 85 e4 ba e3 3f b7 b9 d9 5b 8f ff e5 3f
       0.6165640449967877 0.6874462884859928
000790 54 e7 46 8b 70 a6 d3 3f a5 80 95 3b fb 8e e9 3f
       0.30703366853014313 0.7987037814855468
0007a0 9c 76 3f 35 b7 bc c1 3f 6c 13 7c 66 c5 b9 db 3f
       0.13857164478297512 0.433213567812621
0007b0 24 31 5a bb 1a 5e d7 3f 00 4e 66 12 e9 3f 84 3f
       0.3651186780559945 0.009887524484645915
0007c0 f7 91 f7 83 79 6e eb 3f 68 fd 4b 0c c6 40 b4 bf
       0.8572356774789672 -0.07911336708274563
0007d0 80 83 73 62 cc bb 7b bf ee e5 a6 97 9a ae e2 3f
       -0.006770895364042739 0.5838139497711248
0007e0 d4 2f a2 e5 34 bb ac 3f 56 d9 4c 10 75 8a d9 3f
       0.05611577323097064 0.399075761716991
0007f0 84 82 49 46 ca fb b7 bf b2 e3 69 21 d8 7d b2 3f
       -0.09368576255793398 0.0722327310158011
