Zenodo/Npy_zenodo/theta_N12N14_to_N40.npy (npy, 320128 bytes, 1 tensors)

array f8 [1000, 40, 1]
000000 18 bd b9 db 27 a4 e0 3f b4 ac bd cc 20 f1 d4 3f
       0.5200385371698841 0.3272172927306187
000010 16 b1 d2 64 fe 8a af bf b0 53 bc 55 6b db 87 bf
       -0.06160731297254267 -0.011648977807945687
000020 1c f2 7e 6e 28 45 ac 3f 52 cd 25 2f 21 5b d5 3f
       0.0552151331789654 0.33368711094154435
000030 a4 53 8b 19 1e 46 de 3f 70 6a e0 a8 f4 9c b3 bf
       0.47302963728480507 -0.07661370394672828
000040 00 c8 1e 22 e8 ed 50 bf 1e ba 81 06 83 4a de 3f
       -0.0010332838942130884 0.4732978404562419
000050 8c 1f 89 c9 22 4b e1 3f 1c e3 4f 87 6f 1a da 3f
       0.5404218612902567 0.4078635045439556
000060 9c df 28 47 9d 55 e9 3f 18 bf 9a 40 37 c0 e6 3f
       0.7917009725415372 0.7109638463789194
000070 31 ec 3b c1 b0 92 b1 bf da 55 f7 97 e3 a2 ad bf
       -0.068644568611419 -0.0578833697324332
000080 88 24 10 15 65 f0 ba 3f 4a c0 2d d7 4b ed e6 3f
       0.10523063434824753 0.7164668276509556
000090 a6 88 9d 75 63 ca d6 3f d3 6c 2d e8 18 a0 b3 bf
       0.35610281453967685 -0.07666164081949782
0000a0 b0 0c fd 1d ce 4f bd bf 21 a9 72 f2 86 0d e0 3f
       -0.11449897987499713 0.5016512618360914
0000b0 08 6e 62 5d ed a2 98 bf 18 68 06 ef 41 0c 95 bf
       -0.024059017967927004 -0.020554571355752754
0000c0 ee 5e 4d cf 92 4a ca 3f 1f 5f f8 21 80 12 e4 3f
       0.2054008018701476 0.6272583640556809
0000d0 10 90 66 0b 22 72 da 3f 4c 32 32 67 29 9c e5 3f
       0.41321612466185886 0.6753127112911641
0000e0 54 19 74 93 1a c5 c3 3f d3 4d a2 a0 87 2b ec 3f
       0.1544526309955453 0.8803136956579983
0000f0 22 56 bb a0 2c 32 d1 3f 53 37 3d 62 5c 32 ea 3f
       0.26868739792311847 0.8186475676281851
000100 00 d0 87 c8 ce 6a 74 bf fd fb 12 86 7b 04 e3 3f
       -0.004984672305443638 0.5942971819530382
000110 7f c0 13 41 3f f5 e7 3f 6c cf a8 a3 12 d4 b8 3f
       0.7486873885191158 0.09698597426978289
000120 6c b5 77 52 a2 70 c5 3f b6 ba 2e cd 62 90 e8 3f
       0.1674998190568816 0.7676252372237602
000130 5c 62 82 e6 fb 36 d6 3f d8 c6 4a e2 c9 a5 93 3f
       0.34710595617938167 0.019187120854161716
000140 d5 55 4e d9 4f ab d3 3f 20 d7 f3 e3 47 c4 b4 bf
       0.3073310491684798 -0.08112000766035665
000150 04 fe c0 e5 5d 2c a6 3f 63 d2 8c 01 6e 9c e7 3f
       0.04330724172222847 0.7378454237246611
000160 f2 30 2d 40 2c ff e7 3f b6 53 1a bd 1d 7f b5 3f
       0.7498990300605597 0.0839708887745719
000170 90 37 19 f1 5b 49 e7 3f 2b 60 d5 1a db 93 e8 3f
       0.7277049740748556 0.7680488132564326
000180 16 00 90 80 89 01 c7 3f b5 e2 29 d4 aa 5a ed 3f
       0.17973440911737332 0.9173177856274238
000190 97 82 73 af bf a7 d3 3f 80 2e ed e2 a3 d9 77 bf
       0.3071135724440323 -0.0058227922261938625
0001a0 4b f5 44 78 95 93 e2 3f e9 1b 54 ec 3a 39 c2 bf
       0.5805156086932269 -0.14237152614097617
0001b0 95 d5 b9 4e a6 a8 e8 3f 12 10 a0 5f 4d f0 c0 bf
       0.7705871141067059 -0.1323334423942702
0001c0 41 b9 58 44 d5 b0 e0 3f 53 0e d8 3a 2b 37 ee 3f
       0.5215860686201169 0.9442344807907354
0001d0 32 bb 30 22 74 4d bf bf 73 bf eb 1d 12 27 e7 3f
       -0.12227559885716913 0.7235193809883483
0001e0 67 5a f1 04 13 29 ee 3f b6 9a 26 92 72 e0 e1 3f
       0.9425139519251616 0.5586483816631105
0001f0 b2 3e 41 3b 3c 34 da 3f 00 eb 81 95 ca a5 8a bf
       0.4094381884251376 -0.013011534392935342
000200 92 78 b0 76 c3 cc e7 3f f8 ec 1f 62 32 37 e7 3f
       0.7437455480719726 0.7254878918169245
000210 c7 23 64 56 33 15 ec 3f d6 90 72 50 b5 0e e6 3f
       0.8775879561736638 0.6892954417458224
000220 76 7e 1c e3 44 c4 e0 3f e0 35 31 f3 42 40 e1 3f
       0.5239586292045277 0.5390944242332658
000230 c0 f7 a4 8f 39 f6 bb 3f 23 3b 43 bb 41 4d ed 3f
       0.10922584301894656 0.915680757281596
000240 00 c9 81 a5 d6 d7 e7 3f e1 c7 aa de 6f 4b c0 bf
       0.7450974686201164 -0.12730215427796934
000250 43 da 13 42 f7 8e d2 3f d6 33 8d 0c a7 21 c1 bf
       0.2899759431160513 -0.13383949387426125
000260 60 99 76 43 47 f1 dd 3f e5 ad e6 49 a9 97 e5 3f
       0.4678514632054398 0.6747633403187449
000270 d9 e5 1d cb db 83 ee 3f be 02 19 2c fd 3b b5 3f
       0.9535960166096472 0.0829466087971111
000280 70 ae dc d1 de d8 88 bf 77 d1 25 70 4f 3b c1 bf
       -0.012132397441369153 -0.13462250686610464
000290 be 26 8b 74 7d d2 da 3f fa 66 45 d7 e7 19 c0 3f
       0.41909729367453596 0.12579057704242996
0002a0 80 41 a8 af e0 8e 9e bf 40 9b 7f 75 81 ab e3 3f
       -0.029841910096423785 0.6146857542888498
0002b0 4a b8 1c 99 13 b9 a0 bf 38 d6 16 d3 54 04 a5 3f
       -0.032662022057011145 0.04104867054722344
0002c0 2e d1 39 36 20 af b1 bf 46 b3 e1 d5 07 24 e4 3f
       -0.06907845806000942 0.6293982674957099
0002d0 76 4f 9b b2 c6 70 e5 3f 77 f8 8c 3d 54 67 b9 bf
       0.6700166214381926 -0.09923292639447988
0002e0 ac 37 81 14 62 02 ad 3f 7c f9 e9 d0 42 e1 ab 3f
       0.05665880680372423 0.054452980043595084
0002f0 c1 3c 3b 8d f9 ea ea 3f 43 a4 f7 a3 2c 41 ee 3f
       0.8411834486413668 0.9454558565604504
000300 c1 49 a3 9b 44 6a ec 3f 74 f7 0f 63 04 43 df 3f
       0.8879721679498332 0.4884654014020875
000310 6f 6b 0b 6f 96 07 ec 3f 2d 62 ba 9a 4f 8a d5 3f
       0.875926224597931 0.33656683073198473
000320 5b b8 5b 07 d0 38 ea 3f 8f f3 98 b2 5e ff eb 3f
       0.8194351333347741 0.8749230850440756
000330 59 31 a2 ef 5c aa e7 3f 30 50 50 6f 12 d8 8e bf
       0.739546268495853 -0.015060562154793983
000340 6d 78 37 d9 1e bc e2 3f 3c 8c c0 16 16 c9 b0 3f
       0.5854639284623439 0.06556833320114291
000350 a0 8a 01 d8 e0 76 c3 3f 3f 67 aa 9e 0b 3f b5 bf
       0.1520653776852514 -0.08299324630425263
000360 d6 9d d8 e2 f9 e6 d8 3f 92 b9 f2 c3 02 4a db 3f
       0.38909766343064456 0.42639226089058824
000370 01 d9 f8 77 58 f0 e7 3f a8 16 43 96 50 5b bb 3f
       0.7480890601352997 0.10686210316188272
000380 ec 84 17 b3 ff 4b b6 3f 1d e8 e8 9c 77 93 e6 3f
       0.08709715006218105 0.7055013718265887
000390 b4 bc dc 86 32 f8 d4 3f d5 4e 13 b9 08 d7 e7 3f
       0.32764876527921705 0.744999276614602
0003a0 fa 41 ec 2f 3d 85 c6 3f 30 07 b2 8a 58 4c 91 bf
       0.1759411319731184 -0.016892798867508663
0003b0 5c 45 f8 cc 70 9b de 3f 7c 86 fa e1 1b fb ad 3f
       0.478237342992619 0.05855643399742136
0003c0 44 0d 4e 94 9b e2 c5 3f 20 ff b3 8d 2f 33 da 3f
       0.17097801915597632 0.40937413061327454
0003d0 42 f6 d4 c5 ce 94 d8 3f 1e 2f 1c 11 89 85 c9 3f
       0.38408250159759316 0.19938767753080183
0003e0 4a a1 24 38 e9 c4 e3 3f cc 09 00 7e 5b 9d a6 bf
       0.6177869888825083 -0.04416929162109148
0003f0 08 1c cb a0 93 0e bd bf d4 38 20 77 ca c9 ea 3f
       -0.11350367236728698 0.8371326758076756
000400 a7 f5 98 17 6d a9 e3 3f b6 ce 6c ae 05 18 e6 3f
       0.61443190201651 0.6904323965777255
000410 dd ba bf 44 8e 88 e2 3f ba fd 1d fe a0 e3 e1 3f
       0.5791694014313539 0.5590367282128945
000420 ba c3 b4 4e 77 05 de 3f 90 5a 98 2a a5 d8 a9 bf
       0.46908362089294153 -0.050480996560669955
000430 72 4f 1e 4c 0b f5 b2 3f b0 5d f1 1f 7b f8 b2 3f
       0.07405157669410103 0.0741040184960784
000440 23 c7 23 6f 8c b1 ea 3f 1f 09 5e b3 35 22 eb 3f
       0.8341734095285783 0.8479259970920657
000450 80 70 7a 02 d2 c1 62 bf 12 27 d9 45 38 cd c4 3f
       -0.0022896863700463954 0.16251281176146698
000460 6a ca fd 78 4b 7d cb 3f 14 75 1f 97 b9 7b bf bf
       0.21476119430333834 -0.12298164310000842
000470 d6 8b 2e 52 7d c4 ea 3f 9e 13 20 5c 9c 8f aa bf
       0.836485538970346 -0.0518769133050576
000480 16 3f 9d e2 2c 91 ea 3f a8 de 75 08 2a de 96 3f
       0.830221598249383 0.022331864134200657
000490 ee 48 ca 21 79 10 d7 3f dc 2e 27 cc af 7c e4 3f
       0.36038044261762436 0.6402205455173902
0004a0 16 c3 b2 53 47 9d e8 3f f3 9e a5 50 c1 e9 e8 3f
       0.7691990504009449 0.7785345626006958
0004b0 d8 12 cd be b6 45 b2 3f 6b 54 1c 95 49 1f ea 3f
       0.07137624891499728 0.8163192665403022
0004c0 8d 18 eb 04 57 24 e3 3f 06 16 5b 24 06 0f c1 3f
       0.5981860252438921 0.13327099585710317
0004d0 8c db fb 39 70 18 b9 3f 80 a5 4c 5e 21 39 e3 3f
       0.09802915015812469 0.6007239190850413
0004e0 5c 2d 23 a9 e2 1e dc 3f c9 fe 74 23 e9 18 d2 3f
       0.4393850948078659 0.28277042830084703
0004f0 99 fe db f9 cd cd e0 3f 58 03 b2 73 d8 05 d7 3f
       0.5251226310792446 0.35973178194403976
000500 6d a5 67 d3 65 7a d5 3f b4 80 0d ce 9a a4 d1 3f
       0.33559556622511516 0.2756716739877547
000510 37 28 ff 64 93 aa ea 3f 9e 8c a5 e5 d6 c6 c6 3f
       0.833322236308283 0.17794309819428106
000520 54 d9 d7 36 33 4f bd bf 68 ca f4 e1 a8 ef de 3f
       -0.11448974694198927 0.48337766710316155
000530 00 0b 20 6c 69 0b ea 3f ca 37 16 a7 6b 06 e5 3f
       0.8138930427379307 0.6570337546743243
000540 dd 09 79 ee a6 6e ec 3f fc 23 76 f4 ed d3 a1 3f
       0.8885073335334784 0.03482001885556227
000550 f4 1d d2 a9 23 bd c3 3f b3 dd 8a 43 a8 ff eb 3f
       0.15420957366971744 0.8749581641376863
000560 d7 3d 20 25 02 ac eb 3f 8e cc 0c 76 55 e0 c2 3f
       0.8647471165767752 0.14747112526092504
000570 7a 31 5c 6e 9e be e9 3f 96 23 1b 19 c9 5a e7 3f
       0.8045189052077568 0.7298322191573898
000580 76 08 f7 6d 5a 06 c7 3f 58 c3 c7 c4 cb 1e de 3f
       0.1798813855112404 0.470629636925016
000590 05 ff 9a d6 1a 43 d4 3f 2f ad 8d 6b 8f d1 c2 bf
       0.3165957542187104 -0.14702027083999655
0005a0 6e a8 f2 27 75 f1 b5 3f f7 91 de 49 fd ec eb 3f
       0.08571560120859242 0.8726793711435324
0005b0 e0 81 73 75 d0 28 ce 3f ed 29 05 29 d9 a5 ed 3f
       0.23562055334970378 0.9264951516318526
0005c0 21 d2 3c 4a 34 3a b3 bf 98 b9 fc fc f1 40 a7 3f
       -0.07510687649193716 0.04541736806128255
0005d0 2e aa ee 2b 9d 16 e6 3f 5e 94 c4 9a 40 b4 c6 3f
       0.690260492139094 0.17737586552644563
0005e0 97 61 4e 26 6b 11 e8 3f 38 9c f5 b6 30 f1 b3 3f
       0.7521262882392418 0.07789902178557007
0005f0 41 12 36 3e b4 66 ed 3f 2b 49 98 8e 30 16 e3 3f
       0.9187871184408963 0.5964587006622301
000600 39 a9 5c 2c 8c ad ec 3f 38 b4 7c 15 66 a2 d5 3f
       0.8961850038952327 0.33803703401901286
000610 6c d9 d3 77 41 1e d7 3f 08 2e 23 43 c7 a5 96 bf
       0.36122166349323126 -0.022116769287817944
000620 2e 00 8b 02 a7 05 eb 3f fe 01 05 ac 39 7a df 3f
       0.8444399881045734 0.4918350391272098
000630 05 fe fe 5f e4 3b e2 3f 64 a7 ad 87 26 6e db 3f
       0.5698110461161724 0.42859805345380253
000640 99 67 75 1d 51 93 e2 3f 14 6a 1d f6 e1 47 a4 3f
       0.5804830146182552 0.03961092118580126
000650 84 47 1b 3d 06 29 df 3f 1e 12 f2 8d 0e f7 cd 3f
       0.4868789288276434 0.2341020768254944
000660 96 46 6a aa 50 ae a9 bf 80 49 9c 1b f5 b2 e9 3f
       -0.05015804367316183 0.8030953921573172
000670 14 e0 91 8e 2e 70 c1 bf d2 1c ce ce 83 b6 e3 3f
       -0.13623601876656777 0.6160296477472917
000680 fb 06 40 4d 25 1e e7 3f 3a d2 85 7e cd 11 db 3f
       0.7224298962393897 0.4229615912984489
000690 c9 6e 54 92 ae 0a e9 3f 7c ca d8 22 44 fc e3 3f
       0.7825539453510483 0.6245442085840547
0006a0 28 db 88 94 40 22 d5 3f 98 f9 43 2a 1b 03 b4 3f
       0.33021559243518306 0.07817239553330635
0006b0 d0 47 88 8e a0 80 bb 3f 95 65 2e c4 3a aa e4 3f
       0.10743144492906187 0.6457799750962062
0006c0 fc 27 59 5b d4 4f bc bf 85 87 43 d2 e9 8a e5 3f
       -0.11059310178930554 0.6732071978296835
0006d0 a8 35 b3 64 4e c1 ab 3f 0c 33 ca aa 23 27 d7 3f
       0.05420918444870476 0.3617638748044534
0006e0 98 82 a5 23 73 cb e9 3f db 06 f3 f2 d3 55 e7 3f
       0.8060851761075183 0.7292270417312595
0006f0 28 d4 11 56 5d 02 e7 3f 23 65 ca a0 ea 07 e1 3f
       0.7190386467979168 0.5322163715783613
000700 38 84 a9 ee 51 5c a9 bf ad 03 cc ea dd 9b ea 3f
       -0.04953247106892217 0.8315267167928276
000710 e6 b8 dd ab bc c4 cc 3f ba d7 b2 61 07 e3 da 3f
       0.22475393669032612 0.42010674038771934
000720 ed 77 d5 1d 20 4d e2 3f a3 91 17 39 34 2f eb 3f
       0.5719147284214593 0.8495122065619863
000730 51 03 8b d4 e1 b7 eb 3f 36 1c 06 77 a3 06 cb 3f
       0.8661965514403197 0.21114009200775435
000740 59 f8 ea 15 8c 44 b1 bf a0 da 88 b5 cf 01 cf 3f
       -0.06745219740966614 0.242242778434691
000750 5f a1 f4 2a dc 09 e8 3f e4 3e bf 2a 72 d1 a9 bf
       0.751203616998321 -0.050426070898195424
000760 b0 e1 c6 cb 4b 25 ae bf 36 9e 77 db 50 96 de 3f
       -0.058878296494586535 0.47792455131863976
000770 20 5b 2e 59 39 31 e6 3f fc 49 69 8a 84 df e9 3f
       0.6935087911432198 0.8085348800034917
000780 3e 08 44 45 a6 8e d1 3f a4 d1 17 56 a7 d0 db 3f
       0.2743316341803882 0.43461020858310406
000790 42 2c 34 fa b7 ba da 3f 38 8b e7 d1 a9 04 d8 3f
       0.4176464026829231 0.3752846288536378
0007a0 de ea 2e fc f2 e4 e2 3f f6 d6 1d 94 c8 21 d9 3f
       0.5904478955702321 0.3926869818163675
0007b0 e5 3a 36 31 42 8e d1 3f 7a b4 6b b9 b3 be b5 bf
       0.27430777364581466 -0.08494113232491599
0007c0 42 97 24 99 25 d3 c0 bf f0 73 68 78 d4 d1 c3 3f
       -0.1314436910408237 0.15484100226686293
0007d0 8f 74 74 b9 32 43 e2 3f fe ed b9 8f 19 cc cd 3f
       0.5707028982320866 0.23279113309750693
0007e0 1d b6 6e 09 a7 52 e7 3f fb a3 e0 6a 8b 43 e0 3f
       0.7288394149997576 0.5082451903773512
0007f0 17 f5 6f 2c 13 e1 e5 3f d8 4c b0 37 4c 9a c0 3f
       0.6837249629894896 0.1297087928693148
