Zenodo/Npy_zenodo/theta_N14N16_to_N58.npy (npy, 464128 bytes, 1 tensors)

array f8 [1000, 58, 1]
0.267430356181536 0.37492928906365186 0.691808887898588 -0.040427043254335715 -0.024922335674335744 0.16001968200887512 -0.056010194322369894 0.2626524872934178
0.595978604087197 0.7919685616054026 -0.06546946398179088 0.8492403777817451 0.3611278090370077 0.8844895361910167 0.5083125567981225 0.8779725481177297
0.13521898787450126 0.14630435297960964 0.7204052960623689 0.7603361148301703 0.10298243437143595 0.5274489186650715 0.12594566459609852 0.2563700136783949
0.7049174306287489 0.9151221506242665 0.7494043709728327 0.07429652353788102 -0.035444653201809395 0.07106489217604006 -0.0815062880831212 0.19992821188417204
-0.08846180681718771 -0.12255193275451018 0.6985937945237561 0.9487031630508637 0.04379327286479079 0.7859704202137782 0.381026686537947 0.13285247018435348
0.2271822016720617 0.2750074097420999 0.9001513740349204 -0.002104877500482605 0.10492257759043278 0.2422772242780552 -0.11416658497863469 0.7425160337375845
0.6172773762208883 0.8432068159407918 0.09426843558339909 0.5334519396081071 0.3511544684171052 -0.07875280125954903 0.30566967991478255 0.21853059636335304
0.6070896255961533 0.0841160115353308 0.27119170237618334 0.9429056274780306 0.7210365277788521 0.6056334503059908 0.6732750427764397 0.17219218466191955
0.6137813718982829 -0.12470025606936394 -0.12499105454792983 0.19653860465312756 -0.14648819445425823 0.342798883775242 0.8669359537719478 0.050939866112662796
0.06715511509244348 0.29015869775871356 0.06197477598385287 -0.02943639772630778 0.032165033174145624 0.21095773759268915 0.13477836862756876 -0.00047859456671567324
0.6629980670289443 -0.10921917943539397 0.015066598965993688 0.7324251387287575 0.6272514273991754 0.24536530199242196 0.5210737000794439 0.5141716155661437
0.7399151860095603 0.6849194443067366 0.8546571074580326 0.7801435042717678 0.18651501395237474 0.6228843331685464 0.21333466495175324 0.16836214827585483
0.3147909580569923 0.8557900198139924 0.6001461654523191 0.061866521646867484 0.6406379439273473 0.7993055585963297 0.8235114232109194 0.3830800376834552
0.4586596241077826 -0.015897768351541525 0.5861443399052596 0.24245747219043917 0.3339247851921295 0.8006264766012638 0.229878923546807 0.8262592887843757
0.7073264476725191 0.568983434489013 0.4130517513901346 0.48843775658955624 0.4329193139444869 -0.13519302536714087 -0.07685934008496972 0.7790148769546904
-0.0029508582092627467 0.7937578740492593 0.6036166314736903 -0.06724000277648338 0.2521032178487012 0.3283654851172781 0.42960485294570805 0.7657839462089362
0.6959550396882721 0.3572623100808917 0.45128899525999067 -0.06615014575880175 0.40424462835668196 0.45991439674545653 -0.05494780868054659 -0.14901249168270736
0.16338047051674087 0.8966545233811464 -0.10550215736319067 0.5346397259825479 0.17148065270149565 0.1830880324508401 -0.052233147671607555 0.14822424596313133
0.4840912772531002 0.1277431568238182 0.01306789994336574 -0.138366807444129 0.8385258186588282 0.09210343027436582 0.09902960556872614 0.07176649012655462
-0.1076183918033651 0.929272239785104 0.38544874780057903 0.05676572166331148 0.1868725848154637 0.6607837220320821 0.7808577977377734 0.6180778626078753
0.8687532699558626 0.07803883286665905 0.2232707983664758 0.3527211191290631 -0.06099473849562863 0.42915213548785325 0.7138653762425163 0.22207003048162993
-0.1325875248637559 -0.06369337036394869 0.9233131019932607 0.7228263350095515 0.0481921401012827 0.3134650053306572 -0.046048210596651554 0.15840783742919518
0.5300074701883108 -0.03618043338945062 -0.08768712271406037 0.5809192597859283 0.2650337439681662 0.5516822328317122 0.07647444680752644 0.6207832752447199
0.3592257955709022 0.5390137917979574 0.33094786759599154 0.5373904389044674 0.19111718740564204 0.17848489007046342 -0.03836038188330004 0.2784012675274895
0.6802408129693993 0.9282686607877982 0.524116732064729 0.9474531704245602 0.7150980075306049 0.033959908540960204 0.07904400375422393 0.7688271190787472
0.9437758635727714 -0.14045184455572177 0.3888873431928537 0.042374407033648365 0.15569958761361608 0.6226170512982984 -0.11569628627819348 0.34561545372462693
0.3171348597392267 0.8902172677624013 0.059461970160586936 0.13088274987024118 0.08232649156822669 0.509879372318883 0.7590536076233915 0.8311003240653282
0.7895724077279908 0.08858681813338473 0.014617145307040669 -0.08236014687965958 0.9110936850936925 0.21511053549165188 -0.14764783204953574 0.5584679647689317
0.16817673006943074 0.24090115983705573 -0.13555662319885933 0.899840463306392 0.7408735294443025 0.13768588079282607 0.24354894978097147 0.1499836961314303
0.49032562284895964 0.25830805501250154 0.5032066402965183 0.6753564622594226 0.277607646289991 0.6653834664065095 0.8286666390027576 0.8990169748517846
0.9509668271409238 0.28000896398877845 0.895611839025029 0.6556619737601178 0.7493072768453767 -0.11723355287293297 -0.02960438966277623 0.5355834528186615
0.5633293624458122 0.7414719962311427 0.539963097143131 -0.13075865276179927 0.010745425931302094 0.18632483867552646 0.5932164121883311 0.2648884371127579
00000000: 1278 7036 941d d13f 8ed1 b56a d7fe d73f
00000010: fc68 9364 4c23 e63f a87d 4d79 dab2 a4bf
00000020: 3813 a5a2 3d85 99bf 5ae3 7862 867b c43f
00000030: c4e0 b641 5ead acbf a9d9 c860 4ccf d03f
00000040: a272 b5b8 4112 e33f 8ec5 f173 ce57 e93f
00000050: b83d b056 9bc2 b0bf 2d7d 2028 fa2c eb3f
00000060: 7e5d 5fd0 b71c d73f 2b07 f3ff bc4d ec3f
00000070: b102 f3b1 1844 e03f 2972 9ee2 5918 ec3f
00000080: dc0e 5c15 db4e c13f 9ca9 a7dd 19ba c23f
00000090: 917f 4e68 8f0d e73f 9b39 6567 ac54 e83f
000000a0: 9812 b08b 0e5d ba3f f643 ff8d dce0 e03f
000000b0: 76b1 41cf fc1e c03f 311f 1bc6 5d68 d03f
000000c0: 52c9 ddff ae8e e63f 5bd8 983f ae48 ed3f
000000d0: 3dd9 19e0 1efb e73f c43b cdd2 1805 b33f
000000e0: 28c1 a334 cd25 a2bf 2834 ca0b 4f31 b23f
000000f0: 8f40 bc99 98dd b4bf 368e cb65 3f97 c93f
00000100: 7692 39d7 6ea5 b6bf a201 3e3f 905f bfbf
00000110: e260 955f e15a e63f 7149 5dbc c65b ee3f
00000120: c868 7a65 126c a63f 3721 4e70 ab26 e93f
00000130: c45b 65c1 bd62 d83f 023b 514b 4f01 c13f
00000140: 9017 356f 4e14 cd3f daff bfad b899 d13f
00000150: 07be 1d41 0ace ec3f 0064 da80 3f3e 61bf
00000160: 10e9 5cbf 34dc ba3f fc81 6ba9 f002 cf3f
00000170: 547c c774 053a bdbf e812 35fc b0c2 e73f
00000180: acbd ed7b bcc0 e33f 195c 47dc 8cfb ea3f
00000190: 3c33 e0e7 f921 b83f c758 53cd 0912 e13f
000001a0: de86 6c97 5079 d63f 7cce e0c1 2429 b4bf
000001b0: c637 a78f 1790 d33f 482a 4782 cff8 cb3f
000001c0: c4a4 f538 476d e33f 823c 9d7e a088 b53f
000001d0: d7be 2971 345b d13f a570 276c 482c ee3f
000001e0: 9502 4132 bb12 e73f 20b1 cd66 5961 e33f
000001f0: 8902 3e1a 788b e53f 64f7 dfbc 640a c63f
00000200: f54e e6d4 18a4 e33f 0ee9 9e21 5bec bfbf
00000210: e26e 93eb 69ff bfbf f47d b14f 2d28 c93f
00000220: 312f 370a 20c0 c2bf c7e0 baba 6af0 d53f
00000230: abaa 2578 f0bd eb3f 6473 0846 ca14 aa3f
00000240: f4c6 14df 1331 b13f 0b83 61c9 f591 d23f
00000250: 381e 0e68 28bb af3f 5ca8 2f36 9324 9ebf
00000260: 3c8c 1d6b ef77 a03f 6e3d e6c3 a900 cb3f
00000270: 9058 bbe6 6a40 c13f 0024 1803 7c5d 3fbf
00000280: c16a e6b8 4737 e53f 7a5e c5c3 c9f5 bbbf
00000290: f02e 91ae 3cdb 8e3f 0077 33d8 0670 e73f
000002a0: 948f e195 7112 e43f 06b8 d055 2168 cf3f
000002b0: 9ab3 94c0 a2ac e03f 156b 2c08 1874 e03f
000002c0: b631 b79c 62ad e73f 4424 b62e dcea e53f
000002d0: 4b70 badc 5959 eb3f 2d17 a182 eff6 e83f
000002e0: 2eb8 9156 b9df c73f 23ca 0420 abee e33f
000002f0: 2c13 89e0 8c4e cb3f 2053 5d10 e48c c53f
00000300: 409a 7bf9 8825 d43f 6b04 6bc0 a162 eb3f
00000310: 2100 2ebb 6534 e33f a492 61fe f7ac af3f
00000320: 14d4 3725 1b80 e43f f9d4 3540 e993 e93f
00000330: 9758 d2a0 345a ea3f f274 6622 6284 d83f
00000340: 1678 62e5 ad5a dd3f 38d6 982c 8147 90bf
00000350: 791d 54c6 b1c1 e23f 3248 ddb0 d808 cf3f
00000360: 5d56 ee0f 065f d53f 6a0d aa6a bb9e e93f
00000370: 162c 562d ac6c cd3f 2b0b eb51 b770 ea3f
00000380: ab2d 0b13 6ba2 e63f 0013 63bf 1c35 e23f
00000390: 74ac f19c 706f da3f 9ac2 ab6f 9042 df3f
000003a0: 68b1 cc35 f3b4 db3f 8db1 4c4b 014e c1bf
000003b0: 3e9d 0ec0 0dad b3bf 81c5 739b b0ed e83f
000003c0: c015 20f0 652c 68bf 637d bfe9 7666 e93f
000003d0: b309 70d3 d350 e33f 1b6f e80c a436 b1bf
000003e0: 2719 f888 7522 d03f 47b0 edaa f003 d53f
000003f0: 7eb3 665a a57e db3f 529d 9855 4d81 e83f
00000400: 0252 de80 4345 e63f 8a03 79bc 62dd d63f
00000410: 4eed eb3c ebe1 dc3f 39e1 a848 37ef b0bf
00000420: 360a 98dc 24df d93f b2cd 3ecb 3c6f dd3f
00000430: de24 8a82 1e22 acbf 7081 3c61 d712 c3bf
00000440: d455 d6b8 a6e9 c43f 9170 b7d3 64b1 ec3f
00000450: 0f48 887b 3002 bbbf 2699 47c5 c41b e13f
00000460: caf4 9ff9 13f3 c53f 062a d5bb 6d6f c73f
00000470: fc8b 089a 4dbe aabf 7865 7118 03f9 c23f
00000480: 062e 05fb 59fb de3f f44c 6c44 e359 c03f
00000490: 70c0 12d7 57c3 8a3f 0488 69e8 00b6 c1bf
000004a0: aeb8 ff18 34d5 ea3f a6b8 e024 1794 b73f
000004b0: a4e2 4015 015a b93f 7cd1 0ae8 495f b23f
000004c0: 725a 3e01 e18c bbbf 69a5 de22 99bc ed3f
000004d0: e09b 8539 31ab d83f 5cd0 278c 6510 ad3f
000004e0: 5e94 26dc 70eb c73f 1d6c 7be7 2325 e53f
000004f0: bd87 037e c9fc e83f 7809 c939 4bc7 e33f
00000500: 951c 58a8 d3cc eb3f a2f5 fa5a 5afa b33f
00000510: ac62 9134 2394 cc3f 6424 d199 fb92 d63f
00000520: 3e33 22ce b33a afbf f272 bb84 3a77 db3f
00000530: bfaa 9633 fcd7 e63f ba8f 2b6f ca6c cc3f
00000540: 9cde 92c5 a0f8 c0bf a567 af6e 354e b0bf
00000550: 93f0 20eb c78b ed3f cbb6 b1b1 6421 e73f
00000560: 708a 51e3 a3ac a83f 197b 9586 cf0f d43f
00000570: c297 1a8d a193 a7bf 0c20 9840 b546 c43f
00000580: 1006 e339 d2f5 e03f 1c5a 53e4 3d86 a2bf
00000590: 9454 56cc a972 b6bf f6b4 ccfc e396 e23f
000005a0: 6380 ab17 50f6 d03f 9d7c 797f 61a7 e13f
000005b0: ce9c 0450 d493 b33f 098e 22e3 74dd e33f
000005c0: a4d2 f630 8efd d63f 8eaf fbd9 993f e13f
000005d0: bf5d 00f7 3f2e d53f 85e3 086f 4d32 e13f
000005e0: 962c ce2a 8776 c83f d865 d7c6 97d8 c63f
000005f0: 803b 4dd3 f8a3 a3bf 4e83 cc8c 53d1 d13f
00000600: ec74 a361 88c4 e53f ab87 7f7a 60b4 ed3f
00000610: 1724 f073 90c5 e03f 49e1 ae4f 8951 ee3f
00000620: 31eb 7837 15e2 e63f 90fd 1d71 3163 a13f
00000630: 30bd 1153 3a3c b43f 6413 9754 3b9a e83f
00000640: 2393 9970 6933 ee3f 3bcd 8377 53fa c1bf
00000650: 58dd 35bd 87e3 d83f 1038 cb28 19b2 a53f
00000660: aa8c 66ce f6ed c33f bb42 2898 7aec e33f
00000670: e65f d595 459e bdbf 8b53 af47 901e d63f
00000680: 0019 c002 f04b d43f b7f7 6bec a87c ec3f
00000690: dc11 64a2 cc71 ae3f 60d0 2615 c4c0 c03f
000006a0: a044 e154 5913 b53f b077 a08b ee50 e03f
000006b0: b1e7 94ca 2a4a e83f 5dc7 f1b4 5f98 ea3f
000006c0: 9980 a05a 2d44 e93f 9655 bd2e a0ad b63f
000006d0: 60dc 6f08 98ef 8d3f 6386 57f9 8d15 b5bf
000006e0: 9b39 a2f1 ad27 ed3f ba18 7bf5 bd88 cb3f
000006f0: f630 fdc8 1fe6 c2bf d07a 9135 f8de e13f
00000700: a657 cca9 d086 c53f a4c8 8865 d9d5 ce3f
00000710: 0d99 b25f eb59 c1bf 1397 303a 7ecb ec3f
00000720: 92ee 6d67 3cb5 e73f 7025 90e1 b09f c13f
00000730: d667 24ab 9c2c cf3f 3aaa e86e aa32 c33f
00000740: 34bc a1b8 7e61 df3f ae9c 2482 1e88 d03f
00000750: be83 e6cf 441a e03f c07c d127 859c e53f
00000760: d0d7 7bdc 52c4 d13f 7a7b 7044 d24a e53f
00000770: d9b2 39e6 6f84 ea3f 4f31 313f bfc4 ec3f
00000780: 3fd6 c4fb 516e ee3f 15cb bab7 aaeb d13f
00000790: bbbb d028 daa8 ec3f fdf9 d0d1 2efb e43f
000007a0: 2f95 1641 53fa e73f 4448 95a3 0403 bebf
000007b0: 80bc adf5 9c50 9ebf 2f51 c4e8 7f23 e13f
000007c0: f699 924c cb06 e23f 90cd d67a 23ba e73f
000007d0: 0fda 68b0 6047 e13f 1af6 a314 b3bc c0bf
000007e0: b0fa a6a7 b201 863f 469d 4508 7ed9 c73f
000007f0: 2d94 39fc a0fb e23f e638 9fa1 eef3 d03f
