Zenodo/Npy_zenodo/theta_N14N16_to_N34.npy (npy, 272128 bytes, 1 tensors)

array f8 [1000, 34, 1]
0.6110053491355733 0.6806389293623204 -0.038309721602561145 0.5309700990785341 -0.05988875823005091 -0.05307598646425894 0.8724040184128127 -0.0726116634500092
0.21210773695276897 0.29324229581785943 0.6388387484296992 0.7759999745361674 0.7129587141319274 -0.11008165792231905 0.6099394327114799 0.7857546429606322
0.7858275065382048 0.027694696116915885 0.7972016205155396 0.5339211842709876 0.6083478006499499 0.23660788068050997 0.8752132448694897 0.2480740057622497
-0.02229074850744739 0.02215415307443558 0.5614402162653094 0.37410672031179604 -0.0716490251350212 0.8119397738271795 0.7180335194652531 0.6957783397533391
0.7338810563818947 0.8207548618027123 0.5312158458828308 0.8424832306476914 0.8090149358383933 -0.08070289425084849 -0.02849987540146362 0.8413419678158229
0.3469631437254409 -0.10442483261900215 0.220315127587785 0.7311856329223927 0.5269785881926892 -0.00795845985876803 0.554872138583438 0.4033216315340442
0.36758876738057 -0.13565013530985004 0.28153108434524343 0.1472350979522778 0.2595991894758784 0.772626981578156 0.7242940376586398 -0.06838198119378773
0.11094814395227232 0.5566227316383624 0.2894250894269834 0.6640672324224846 0.006393005228406884 0.29925609943151993 0.5491510757454149 0.2140499232101018
-0.05730494457862993 0.5332875103233695 0.9345251770792345 -0.05731126527568607 0.7591909597219879 0.6256341424888181 -0.15239869892780966 0.7206768405476095
-0.12608312014755874 0.5324569145764976 -0.02572408573612564 0.6954742935756726 0.7532844251360094 0.8616914285515541 0.6294503252111737 0.3537239243002688
0.6892818318273343 -0.06201207003332275 0.48382426650903354 0.2022727266935218 0.6263063142045557 0.20428094420658027 0.8065694014930656 0.44911213867370114
0.44492799201639943 0.8779828634296264 0.809593200930419 0.8775538747892068 0.3676268521465834 0.14257938611560667 0.051463322518261384 0.4543747993945908
-0.1332668677761571 0.3080954588625219 0.43465216772108883 0.4291781757431342 -0.08652338291840045 0.025592497033466055 0.37664623351923965 0.669209763392009
0.6966397093082787 0.9015337471665238 -0.10280605106258449 0.2921688033613961 0.3342452720680156 0.929444682493393 -0.10952673126013948 -0.08445229422022625
-0.04453369931581638 0.09744441665166004 0.21135045557859344 0.3825728971213622 0.8457549397950114 0.02343011408064377 0.3120535941909661 -0.12736498956270895
-0.08461947471607711 -0.14679020564098985 0.345007515766777 0.857675430383697 0.8376078446593975 0.535838652869898 0.2788251376269585 0.4929444749841657
0.34553341841230867 -0.13839947851952453 0.931368528059011 0.2274504906675574 0.3564841419554263 -0.12850517345864002 -0.06542975650096618 0.31220959834915296
0.8307610992481884 0.4482643899683757 0.2215449875789292 -0.12223544977038428 -0.08404175612539139 0.6303711395918312 0.2418841441419154 0.38271429951018454
-0.13402929984553646 0.5937717275667185 0.23062228469623697 0.6606487113083501 0.8915404553714091 0.6650084559256297 0.41089234607036185 0.9392591812834487
0.0689772532046915 -0.04846887958283219 0.632667899717037 0.3529891078964641 0.3873165519516564 0.6011410512244213 0.6748491360344975 0.9141825866329841
-0.09247403003034971 0.6653151640452765 0.635248909801261 0.7894407329577078 -0.1344256235705021 0.0855649484756405 0.85385598477737 0.7785413032972351
0.8650426167775523 0.8803539913694699 0.8863975884791618 -0.08182382044878063 0.24871938900490004 0.3838612292399085 0.6792665974047526 0.08500355408959098
0.2593881903644356 0.6217583632969468 0.41125939957165025 0.5195881896292606 -0.03164493895215452 0.5344647414639273 0.15789582462120327 0.35464443527305256
0.9024680495434992 0.923006875001611 0.7307834461669901 0.7687941494749468 -0.08914025945869031 0.7452049931722863 0.14686695099971275 0.7194178227642248
0.7689436895988716 0.017315810356663158 0.6851064105860736 0.31551521106070435 0.25351342517250186 0.535407936035978 -0.029373878377471865 -0.09946814743625168
0.12548502547770135 0.9101941516998949 0.417301425279613 0.5340539117268283 0.579587784722496 0.5922961739443525 0.47040403311003565 0.15489404521723493
-0.045793788768856925 -0.07619823343025982 0.3304820134030702 0.36438886214472666 0.3841192652006262 -0.010414548162429621 0.16287728805444235 0.08532284576280189
-0.026644598264818492 0.5660839451660936 0.048454009535007725 -0.1511146842861499 -0.12377451669973555 0.18219429101248913 0.2937131472436669 0.7602650017576043
0.5159683588645912 0.7260245512917122 0.5057372989023582 0.4316334983811053 0.0792705784667807 0.6986754478084672 0.3347010821937503 0.690485831106778
0.25176033364619266 0.6103752788222312 0.8182803147311949 0.043958184144301526 0.3255954565607511 0.07918872096382629 0.5783216877181162 0.8442952620220116
0.6029782897796778 0.4301538164062686 0.7849698808569007 0.3802721828015714 0.14944571331898437 0.34916181986679884 0.6209588740423856 0.7571794461624474
-0.04925226417751326 0.9173344782489578 0.41443362702941233 -0.03451030356404562 0.2533988384112949 0.7343504334811588 0.4642221965135437 0.025549851673922652
00000000: b7fc 0617 5b8d e33f 1fdc bf4a cbc7 e53f
00000010: 3ac1 cdf2 549d a3bf 2347 5601 b5fd e03f
00000020: 6003 fe43 bda9 aebf c244 2294 c62c abbf
00000030: a56c ffd4 bbea eb3f 5571 d38f ad96 b2bf
00000040: 4c69 b8a8 5826 cb3f d2dd 9555 7bc4 d23f
00000050: 478a 7df5 5d71 e43f ac8c 0ae6 fdd4 e83f
00000060: f008 13cb 8ed0 e63f 2873 aac0 4f2e bcbf
00000070: d12b 81b3 9f84 e33f 3946 c6eb e624 e93f
00000080: 421f 1cba 7f25 e93f 6016 6198 ff5b 9c3f
00000090: 97d6 0df9 ac82 e93f 43bc 22e1 e115 e13f
000000a0: 6e52 8cce 9577 e33f 1cd4 bfc2 2a49 ce3f
000000b0: 29b2 f734 bf01 ec3f 3048 de96 e3c0 cf3f
000000c0: 6013 5fcf 62d3 96bf 407c b30b 94af 963f
000000d0: f498 f078 51f7 e13f acfd 3c50 5df1 d73f
000000e0: 4cc5 be2b 9757 b2bf 9519 dd1e 69fb e93f
000000f0: 0f1f 716e 21fa e63f 412f d0ef d043 e63f
00000100: ae0d 0a20 f47b e73f 8438 2fb3 9f43 ea3f
00000110: 27e1 a55f b8ff e03f a5ed 6164 9ff5 ea3f
00000120: 94d8 6c4a 73e3 e93f 1dfc 7fe3 f1a8 b4bf
00000130: 484e 2843 122f 9dbf 08ae 90fd 45ec ea3f
00000140: 9ef5 cde6 a434 d63f c827 fdf8 95bb babf
00000150: 7edc e63d 4933 cc3f 989d 9669 df65 e73f
00000160: f25a 3f33 02dd e03f 603b 8f66 864c 80bf
00000170: a3ad 1537 83c1 e13f 3851 4d88 05d0 d93f
00000180: 2cb2 9109 9386 d73f b048 6dcf fb5c c1bf
00000190: c87e 04f4 9a04 d23f 46a2 4385 99d8 c23f
000001a0: 037d 37eb 459d d03f fd54 3c38 5cb9 e83f
000001b0: 14d0 8db0 6a2d e73f ebed dc44 7b81 b1bf
000001c0: 5cb0 d3f9 1867 bc3f 391a 9379 dacf e13f
000001d0: ecc4 6ecf f085 d23f 9431 b3ec 0940 e53f
000001e0: e00e 1146 8d2f 7a3f 35f6 0b0e 0327 d33f
000001f0: 0b79 dc46 a592 e13f 8e08 f3e5 fc65 cb3f
00000200: 9686 badd 1257 adbf 4588 06f8 b010 e13f
00000210: 6701 1b58 a1e7 ed3f ee57 1af4 e657 adbf
00000220: e497 edd6 4a4b e83f ea03 a8e4 3105 e43f
00000230: c087 ecf1 cc81 c3bf f15e a4e0 c80f e73f
00000240: 7842 cede 7d23 c0bf ed52 5415 e309 e13f
00000250: 881b d32b 6a57 9abf 0cb8 434e 5341 e63f
00000260: 4473 51f0 e71a e83f 13eb 1be7 f992 eb3f
00000270: 3fa2 2702 7524 e43f 00ad abab 69a3 d63f
00000280: a79c adc5 980e e63f 2e32 80c9 0bc0 afbf
00000290: 1cb8 6a0e faf6 de3f f8bd 029d 12e4 c93f
000002a0: 042e 198a b30a e43f 0019 48c3 e025 ca3f
000002b0: 8cbe 2ba2 6acf e93f 3cc5 f5d6 40be dc3f
000002c0: be43 b241 b379 dc3f 251e 9c84 6f18 ec3f
000002d0: 64ec 2100 30e8 e93f bd53 16dd eb14 ec3f
000002e0: d676 c6c6 3287 d73f 02a3 3994 0a40 c23f
000002f0: 34a1 518e 6659 aa3f 5caf e109 7a14 dd3f
00000300: f295 5e83 e30e c1bf ce14 f703 d6b7 d33f
00000310: 68d8 5f53 57d1 db3f 2251 3ebd a777 db3f
00000320: f04b f97b 6526 b6bf 9079 2067 eb34 9a3f
00000330: 121c c8cd f81a d83f abd7 fd97 2a6a e53f
00000340: 3d5e 125c df4a e63f f741 0a4d 5dd9 ec3f
00000350: 7b0b 2553 7f51 babf 4d50 d6c7 e4b2 d23f
00000360: e4fb 1748 4664 d53f db01 58c6 02be ed3f
00000370: 0ad2 cca0 f109 bcbf a77f bf61 aa9e b5bf
00000380: 8c3d 43fc 1ecd a6bf 7859 b206 1ef2 b83f
00000390: 9035 5a1f 880d cb3f e838 5e08 137c d83f
000003a0: 6333 dba9 6c10 eb3f e024 df56 10fe 973f
000003b0: ac90 69a3 aff8 d33f 39e2 69f8 7e4d c0bf
000003c0: c09f 8234 9fa9 b5bf 03f3 4c7e 05ca c2bf
000003d0: b6eb 4567 9a14 d63f 1f95 82be 1372 eb3f
000003e0: d6ec 75f7 aecd ea3f fa48 401a 9725 e13f
000003f0: 6645 da63 45d8 d13f a641 b3fb 668c df3f
00000400: 7c61 f032 381d d63f 0d2d 03f9 12b7 c1bf
00000410: 0330 115f c5cd ed3f 002b 7001 191d cd3f
00000420: 746f cfdc a2d0 d63f c192 af86 db72 c0bf
00000430: 595d 5b28 01c0 b0bf c60a 9af7 3dfb d33f
00000440: 5aeb 014d 9895 ea3f 3e09 b81f 5db0 dc3f
00000450: d642 1f0e 965b cc3f 7af7 2c8b d24a bfbf
00000460: 2c95 0eb2 c283 b5bf 0c74 9c18 002c e43f
00000470: 4c57 4144 0ff6 ce3f 0ee6 061e 647e d83f
00000480: f46b c541 df27 c1bf 0208 e690 2d00 e33f
00000490: cae3 3ff1 0785 cd3f 58d8 26c4 0824 e53f
000004a0: 6132 5cd9 7f87 ec3f fe72 38d0 bf47 e53f
000004b0: 7a21 2369 0f4c da3f 9190 4245 690e ee3f
000004c0: 909b ae46 7ea8 b13f 9032 5db9 e9d0 a8bf
000004d0: 1470 50c0 d03e e43f 1e9c 90a0 5f97 d63f
000004e0: 043d f55c cbc9 d83f a857 6928 8c3c e33f
000004f0: 9010 2037 5d98 e53f cf29 05d7 fb40 ed3f
00000500: 30ad b5c6 60ac b7bf 4f6f e306 434a e53f
00000510: 7250 8d85 f553 e43f 40e0 4536 1943 e93f
00000520: 3f67 7ddc db34 c1bf 6405 639f 95e7 b53f
00000530: 0f9b 43c9 c952 eb3f 21e6 8773 cfe9 e83f
00000540: 4f96 96da 6dae eb3f d3b7 3a22 dc2b ec3f
00000550: 37ae b879 5e5d ec3f 6d7d dce8 67f2 b4bf
00000560: 6a1d d474 09d6 cf3f c26a 72b0 2e91 d83f
00000570: a9cb a34d 8dbc e53f 9cca dbfc cac2 b53f
00000580: 2e5e a5ec d099 d03f f6fe 8bcb 71e5 e33f
00000590: 284d d5f1 1252 da3f 810e 3b69 77a0 e03f
000005a0: a64f c4f3 c333 a0bf 377c 2ecd 551a e13f
000005b0: 8225 762d ee35 c43f 8e31 cd92 7eb2 d63f
000005c0: f32c cfac 04e1 ec3f bbae c3b6 4589 ed3f
000005d0: 4fda 37f7 9362 e73f a83b 2b30 f699 e83f
000005e0: b0cc 2163 e5d1 b6bf 3bb5 4f24 b8d8 e73f
000005f0: 9a18 b447 89cc c23f e1d1 9d86 7805 e73f
00000600: 095e e9cb 2f9b e83f 980f be5c 3cbb 913f
00000610: 86e8 7747 64ec e53f 5e5c 39b6 6631 d43f
00000620: 269f 8d5f 9039 d03f 6a63 e9d2 0f22 e13f
00000630: 24a2 f39b 2f14 9ebf 0a7f 3b98 be76 b9bf
00000640: 0840 48b0 e40f c03f e7f7 517c 4f20 ed3f
00000650: a89b 8909 11b5 da3f f75c a53a f816 e13f
00000660: 286a 91ae fb8b e23f a961 141b 17f4 e23f
00000670: 7c4d 8784 191b de3f 40ce 466d 91d3 c33f
00000680: 688d 3e92 4872 a7bf 838f 9838 ba81 b3bf
00000690: f9df de07 9e26 d53f 580c 7ca9 2552 d73f
000006a0: 2437 73f8 6895 d83f 10ff 14fe 3854 85bf
000006b0: 7c3d bab8 29d9 c43f 8e23 27d0 b7d7 b53f
000006c0: 485a a6b8 b848 9bbf cfed e813 5c1d e23f
000006d0: 6838 a0c4 f6ce a83f 1729 7ad9 b957 c3bf
000006e0: c4b6 4dcd afaf bfbf 6e51 b57c 2452 c73f
000006f0: 2846 743a 32cc d23f 10f4 da44 1754 e83f
00000700: c703 6313 d082 e03f e582 fcd6 973b e73f
00000710: 6be5 e4fc ff2e e03f 26ea d91b e29f db3f
00000720: 54c1 0c9e 134b b43f 6f60 db9c 8c5b e63f
00000730: 4e4f 7d16 be6b d53f 498f debd 7518 e63f
00000740: 4430 dc5f d71c d03f f681 9abc 3188 e33f
00000750: eb64 d732 5a2f ea3f 0028 95e6 af81 a63f
00000760: 35e5 6953 8ed6 d43f a46f c046 b645 b43f
00000770: 8123 ea7b 9c81 e23f 5dac 517f 7704 eb3f
00000780: c0a7 5920 994b e33f 90ba 6ddf a387 db3f
00000790: 5103 d427 791e e93f a885 2d23 6156 d83f
000007a0: 40c0 9d81 0921 c33f 5ebe 55d1 aa58 d63f
000007b0: 7589 0525 e5de e33f 4913 cf63 d03a e83f
000007c0: 3ef1 cabf 9737 a9bf e551 f2d5 cd5a ed3f
000007d0: 220e 9d9e 1486 da3f d27e 5da2 55ab a1bf
000007e0: a189 f4c2 af37 d03f 2a5c f37a cc7f e73f
000007f0: d296 0604 d1b5 dd3f 60b8 6d85 bd29 9a3f
