Zenodo/Npy_zenodo/theta_N14N16_to_N46.npy (npy, 368128 bytes, 1 tensors)

array f8 [1000, 46, 1]
0	0x3fd65e67663645d6	0.34951195699349336
1	0x3fd3479eb7053115	0.3012463366801666
2	0x3fa0d7d1156b1248	0.03289655100300998
3	0x3febf855105bd6fd	0.8740639991289921
4	0x3fcba0809a29906a	0.21583564307650543
5	0xbfb5d14cf05de2f4	-0.08522492283180921
6	0x3fdd1bf28b56a5b6	0.4548307762839515
7	0x3fec36f565edb24b	0.8817088118353892
8	0xbfc2ce4326242c59	-0.14691962587707755
9	0x3fc8b5b3a3cadbcc	0.19304509637524203
10	0x3fda91ef621b9532	0.4151571710666132
11	0x3fc71893e107ec8e	0.18043755042876736
12	0x3fedf903b1d68a5f	0.9366472695731537
13	0x3fdb3dee812547cc	0.4256550084293138
14	0x3fd7bb086e973496	0.3707905845629481
15	0x3fd30252907a4197	0.2970167551912026
16	0x3fe0f096ef0f0303	0.5293688458551461
17	0xbfac7edd085d5dfc	-0.05565539099796621
18	0x3fd334d7ba034c75	0.30010026135750617
19	0x3fbaf28ac5696214	0.10526339835758619
20	0xbfbe10aea35cc2ee	-0.11744204986895188
21	0x3fc82ea6538ecffc	0.1889236362454766
22	0x3f92b4bcb6a29910	0.018267582556881712
23	0x3fe694740f1eeccc	0.7056217475250377
24	0x3fe919e2eac56101	0.7844099603053395
25	0xbfb3f0f7a7ff3d87	-0.07789562083711675
26	0x3fd1d5145736ca10	0.27863033787721836
27	0x3fad4ab85fb3f580	0.05721069496392328
28	0xbfa455bdc6db1e94	-0.039716654323965234
29	0x3fd369a02010fc1b	0.30332186824301893
30	0x3fe18773dc9c2945	0.5477847393788485
31	0x3feb02858b2f1de4	0.8440578192175363
32	0x3fcd1c6f1c08d4b2	0.2274302374732194
33	0x3fed28a568d4e05b	0.9112116858950786
34	0x3fca1ef28b5bbac2	0.20406944088559525
35	0xbf6ffc81504ec780	-0.0039045835169070897
36	0x3fe0b382f564b679	0.5219130318489099
37	0x3fe9881142a86a7f	0.797859792891657
38	0x3febf3974722b771	0.8734852208487905
39	0x3fc76e59a4399ec8	0.18305511969378174
40	0x3fdc1152513daeca	0.4385572236412655
41	0x3fececf88a7e4303	0.9039271073289402
42	0x3fe1d3f9d91512e6	0.5571259727372222
43	0x3fdceb7131002894	0.4518702486535713
44	0x3fe920845eab81fa	0.7852193688414097
45	0xbf71b7d309bd38e0	-0.004325699202878591
46	0x3fb4d185ed812684	0.08132206963014182
47	0x3fdbce60cb2df79c	0.4344713195968042
48	0x3fe8b5a155e7e2fb	0.7721716573570058
49	0x3fe97c0093b1502e	0.7963869938489603
50	0xbfb03294cd721fdb	-0.06327180877462928
51	0x3fe037689f386d6f	0.5067637548230958
52	0xbfbc434906d40f18	-0.11040169159610647
53	0x3fe33d7af1ed4c9f	0.6012549138198614
54	0x3fd052b4a5a5abf5	0.25504795242767325
55	0x3fa6fbfcae7a0e78	0.044891258524356326
56	0x3fcc20f70ee40394	0.21975601412853207
57	0x3fc4761c8c049c14	0.1598544772798226
58	0x3fda9d805679627c	0.4158631176447114
59	0x3fd8e13b555de202	0.3887470563563796
60	0x3fbf126cfcf24f68	0.12137490439846277
61	0x3fea3ae277674bc2	0.8196880657291035
62	0x3fd9f684ee067d2c	0.40567134136832084
63	0x3fcffa3191c68aae	0.24982280366846993
64	0x3f9936fe74400d98	0.024623847813939642
65	0x3fc09e0ff1f9dbb6	0.129823678161953
66	0x3feb6664cbf5be43	0.8562492354958028
67	0x3fd095c53b55ae79	0.2591412620010725
68	0x3fc8463b5cc9598c	0.18964330702392507
69	0x3fe2e60a7b20bcab	0.5905811695901283
70	0xbfb6c1e309a73520	-0.08889597879097666
71	0x3fe2394200b8943c	0.5694894804079307
72	0x3fe2ea88ede32259	0.5911297460780346
73	0x3fe5c452b7c70706	0.6802152242091501
74	0x3fe44bfec41ded1b	0.6342767553718746
75	0x3fd52f98dc54a1e1	0.3310300971666305
76	0x3fee725cb730e94b	0.9514602258634935
77	0x3fae48b82469a2c0	0.059148554272558496
78	0x3fe493de56c5df39	0.643050355413812
79	0x3fe7bb9e7bae55b5	0.741652719082302
80	0x3fcdb7e226e60be6	0.2321741762098945
81	0x3fdb405c3ee64e66	0.4258032430891262
82	0x3fda43c70d459f9e	0.4103868131264735
83	0x3feb7f326a4daa4f	0.8592769695508852
84	0x3f644782e6a70600	0.0024755055103191648
85	0x3fedaca403019dbd	0.9273243006436399
86	0x3fe4468ee12d87e1	0.6336130521779034
87	0x3fe54403ba2bfca1	0.6645525585335187
88	0x3fe107b54b56aa79	0.5321909400420984
89	0x3fec8f68fbbfe83b	0.8925061146721939
90	0x3fea76d69c7ef6fd	0.8270066315232892
91	0xbfc1dd1b6d23dfbe	-0.1395601542387776
92	0x3fcb65d22279071c	0.21404482539406267
93	0x3fed8d1f5f89e315	0.9234768739689537
94	0xbf985c2a2b276fc0	-0.023789080509103888
95	0xbfa393861567fdec	-0.03823489199930549
96	0x3fdbf2aacccffab8	0.43668622971737703
97	0x3fc555c08c17a18a	0.16667944755978353
98	0xbfbf596e18657ac0	-0.1224583444177183
99	0x3fed6a3b6a429f55	0.9192177844424615
100	0x3fe2a95e6852f175	0.5831748998239578
101	0xbf9e082ba7755d94	-0.029328043075421542
102	0x3fd754f465d7e608	0.3645602221073152
103	0xbfc110f4ea16b468	-0.13332997732269125
104	0x3fd839a8b2cc3f72	0.37851922474600663
105	0x3fd8c7a418676152	0.38718511946855927
106	0x3fe85251b7ad2636	0.7600487315587034
107	0x3fc0f15bda5169a2	0.13236568603572346
108	0x3fe6ae78206e4941	0.7087975152410665
109	0x3febafa35c051b13	0.8651902005447901
110	0x3fdc53cd505e039e	0.4426148686252932
111	0x3fce6ee190592b32	0.23775882290132128
112	0x3fed8e6e45a60d41	0.9236365661931033
113	0x3fe81b56ae596eff	0.7533372311840764
114	0x3fd26eae6346a27e	0.28800544447816623
115	0x3fdfd1b3263b210e	0.4971740601872775
116	0x3fe1bff17c87c632	0.5546805793985128
117	0x3fc7eda08ac4e34c	0.18693930412134774
118	0x3fe8710375460f95	0.763795594263217
119	0x3fea111b2217fe47	0.8145881334202806
120	0x3fe7e2a4f2bac1e1	0.7464165440379099
121	0x3fe51ff9618d3c7a	0.6601530938441009
122	0x3fed85810378f1df	0.922546870023833
123	0x3fe073e8a9ddc574	0.5141490285588319
124	0x3fbeb525448133ac	0.11995156214216135
125	0x3fc007899cfd04e6	0.1252300278229434
126	0x3fc5fce950ac3936	0.171780743018141
127	0xbf55309690822280	-0.0012933225971513418
128	0x3fea1ee155433e7f	0.8162695565496988
129	0x3fe1cd817a46a476	0.5563361538126077
130	0x3fcf816de5b9b264	0.2461373683649014
131	0x3fe7f9c44521177c	0.7492390966587972
132	0x3fe130d7f004dd77	0.5372123420592477
133	0x3fbc42135ce37970	0.11038323419368168
134	0x3fe38366b0f923c0	0.6097901779659125
135	0x3fe1473a7d57f466	0.539944882213274
136	0x3fd15cc22349ad37	0.2712865204436698
137	0x3fd47b8b85ea98a5	0.3200405891206038
138	0x3fe59b2360e3f0a7	0.6751877682104536
139	0x3fdaec2c17adeab4	0.42066480934560535
140	0x3fd24d6c12ae75c4	0.2859754736362812
141	0x3fea36915aa74949	0.8191611071181707
142	0x3fa240fe67fc1f6c	0.03565211314531677
143	0xbf958483df1392c0	-0.021013317575937718
144	0xbfaa99d88e67a9a8	-0.05195500124303304
145	0x3fe97801f7765ac0	0.7958993752716523
146	0x3fa7ed593cd1431c	0.04673270099067947
147	0x3fdd7dc1c9e3baf6	0.46080059734133216
148	0x3fca3417063d8b8a	0.20471465878207723
149	0x3fe8e57c160d43c5	0.778013270444824
150	0xbf683b33252230c0	-0.0029579161574187773
151	0x3fb98853c10fbb7c	0.09973643744863908
152	0x3fdcbb51b2848bbe	0.44893305238127457
153	0x3fe818f3d5fcb65d	0.7530459575115845
154	0x3feb0fa177bfcd8a	0.8456580485202931
155	0x3fe2e811cf4cb2b8	0.5908288048572876
156	0x3fec1c98c76e2b37	0.8784908194660151
157	0x3fe3df1c9f43bb45	0.6209853277813201
158	0x3fd093d80eaac7e7	0.25902368004164916
159	0x3fd3aa181ed9c826	0.30725672734036136
160	0x3fa82dbeb77d48d8	0.04722400655613662
161	0xbfc086a42d81aa15	-0.1291089269828524
162	0xbf69f7424656f200	-0.0031696600369441885
163	0x3fe090735fc10c0b	0.5176331396290846
164	0x3fd6e0302d1cb6d4	0.3574333611057743
165	0x3fb35f190e2d3a66	0.07566982837782063
166	0x3fe34d45a791f04e	0.6031826279499997
167	0x3fd188f58f16a632	0.27398432706340536
168	0x3fbbe7546e0691ac	0.10899856268094393
169	0x3fd320834a96d4b3	0.2988594273004523
170	0x3fe2f23ad0b8394b	0.5920690609507714
171	0x3feccab8053685e3	0.8997459508720421
172	0x3fe6445c92a9f90e	0.6958449234514619
173	0xbfa8f8600f1d8874	-0.04876995262635911
174	0xbfc28b03ae688e45	-0.14486738220249343
175	0x3fe6a801bf64b679	0.7080086458351637
176	0x3fea75c568242753	0.8268763574608137
177	0x3fdde8ec3a0efa16	0.46734147710586293
178	0xbf9a7cbe47872780	-0.025866482845038785
179	0x3f92989013590420	0.018160105877772392
180	0x3feab41b65e17fa3	0.8344857206211497
181	0x3fea0b4169a64f5f	0.8138739646405887
182	0xbf90a9df9ed3f8b8	-0.01627301604184403
183	0x3fe04c1d33f98eb0	0.5092912688382594
184	0x3fe55ff065568ad5	0.667961309362307
185	0x3fd2be4403595ec8	0.29286289526997367
186	0x3fe7c955b55ba7fe	0.743327001776606
187	0x3fe857f672fe79b6	0.7607376333215174
188	0x3fe3445b29ab9a6d	0.6020942510484254
189	0x3fe16106b4752179	0.5430940174638145
190	0x3fb59bdde42c7da6	0.08440958805703377
191	0x3fd4028df588b000	0.31265591600345033
192	0x3fe8b99ba49d6f5d	0.7726572241913164
193	0x3fbedb857a92a2b0	0.12053713076114536
194	0x3fd9a23f67aeac28	0.4005278122446634
195	0x3fd9ecb0c12bda14	0.40507143844971094
196	0x3fb4616f32f2c386	0.07961173051695711
197	0x3fcb58e98d017c6c	0.2136508883004099
198	0x3fd972921a5a5c3c	0.3976178414681646
199	0xbfb710191e242e14	-0.0900893877589442
200	0x3fc36e715ec4fa22	0.15180794837392947
201	0xbf9f4f5b7a6d3a18	-0.030576161715822975
202	0x3fe2762b89cc69bb	0.5769250575424886
203	0x3fdee44679cf6574	0.482682818370072
204	0x3fdc8a487060a928	0.4459401223599735
205	0xbfb7380c7493baef	-0.09069898458595181
206	0x3fb3972effc84898	0.07652562851606814
207	0xbf79be2dafec4aa0	-0.0062848839431974
208	0x3fec2cb04eead261	0.8804551640847188
209	0x3fe091b51a18eed0	0.5177865514483191
210	0xbfc15c0021cf9a73	-0.13562013293195072
211	0x3fca1d087874ec82	0.20401101953197914
212	0xbf7cf7893dbd5b40	-0.00707200631935373
213	0xbfc07a7d42d672a0	-0.128738076816167
214	0x3fd1f2f078841acf	0.2804528405107875
215	0x3f9d132e2061f970	0.028393479086383733
216	0x3fe1dc17816da063	0.5581166770835008
217	0x3fd7368b887a571e	0.3627041657249367
218	0xbfb90c24daf82907	-0.09784155221874268
219	0x3fe01ccc17d97e97	0.5035152879535926
220	0x3f47820dfba83800	0.000717408015874943
221	0x3fd93d37cccfa47c	0.3943614482983049
222	0x3fc54f44c39314e6	0.1664815859750554
223	0x3fdbc7d01aa9a3d4	0.4340706119897366
224	0xbfac06b289bf6e62	-0.05473859721652442
225	0x3fec2edb8d4ad707	0.8807199248901448
226	0x3feba8578d0efd9f	0.8642995600748015
227	0x3fe6180fd051fbd6	0.6904372280840743
228	0x3fe0f3222d78e532	0.5296793830995397
229	0xbfb5a90aca959023	-0.08461062856582706
230	0x3feb5d88c7769893	0.8551677604452997
231	0x3fd9362552438ff0	0.39392979653916793
232	0x3fc466a442e61632	0.15938237444440656
233	0xbfc2dd1cdebfee80	-0.14737282635165982
234	0x3fe52d529502e13d	0.6617825422645535
235	0x3fe328404081e156	0.5986634502324175
236	0x3fee25dc80dfdb4d	0.9421217457846552
237	0x3fc9db2e7beff730	0.20200139094952752
238	0x3fe0855cb5eed2a5	0.5162795594574915
239	0x3fda3f9fe1484d90	0.41013333320844314
240	0xbf79962958069500	-0.00624672079030586
241	0x3fe36543af2eabc0	0.6061113759545762
242	0x3fd4500342b9e236	0.31738358989926796
243	0xbf9e6d2323f04cd4	-0.02971320063450096
244	0x3fe3282c10e176ea	0.5986538247777535
245	0x3fedafa5c352b571	0.927691346636193
246	0x3fe9a1c74be42837	0.8009983522654299
247	0x3fbffb04a0dad6f4	0.1249239819252031
248	0x3fdd5cda821dfb76	0.4587923308062537
249	0x3fa555d52ebe04ac	0.04167047687133993
250	0xbf9c1990963e7978	-0.02744127194420673
251	0x3fcf2ee027d2cf2c	0.2436180300188594
252	0x3fe68dafdd447528	0.7047957727078584
253	0x3fe130723f0e6e38	0.5371638518876756
254	0x3fc747e4c7d6fbfc	0.18188152082254294
255	0x3fed451c4d19ca6f	0.9146863466142586
