Zenodo/Npy_zenodo/theta_N14N16_to_N48.npy (npy, 384128 bytes, 1 tensors)

array f8 [1000, 48, 1]
0.3691874722723205 0.9291781422058124 0.017287398943431287 0.12950656912860203 0.6060522355607848 0.47146818684526703 0.17533970303412166 0.8229977752036994
-0.027311661038270207 0.4150721711374048 0.7833105452234331 0.7186022598643297 0.7530539429061629 0.884333092460304 0.2933256753593423 0.002620059085092108
-0.12459735064251555 0.5341098491750836 0.8737191667855789 0.45724763821179093 0.8637604478145277 -0.024787637059695694 0.06180380723700829 0.47805659726283645
0.5259869708718431 -0.01520063161372709 0.14506440404422893 0.6895753228814034 -0.08286762306146872 0.8390108537376796 0.4940807493125684 0.2905211866216289
0.7753250985411377 0.7725863866239407 0.2184677246102249 0.5174432523812693 0.9369603841703985 -0.051898233903152055 0.6870418504810467 0.54334093499874
-0.026953576575259736 -0.12374884883157203 0.49787186749851275 0.6296987488828886 0.5948044132130715 0.2058924559306476 0.44784044612576224 0.4955460965286087
0.22041405077767795 0.8449956663133 0.7962871531077801 0.12722866220577989 0.09441326603467537 -0.06039088972621487 0.2922488077529058 -0.11169857275795017
-0.10178985612891872 0.1759381891469033 0.7843493726941998 0.27925022536569855 0.9129374125121376 0.19790485565901345 0.34473035236581057 0.5020291237072427
0.19655710180063524 0.17332786720870702 0.40617246315980715 0.8154253177985539 0.6083403664413123 0.6299708969982764 -0.030184572072346774 -0.04994797304583097
0.8339007447903628 -0.10607982593493279 0.43285800571432276 0.671740253845025 0.30846070118795493 0.8654766860187711 0.8534508031028841 0.17708090026086315
0.5305431347221023 -0.0690223740222159 0.21503867553907685 0.5513976041896919 -0.10971529483860998 0.6823480384476872 0.8002771588226532 0.07542859521706183
0.6700569081931285 0.9193399107535766 0.8924539305051674 0.6474582234518745 0.026000738325582 0.23771513118718562 0.6972133469688827 0.18249636144253623
0.09659127828060682 0.9156482134991971 0.08982900525405735 0.39777990742834746 0.2698758386678121 0.4893747147912688 0.4714954787325689 0.8348295822314006
0.7908500957410027 0.3424735809286373 0.7575865293052304 0.8791645312580277 -0.031032849277873475 0.2724245400771634 -0.08883971634906669 -0.002941412146212713
-0.13824173554099642 0.5264843340348078 0.44099458462999697 0.019147126420382687 -0.007545993407246376 0.513340656722114 0.30932301628588216 0.692583232922031
0.4245969347984183 0.153124779135685 0.3982262014270076 -0.08755251878426347 -0.014579696586350221 0.045539256691224245 0.26761964796112303 0.616065094709415
0.7335876624636805 0.17553142066674765 0.47756951917701795 0.3213698626440643 -0.03097700224717813 0.4517627454886848 0.8224880622995812 -0.1254522778643888
0.5703103094792554 0.3253813425712928 0.07263323295905758 0.00897709215972431 0.7409389591854351 0.08653348835546648 0.14641745288413205 0.02078622070983535
0.733171314991205 0.4813141746238033 -0.144350171850005 0.5542422526032662 0.09975804974621721 0.8088188187410458 -0.03198795158163774 0.2244185732994725
0.6195563029479225 0.6748079722829212 0.43139852206469176 0.4344893500008984 0.19540502730694592 0.7537358377695079 -0.06367183457341508 0.2871826498886006
-0.13300160939078617 0.15237686532067046 0.8426178781759432 0.13866067433906354 0.8968962563239241 0.2819430056603539 0.7149268682837635 0.43796018027541683
0.7761788865008097 0.750871022970486 0.5354559531588224 0.48441475165437364 -0.037666751773655485 0.328935232710388 0.39910467673855965 0.0721372172556812
0.6772624364046305 0.579552552109964 0.5939339050540668 0.3799298454782216 -0.08780282305129415 0.6843190904415305 0.3121778778879829 0.7698757089726821
-0.07995346245891072 0.9456255728356314 0.835240554151196 0.39200526057818375 0.4702008335256527 -0.14274707017592025 0.23357012789053344 0.3032275242552018
0.11569087875715678 0.3564976896185138 0.678208370108508 0.11744651618698204 0.6654650220578012 0.276767732617652 0.7987039907895661 0.8470190223544133
0.7744293564323266 0.4248180014717905 0.23440737588482463 0.8425529959374295 0.0045943070044989764 0.7222920455741481 0.08571968308853625 0.5922141966731733
0.4098974627949401 0.952967968297531 0.0426911637612028 0.0392281368771113 0.3732309221295089 -0.14326313593265175 0.6934122889161799 0.3963659576561005
0.06202500841241368 0.8148709048406951 0.10300616867357476 0.25505043596455124 0.2913275636764481 -0.07535712401720059 0.5767358282240967 0.31865305951119094
-0.06510578734852938 0.5916577057625659 0.38070639458907096 -0.011554081367986357 -0.060260149090238316 -0.09082392676815373 0.33758230300621844 0.5368640010764869
0.045281911438328465 0.8271473831890971 0.6977523278589831 0.43993919610234444 0.40625948730561356 0.3515419529314081 0.028664418131696512 -0.0563823435898827
0.028523212369240658 0.6217105294169856 0.7992861034732572 0.9000045770171333 0.4335792950736659 0.11443620591982373 0.6394436454654883 0.23861996959044274
0.7645033146175667 0.7270769434731306 0.5374347048402716 0.9427463670451771 0.8089119146987807 0.08852979020610866 0.4427796698432461 0.8782782576255627
00000000: 5829 e07d c4a0 d73f f5d2 9dcc d3bb ed3f
00000010: 9038 61b4 c9b3 913f 1c23 83d7 ab93 c03f
00000020: 1dd7 6ca8 c764 e33f b0b5 e6e6 882c de3f
00000030: 5e67 1c09 8871 c63f e0c7 256e ff55 ea3f
00000040: c0d1 d58b 96f7 9bbf 9cf3 20de 8a90 da3f
00000050: 2317 cb46 e110 e93f 1f5e 9e2a cafe e63f
00000060: 7cfc 1c95 0419 e83f cf66 dce9 744c ec3f
00000070: 14b6 af0d d9c5 d23f 009b b082 a976 653f
00000080: 8187 2daa 9ce5 bfbf 15b6 d589 6d17 e13f
00000090: 1370 e7e5 81f5 eb3f 94be 1299 8b43 dd3f
000000a0: 7f22 5ef3 eca3 eb3f 28e8 102a ee61 99bf
000000b0: 90d5 b3a5 bfa4 af3f 1661 b8b2 7a98 de3f
000000c0: 9188 c0a0 e2d4 e03f c0a8 463d 8221 8fbf
000000d0: 4483 976b 7891 c23f c4ef 7c44 0011 e63f
000000e0: 543e f202 d036 b5bf 1f5b 394a 2dd9 ea3f
000000f0: aa5c f8dc 049f df3f c970 d52c e697 d23f
00000100: ba11 c094 76cf e83f f34e fc15 07b9 e83f
00000110: 885a 371a c0f6 cb3f fc6d d026 e58e e03f
00000120: 471a f557 94fb ed3f ce1b abc2 6792 aabf
00000130: d494 d930 3ffc e53f 8db9 4c87 0c63 e13f
00000140: 7898 9ae7 b799 9bbf 3a35 a62a 01ae bfbf
00000150: ac4a 20f7 21dd df3f 8917 99fd 7d26 e43f
00000160: 1788 c843 a308 e33f 668d 5b1a af5a ca3f
00000170: aeea 7bf9 6aa9 dc3f a80d 90f9 06b7 df3f
00000180: 20a2 d511 8736 cc3f ac79 025a 340a eb3f
00000190: df54 1a32 2f7b e93f e8d1 a45f 0749 c03f
000001a0: 386f edc1 772b b83f 406c b300 8eeb aebf
000001b0: 89ff e557 34b4 d23f 8a59 0115 4798 bcbf
000001c0: 6c64 2367 e60e babf cc6f 4080 2485 c63f
000001d0: b182 0bdb 6319 e93f dc29 5656 3cdf d13f
000001e0: 8f1a 4185 c836 ed3f 4635 6341 f254 c93f
000001f0: b161 56e5 0f10 d63f e6c9 7e61 9f10 e03f
00000200: ecdf 037a c828 c93f 3ecb 9288 9b2f c63f
00000210: 20a8 73c9 bafe d93f 67ce 08d6 f617 ea3f
00000220: 8a77 5637 8677 e33f 9d42 01ba b828 e43f
00000230: b4f3 9357 b4e8 9ebf 7e77 77dd c792 a9bf
00000240: 4282 5f9d 50af ea3f a6e9 2727 0c28 bbbf
00000250: 00b5 9610 f2b3 db3f d279 b56a e57e e53f
00000260: 0f06 edf3 d1bd d33f abd5 bc29 fcb1 eb3f
00000270: 5f4c 020f 784f eb3f 3aee ae41 96aa c63f
00000280: c6f5 9798 35fa e03f 6821 1e47 73ab b1bf
00000290: fc61 6827 6386 cb3f a1cc a296 0ca5 e13f
000002a0: 80ec 3333 4d16 bcbf 12ec b38d cbd5 e53f
000002b0: 8821 1cd8 de9b e93f faf7 a3d5 494f b33f
000002c0: 60bf 642f 1b71 e53f 7103 5388 3b6b ed3f
000002d0: 6d9a 968b fb8e ec3f e310 e84e fab7 e43f
000002e0: 38f4 1e03 f09f 9a3f ce4d 1b0d 736d ce3f
000002f0: 191d 725d 924f e63f ac70 0470 0a5c c73f
00000300: 4c46 4bbd 34ba b83f 09d6 737b fd4c ed3f
00000310: 3063 cc9f 08ff b63f 4048 5adb 3975 d93f
00000320: cbc3 434f a545 d13f 1424 e152 ea51 df3f
00000330: 5c91 575f fb2c de3f c559 2d87 ecb6 ea3f
00000340: dadf 27dc a44e e93f c947 754f 16eb d53f
00000350: 0e32 e81a 263e e83f 05ce b1a7 1d22 ec3f
00000360: f02a 0043 13c7 9fbf af97 9056 676f d13f
00000370: d51e 4e1c 33be b6bf 40f5 1a9f 9618 68bf
00000380: 51a1 8bba e7b1 c1bf 9825 91ac f5d8 e03f
00000390: 74bb ac59 4139 dc3f d0d4 26e7 4d9b 933f
000003a0: 0037 662e 8ce8 7ebf 3d84 8a62 496d e03f
000003b0: a344 b6c3 f2cb d33f f00e e54f a429 e63f
000003c0: 2e3a 3c9f 982c db3f a428 4cbf 9799 c33f
000003d0: fe83 e2bf 897c d93f d55f dc84 d769 b6bf
000003e0: e01a 31c0 f5db 8dbf dc8d 58e4 eb50 a73f
000003f0: c4a4 f028 ae20 d13f 957d 3f25 ceb6 e33f
00000400: a1fa 60d5 8c79 e73f 9490 9747 d077 c63f
00000410: 94a1 9bbe 7f90 de3f 2e7b 7ee6 5291 d43f
00000420: 9ca9 516e 6fb8 9fbf 6434 5b4a aee9 dc3f
00000430: e6aa 1d7c d251 ea3f cb70 51fb d10e c0bf
00000440: 0e1f f967 fb3f e23f 28a0 4444 0cd3 d43f
00000450: 6272 2970 1798 b23f 80de e9e9 9462 823f
00000460: 4114 c19e c5b5 e73f c0da 7e06 0f27 b63f
00000470: 52b9 d99d cebd c23f d8ed 9fa8 fb48 953f
00000480: cf14 88b0 2376 e73f ea11 c7f7 d9cd de3f
00000490: ad45 a201 117a c2bf bcc1 9f3f 5abc e13f
000004a0: f438 2c59 be89 b93f 853a dc00 d8e1 e93f
000004b0: 267e d18b b960 a0bf d6d5 7770 bfb9 cc3f
000004c0: d424 66bd 67d3 e33f 8820 81e3 0698 e53f
000004d0: a2e0 f38b 089c db3f bcb4 2d6b acce db3f
000004e0: daef e02c 0803 c93f e161 a19e 9a1e e83f
000004f0: c04c 2b1f cc4c b0bf 9502 5056 3361 d23f
00000500: a70b 535d 3206 c1bf 3e11 9cca 1581 c33f
00000510: 804c b9c4 b9f6 ea3f e287 c30a a2bf c13f
00000520: 631d 1ac7 5fb3 ec3f 1e6b 29ad 5a0b d23f
00000530: 52ef c94f aee0 e63f 6aec ce22 8a07 dc3f
00000540: cabb ab1a 75d6 e83f 8083 e5aa 2207 e83f
00000550: 3580 e885 7422 e13f 428d 03bb a600 df3f
00000560: 7a5f 0776 0e49 a3bf ab91 bf5c 460d d53f
00000570: fe74 9157 ee8a d93f 6606 f0ac 9577 b23f
00000580: 7059 e545 22ac e53f 2c05 34cb b18b e23f
00000590: 4e2b 46ad 8101 e33f 649c 4645 c550 d83f
000005a0: df74 80ed 3e7a b6bf e331 2f26 f1e5 e53f
000005b0: 8011 04ec b8fa d33f 2fb8 0062 d2a2 e83f
000005c0: 3486 7682 d477 b4bf c3e3 b28f 9042 ee3f
000005d0: eae9 0b66 4aba ea3f bac4 823b 9d16 d93f
000005e0: 08db a23c c517 de3f c4b0 0037 8945 c2bf
000005f0: 6c62 4e3e a0e5 cd3f b314 fb6a 1468 d33f
00000600: 081e b5dc ea9d bd3f 76b5 80af dbd0 d63f
00000610: 08aa 2f0a e2b3 e53f 745e 0d92 f910 be3f
00000620: 79d8 4b4d 7d4b e53f aa93 0b02 90b6 d13f
00000630: 2407 f4ab fb8e e93f 6344 03a3 c71a eb3f
00000640: ae0d de12 20c8 e83f eab2 c4d7 3730 db3f
00000650: 80e9 ae96 0f01 ce3f ad56 56b3 31f6 ea3f
00000660: 404f 50e5 7ad1 723f 6ddc 3c35 041d e73f
00000670: 8e1e 7da3 b9f1 b53f aa05 de2f 6bf3 e23f
00000680: b0ba 5a91 c23b da3f 9726 3fae b67e ee3f
00000690: b876 5dc0 9ddb a53f a8be f0d9 b515 a43f
000006a0: 0cbd 19f3 03e3 d73f 59cd c649 7256 c2bf
000006b0: 8d43 f1f7 6e30 e63f f05c 5852 0f5e d93f
000006c0: c4b4 54ed bdc1 af3f 3b16 d825 6c13 ea3f
000006d0: 5c40 bdbd 9c5e ba3f 2e17 5310 bf52 d03f
000006e0: 187a 9a5d 1ca5 d23f 8dab 2cbf 9a4a b3bf
000006f0: 51ed 14b2 9e74 e23f f0bc 57cd cf64 d43f
00000700: 3b38 71db c5aa b0bf cda6 1524 dcee e23f
00000710: 24d7 885a 7e5d d83f e0f7 e28c aaa9 87bf
00000720: fa76 3013 6bda aebf 66dc 29a3 3c40 b7bf
00000730: 3daf c7cd f29a d53f 38be e069 fd2d e13f
00000740: fcba 74d1 302f a73f e59c f8c9 fd77 ea3f
00000750: 2997 9bb0 fc53 e63f 083d dfba f627 dc3f
00000760: a8b5 eaca 2700 da3f a8ca c0d1 a97f d63f
00000770: 20ef bc89 345a 9d3f e0ac 9483 25de acbf
00000780: 7004 3661 3035 9d3f f497 ed7a 0de5 e33f
00000790: c213 5273 c093 e93f ad3e 1166 d6cc ec3f
000007a0: b01a 245f c3bf db3f 386a e7f1 b04b bd3f
000007b0: e918 1d85 5276 e43f a81f c862 198b ce3f
000007c0: dde9 bea7 cf76 e83f 4c91 bcdd 3644 e73f
000007d0: b7c7 2044 aa32 e13f 1938 dc6d fa2a ee3f
000007e0: 6e3b 5f3d 9be2 e93f b22f a869 e3a9 b63f
000007f0: eadd 538a 8056 dc3f d944 2901 db1a ec3f
