Zenodo/Npy_zenodo/theta_N14N16_to_N60.npy (npy, 480128 bytes, 1 tensors)

array f8 [1000, 60, 1]
000000 5c 49 fa 44 d6 81 a1 bf a8 a5 17 10 93 74 ba bf
       -0.03419370262158125 -0.10334128516082919
000010 49 56 9c ae a3 9c d5 3f 4d 53 ca 14 33 a5 e1 3f
       0.3376855092222724 0.5514159589825823
000020 7b 8a 6b 8c 68 4d ee 3f d4 85 cf 20 9c 49 dd 3f
       0.9469492666797373 0.45761779026187566
000030 80 65 a2 87 38 0b 77 bf 66 7d 02 1f 9a 95 e6 3f
       -0.00562593538247691 0.7057619672449789
000040 ad f2 3c a8 18 71 ea 3f ef dd 7b 6c a0 19 e2 3f
       0.8263057027721367 0.5656282538247391
000050 89 29 3d da 0a b6 e0 3f 38 b2 c5 81 6c 44 e7 3f
       0.5222219717482385 0.7271025213827391
000060 dc b5 98 fa af 97 ad bf 42 41 94 94 4d ef c0 3f
       -0.0577979081539117 0.13230294947471505
000070 68 ca 90 83 c5 b4 de 3f be a9 6b a7 7b 2a e1 3f
       0.4797834191150856 0.5364359159405507
000080 07 f4 b5 83 5e b5 c2 bf 1c 9c cd 44 2a 1a a9 3f
       -0.1461599486464424 0.04902774896509518
000090 8b af d9 3c d5 02 e3 3f 4e a3 93 20 84 8e c0 bf
       0.5940958202822783 -0.1293492468896837
0000a0 f6 18 91 7a 5b 6c de 3f c6 45 ed c5 29 89 d5 3f
       0.475363607114914 0.3364967759017329
0000b0 44 a9 11 ae 02 60 d7 3f 0a 8e 67 86 2e ec d9 3f
       0.36523501395153724 0.405040389303594
0000c0 74 d7 f0 c3 74 d5 d9 3f f2 49 7c b6 e1 f9 d5 3f
       0.4036533273205045 0.34337656803941663
0000d0 ca f8 93 86 d6 17 d7 3f 3a 1d f4 2a e8 91 ab bf
       0.3608299555052211 -0.05384755634627898
0000e0 c0 ab 93 e4 43 2a 76 bf 0e 10 c1 86 ba 22 cd 3f
       -0.00541140099196985 0.22762233333389797
0000f0 bc 55 c6 23 ef da db 3f a0 f6 e9 c1 d7 d1 77 bf
       0.43523767942073355 -0.005815356066361993
000100 b4 2e 35 01 3a 2f af 3f 44 de 50 a2 7d 7d be 3f
       0.06090718521826713 0.11910233700552292
000110 3d 9d a6 3b 79 42 b2 bf 2c 44 3f 45 ea 6e a7 bf
       -0.07132680612868554 -0.04576809020330361
000120 62 27 69 e7 49 ee ce 3f 42 ec a7 df a9 d6 e2 3f
       0.2416469936309183 0.5887040489464044
000130 89 76 05 5f 77 6b e4 3f 88 7b ca 76 b5 d7 d9 3f
       0.6381184440503641 0.4037908229892584
000140 98 23 aa 68 05 a8 d4 3f 0b 7d c9 e0 df 74 eb 3f
       0.3227551958194055 0.8580169096348141
000150 9c 76 b6 6a 8a 64 b2 3f 3c 0e 6d c3 24 70 b1 bf
       0.07184662919322665 -0.06811742564337292
000160 e7 6b 94 4d 4c b4 e4 3f 28 a1 cb a9 49 d8 c8 3f
       0.6470090403776084 0.1941005782202947
000170 70 8f 0f 11 63 d6 bb 3f 54 5e 70 8d 91 4c e6 3f
       0.10874003569148072 0.6968467485884937
000180 50 57 c8 80 1d d0 bf bf 1c bc 56 2a 38 df d6 3f
       -0.12426933664423001 0.3573742307152672
000190 bf c9 70 1f 42 1c ee 3f 04 f2 11 2e ac b9 db 3f
       0.9409494985650823 0.4332075548079788
0001a0 df 89 74 c7 f9 17 b7 bf 16 64 22 c8 64 98 de 3f
       -0.09020959014427586 0.47805137199753867
0001b0 16 2d b3 3c 36 18 e7 3f 2f b4 17 4b 82 90 b8 bf
       0.7217055497689298 -0.0959550317126776
0001c0 4f 0f 03 e2 13 2f ed 3f 97 1d 5f 18 08 9d c0 bf
       0.9119967855735726 -0.12979222478882654
0001d0 a8 e8 93 1a 46 d3 9e 3f de 6b 5e a2 3e 60 da 3f
       0.0301028207513602 0.4121243081696643
0001e0 fe e3 14 19 93 60 e8 3f d0 4f 42 b1 5e 27 e4 3f
       0.7617888917803837 0.6298058950510441
0001f0 b3 c5 2a f2 73 85 c0 bf 9c c4 6d 15 6f e9 d9 3f
       -0.12907265972675716 0.404872675825638
000200 0a 1a 83 ae 34 2e b0 3f 27 a5 4b 8d 85 99 e0 3f
       0.06320504437017163 0.5187404403378978
000210 74 b0 d8 be da c9 a8 3f 4d de d3 68 7c f5 ec 3f
       0.048415027424511786 0.9049665496267579
000220 00 a7 95 6a 39 f8 45 3f ba ce 67 6e ca 61 d6 3f
       0.0006704597810031909 0.3497186735323613
000230 e1 6d 07 60 c2 0b d1 3f d2 41 45 e0 ee df e3 3f
       0.2663427293570902 0.6210855846675776
000240 d3 5d 92 7e 6c 82 b2 bf 86 0f ec fc a7 8f b1 3f
       -0.0723026093495414 0.06859826969963309
000250 ad 0d 34 5f a6 ce ed 3f 50 60 73 bf eb a8 bd bf
       0.9314758166732894 -0.11585877822960922
000260 8c 83 4a 3b 63 02 e6 3f aa 05 38 27 98 92 e1 3f
       0.6877914579418856 0.5491448179238223
000270 57 3e de 37 a5 44 e3 3f 88 0b 24 a2 b2 3c 98 3f
       0.6021295634436211 0.023669043680466767
000280 7c 25 d8 b4 56 14 bc bf f1 79 bb 9e 40 25 e7 3f
       -0.10968534388680057 0.7232974148026284
000290 be 0a a4 27 bb f5 e3 3f fe 1e e0 25 6e ff d0 3f
       0.6237464689478072 0.2655902261617341
0002a0 4c 55 7e 6c 97 97 ce 3f 40 17 3a cf 0a 96 dd 3f
       0.23900120542081493 0.46228285061839713
0002b0 f8 d0 d2 c8 7b 33 e7 3f b0 76 34 2a 01 a7 cd 3f
       0.7250346109708792 0.2316590744093694
0002c0 37 70 ba cb 1f 5a b4 bf bf 40 e2 9c d5 7a d0 3f
       -0.07950018619379838 0.2574972183292736
0002d0 85 c0 7b 4e 7f 86 e2 3f 98 73 6a f2 2d 0a e8 3f
       0.578918126380828 0.7512426123317821
0002e0 ff b3 8f 66 dd 39 ec 3f 72 2a 33 3f 21 f1 da 3f
       0.8820635798598458 0.42096739932882266
0002f0 4d e6 63 e1 15 43 ed 3f 60 d7 37 6b 7e ca 74 bf
       0.9144391443398462 -0.005075925658720809
000300 a5 30 d5 ef 66 5c ee 3f 10 69 6f fa 11 59 c4 3f
       0.9487795528634889 0.15896820762902353
000310 47 78 33 20 e1 07 ed 3f 17 b4 b1 b8 4d 72 e6 3f
       0.9072118405272328 0.7014530761058521
000320 0f 04 7b 4f b2 a2 e2 3f dc 5d b3 f1 8a c7 cf 3f
       0.5823604156831851 0.24827706147946926
000330 d2 70 bb 1f e9 53 e3 3f f6 24 89 12 e1 27 c2 3f
       0.6039929981011716 0.14184201626839127
000340 a8 02 52 df 2a 3d d8 3f 49 25 fb 0c 7b 88 e7 3f
       0.3787333660948584 0.7354102376495258
000350 f2 35 49 a3 c0 d3 e1 3f b6 d7 c1 8d aa c5 de 3f
       0.5570986928157124 0.48081458896137563
000360 5c 98 e2 ce f9 17 bf 3f a0 67 f1 16 2b be 97 3f
       0.12145959187418626 0.02318637206585772
000370 10 20 d7 52 5f 2d b0 3f a6 ea a7 7c e3 73 ca 3f
       0.06319232723683421 0.20666164004054116
000380 53 82 a3 cf b9 a9 e5 3f df e2 16 3e 23 35 d4 3f
       0.6769684844439986 0.31574326575677775
000390 d0 53 29 88 21 0b 9d 3f fb 3e 7b 08 55 c7 d0 3f
       0.028362773833879917 0.26216626957192063
0003a0 50 c2 13 38 ca e9 bc 3f bd 57 b3 07 f0 45 ee 3f
       0.11294235104629391 0.9460373068238749
0003b0 b0 04 7a bc ae c0 95 3f fa aa e7 3a cf 5c ea 3f
       0.021242838147831733 0.8238292837607724
0003c0 8a e5 de 64 8d 55 de 3f 83 19 4a d0 0b f3 d3 3f
       0.473971699244054 0.3117093595577886
0003d0 05 1f 00 ac f2 c2 eb 3f 3b ad 40 a1 9a 30 ed 3f
       0.8675473555931325 0.9121831082788171
0003e0 04 31 c1 87 aa 8b e4 3f 6c 97 d4 96 89 4c e0 3f
       0.6420490886171426 0.5093429513842529
0003f0 e8 a7 8e 3c d7 db cc 3f da 9d 78 be 70 9c e1 3f
       0.2254590078057952 0.5503467292918984
000400 98 8a 67 69 5f e4 95 bf d0 0b 56 b5 a3 fc af 3f
       -0.021378985222222896 0.0624743613107267
000410 b4 da 06 b0 cb d7 e5 3f f9 e9 ed aa 3d d7 ec 3f
       0.6825922430060332 0.9012745226348776
000420 8b d9 d1 7f 71 cd eb 3f bb 6a 93 48 a9 77 ed 3f
       0.868828534744169 0.9208570878502863
000430 b5 e9 ed a7 ff 9c ea 3f 2e f6 cf f6 46 76 c4 3f
       0.831664875018126 0.15985953379997525
000440 81 a0 63 79 2e 0f ec 3f 9d 35 31 14 2c b0 d1 3f
       0.876853215301722 0.2763776967229548
000450 c5 7e 54 5f a1 4d ee 3f 3b ac 25 22 26 48 e4 3f
       0.9469763624110433 0.6338072459160523
000460 16 29 3a d4 21 8b e9 3f 02 1d 1d 41 36 30 db 3f
       0.7982339043676656 0.42481762274515245
000470 8a e8 e1 4e 92 ab cf 3f ec 1c 3b 1b 2d b7 e6 3f
       0.24742344714815473 0.7098603755811417
000480 ba f4 14 09 f3 b3 d2 3f d0 aa 7a e2 39 f1 e9 3f
       0.2922332371416122 0.8106965468808429
000490 98 39 6a 91 31 a2 d3 3f e0 5a 69 e5 74 69 bc bf
       0.3067745132510935 -0.11098414040439364
0004a0 0f 46 1b 95 31 fb e6 3f c8 ac b0 33 b0 65 d3 3f
       0.7181632911908212 0.3030815605913628
0004b0 d3 37 9f 05 90 0b ea 3f e0 e2 fd 3e 28 76 96 bf
       0.8139114484599709 -0.021935108990393526
0004c0 43 57 b9 52 89 c6 eb 3f 96 b9 3f 84 64 67 e7 3f
       0.8679854026511084 0.73137117223614
0004d0 f9 bf 70 94 05 04 e0 3f c2 6a bb c3 91 3b c5 3f
       0.5004909419276365 0.16588041360122047
0004e0 41 5b 89 98 cb 20 e0 3f f0 37 15 bf c6 d2 81 bf
       0.5040033320645777 -0.008702805239092698
0004f0 11 72 d6 cc ca 70 ec 3f 16 78 a7 c0 08 40 c3 3f
       0.8887685776458644 0.15039166838590806
000500 ef b8 aa 63 a5 e1 d1 3f 1f a0 8a b6 a6 9f ec 3f
       0.2793973420438211 0.894488674665812
000510 f6 8d 65 85 95 73 c4 3f 19 82 da b2 73 2a e3 3f
       0.1597773457861959 0.5989321225388863
000520 d6 55 9b 97 07 7d d9 3f ea ab f7 d0 31 c6 e8 3f
       0.398256204656119 0.7741936761279906
000530 0a 8f 55 5d 86 54 e5 3f 6a 41 e2 a6 66 0b da 3f
       0.6665679762777199 0.40694586083647855
000540 cf 8b 80 2f c4 57 e1 3f 58 d3 0d bb ce 75 c9 3f
       0.541963665750126 0.19890770085808174
000550 60 26 95 ca b0 2f 9d bf c4 17 bc 8f ac 95 bc bf
       -0.028502237667714758 -0.11165884503506535
000560 36 da d6 8b 86 47 d9 3f 2f 53 31 b6 48 30 e4 3f
       0.3949905744188159 0.6308940466356939
000570 12 a7 e7 31 c8 f9 b7 3f 76 a5 58 c4 ca ad d6 3f
       0.09365512102490595 0.3543574254459466
000580 3d eb 3d cf 2d 81 e4 3f a8 cc e2 44 92 75 d4 3f
       0.6407689140026843 0.31967598654882545
000590 e8 f7 e5 7d cd 70 d9 3f 00 82 87 55 0a 3b a0 3f
       0.39750993056065775 0.0317004422574918
0005a0 e0 36 04 f9 00 04 73 bf 7f 06 d7 b0 4a cc d1 3f
       -0.004642490195932075 0.2780939795448844
0005b0 9a 0b 6b 30 a9 3f e6 3f 06 f5 69 99 57 b5 c6 3f
       0.6952711053530607 0.17740912428772776
0005c0 50 26 00 30 e1 7c 8b bf d0 f2 e2 c7 bc 5f e2 3f
       -0.013421782758103934 0.5741866973908945
0005d0 61 31 ce a9 0d c0 e1 3f 72 f0 c9 ba 52 4a c2 bf
       0.5546940151703376 -0.14289316292331794
0005e0 00 48 8c e8 57 b2 ae 3f dc 80 8d 6b b9 62 d4 3f
       0.05995440210075742 0.3185256529159355
0005f0 b3 f1 da 66 1b e5 ec 3f 88 2e 9d 92 de 6b e3 3f
       0.902967167748605 0.6069176543764607
000600 8a 63 9a 65 80 72 e0 3f 50 0e 84 b9 51 fd 9a bf
       0.5139772400317366 -0.026356961200703133
000610 30 03 3d 27 12 a9 b2 3f 46 1d b8 c2 b7 1e c4 3f
       0.07289231737105406 0.15718743331692958
000620 51 ff d5 b9 5f 0a e7 3f d8 d2 8c c1 42 63 9d bf
       0.7200163488014174 -0.028698962272033807
000630 5c 95 fb 16 a3 0b e8 3f ba f8 08 7f 32 e1 d3 3f
       0.7514205407029908 0.3106199493958105
000640 6e bf c7 14 ee d0 e5 3f f8 01 44 e3 fd db a3 3f
       0.6817541509499117 0.03878777884711221
000650 f0 03 bd 48 fd 11 98 3f 5c ed c5 63 73 14 de 3f
       0.023506124081226376 0.46999821418258647
000660 d6 2f d3 c7 d9 43 cf 3f c0 94 14 6c 9f f1 7f 3f
       0.24425813920095035 0.007798788779188104
000670 1f 98 9c 34 30 56 ea 3f c9 c1 c0 2a 75 19 e3 3f
       0.8230210330555144 0.5968576273935976
000680 d1 14 26 8e a9 ae e6 3f c0 9d 24 a2 3a 72 90 bf
       0.7088210846274255 -0.016060749193597124
000690 d6 9a 36 d1 63 32 b5 bf 95 1c 01 99 32 3f e7 3f
       -0.08280013902422509 0.7264645565382063
0006a0 a3 04 f8 c8 31 1f e9 3f f8 b9 22 e6 bd a8 d3 3f
       0.7850579190418511 0.3071741816919764
0006b0 47 71 f4 54 c4 b0 eb 3f 0f c3 4d 45 38 9e b0 bf
       0.8653279933237535 -0.06491424266802091
0006c0 61 32 bb 6f 30 34 ee 3f ed e9 5f 75 8c 40 eb 3f
       0.9438707525492412 0.8516294758294954
0006d0 12 c4 a4 ca 0a 98 e8 3f 31 27 26 6f 1f 32 eb 3f
       0.7685598333247319 0.8498685046081161
0006e0 ba 46 7a ea 85 8b de 3f 18 08 32 72 26 be 9d bf
       0.47726581476409147 -0.029045677871643333
0006f0 db e7 b1 e5 16 59 eb 3f 01 48 4e 18 1e 98 ec 3f
       0.8546251760701539 0.8935690378878008
000700 1c e4 a1 22 9e 9e b3 3f 80 e1 92 c7 9d 14 5b bf
       0.07663906426923045 -0.001652864534021331
000710 c0 a7 d1 38 36 fc be 3f da 98 de 2f 5e 32 d5 3f
       0.12103594672376428 0.3311992137409
000720 8d e8 5f cc cb 79 e8 3f 7d ea 0a 9f d8 f9 c0 bf
       0.7648676864330511 -0.13262470021966868
000730 bc dd d2 df 73 4b e4 3f 88 37 87 db 22 8c e1 3f
       0.6342105266148148 0.5483564651164992
000740 11 33 68 b1 d1 e2 eb 3f 80 63 4e 0d 48 47 9c 3f
       0.8714378800374069 0.027615667163988444
000750 00 d0 ea 11 af 4d b9 3f da a6 b7 47 21 e2 c1 bf
       0.09884161174232986 -0.1397134399588172
000760 1c 28 ae 18 b5 f2 c5 3f ce ab 29 1b 56 45 c9 3f
       0.17146934228031874 0.19742847753818044
000770 d8 3d 1c e6 80 c8 c9 3f 3a 1e 12 b5 61 3d c1 3f
       0.2014313815675297 0.134685719884361
000780 f2 5d d5 ed f3 19 e3 3f ae d5 8a 45 5f 33 d7 3f
       0.5969180722412928 0.36251050750009994
000790 31 53 b8 a1 00 a7 ed 3f d3 ca f3 d7 3c 6a c0 bf
       0.9266360434145097 -0.1282421163992554
0007a0 7f 9d 65 24 2f d1 d0 3f 4c 4e ee cc 4c 04 bb bf
       0.2627675872267545 -0.10553436282344214
0007b0 55 5b 4b c0 ea 48 e3 3f 61 32 43 d2 62 4e e7 3f
       0.6026510005711808 0.7283186060609063
0007c0 ad 72 25 fd 8f 82 e1 3f 41 4a 23 c0 79 82 e2 3f
       0.5471877998603155 0.5784271958057802
0007d0 65 9a bf 09 a4 ef e1 3f a3 44 fc 15 52 d6 e0 3f
       0.5605030241393477 0.5261621884730129
0007e0 78 1e 24 14 51 4e 9a bf d9 58 78 ed 9b 16 d1 3f
       -0.025689379553141184 0.267004949478531
0007f0 15 00 a7 27 13 05 e0 3f 1e ac 1e 32 74 67 c4 3f
       0.5006194853267539 0.1594071621633199
